Task1/model/2layer_lr0.001.pth (torch, 3460 bytes, 5 tensors)

conv1.bias f4 [16]
0	0x00000000	0.0
1	0x00000000	0.0
2	0xbd15e699	-0.03659687
3	0xbc99aa1d	-0.018757874
4	0x00000000	0.0
5	0x00000000	0.0
6	0xbe37d6d3	-0.17953043
7	0xbdca4cc3	-0.098779224
8	0x00000000	0.0
9	0x00000000	0.0
10	0x00000000	0.0
11	0x00000000	0.0
12	0x00000000	0.0
13	0x00000000	0.0
14	0x00000000	0.0
15	0x3c0dfce2	0.008666249

conv1.lin.weight f4 [16, 1]
0	0xbf03f5fd	-0.51547223
1	0xbb270a7f	-0.0025488434
2	0x3c438a4e	0.01193483
3	0x3e149318	0.14509237
4	0xbef2b869	-0.4740632
5	0xbdf63c79	-0.12023253
6	0x3d4bd682	0.049765117
7	0x3e9a2bf6	0.30111665
8	0xbd9f479a	-0.07777329
9	0xbde85104	-0.113435775
10	0xbd1640b6	-0.036682807
11	0xbebe1d63	-0.37131795
12	0xbe0f131a	-0.1397213
13	0xbf17093e	-0.5899848
14	0xbecdd0ef	-0.40198466
15	0x3e360426	0.1777502

conv2.bias f4 [8]
0	0x3cc57543	0.024103766
1	0xbe1c8578	-0.1528529
2	0xbdf59c40	-0.11992693
3	0xbcedc6f3	-0.02902553
4	0xbdfec670	-0.12440193
5	0xbe240022	-0.16015676
6	0x3cacd331	0.021096798
7	0xbda963f5	-0.082710184

conv2.lin.weight f4 [8, 16]
0	0xbd80a608	-0.06281668
1	0xbebb2dae	-0.36558288
2	0xbcb36d8f	-0.021902828
3	0x3eb2a2cb	0.34889826
4	0x3c763000	0.0150260925
5	0xbe32bb6c	-0.17454308
6	0x3dd05f05	0.101743735
7	0x3ea97755	0.33098856
8	0xbedd12a4	-0.43178284
9	0x3ee4da20	0.44697666
10	0xbddf7b10	-0.10912144
11	0x3e096ab4	0.1341961
12	0x3e68b1ec	0.22724122
13	0xbd90fb98	-0.07079238
14	0x3e76f4b4	0.24116784
15	0x3eae015e	0.33985418
16	0x3ec975e4	0.39347756
17	0xbe42f994	-0.19040519
18	0xbf18cb43	-0.5968515
19	0xbeb291b3	-0.34876785
20	0xbdf24ba8	-0.118308365
21	0xbeb9c92c	-0.36286294
22	0xbdc6a11b	-0.09698697
23	0x3d6e866b	0.05823366
24	0xbe6eaf68	-0.233091
25	0x3c201c80	0.00977242
26	0xbe0f01f8	-0.13965595
27	0xbe1284ac	-0.14308423
28	0x3ec132e8	0.3773415
29	0xbedf3228	-0.43592954
30	0xbdc0eca8	-0.094201386
31	0x3e177ec5	0.14794452
32	0xbe08f518	-0.13374746
33	0x3c26e900	0.0101873875
34	0x3eb78bcc	0.35848844
35	0xbda1f9e6	-0.079089925
36	0x3e17ccb8	0.14824188
37	0xbe82cbf4	-0.2554623
38	0xbe0163ec	-0.12635773
39	0x3eae9f8d	0.34106103
40	0xbdf0dfd8	-0.11761445
41	0xbe2a1cbc	-0.16612524
42	0xbea497d8	-0.32147098
43	0x3e950c4e	0.2911095
44	0xbb38c600	-0.002819419
45	0x3edfda22	0.4372111
46	0xbec17112	-0.37781578
47	0xbeebe00b	-0.4606937
48	0xbec74b52	-0.38924652
49	0xbe13443c	-0.14381498
50	0x3e5bd5fe	0.2146835
51	0xbedbad91	-0.42905858
52	0xbe0afa44	-0.13572031
53	0xbe78de00	-0.24303436
54	0x3e8cac4e	0.27475208
55	0xbeedaac5	-0.4641935
56	0xbd536b00	-0.051615715
57	0x3e895d32	0.26828915
58	0xbe7a63c4	-0.2445212
59	0x3ed0d79c	0.40789497
60	0x3e9ba614	0.30400145
61	0x3e999ca4	0.3000232
62	0x3ef0d83e	0.4703998
63	0x3cc9e82b	0.02464684
64	0x3b2d9700	0.0026487708
65	0xbe04258c	-0.12904948
66	0xbeadf134	-0.33973086
67	0x3e898a2f	0.26863238
68	0xbbd41500	-0.00647223
69	0x3e0801a4	0.13281876
70	0xbe0d6843	-0.13809304
71	0xbd76b74a	-0.06023339
72	0xbdd536a8	-0.104108155
73	0xbeb4ab8e	-0.35287136
74	0x3c40ef80	0.011775851
75	0xbeb37b26	-0.35054892
76	0xbea8faf8	-0.33003974
77	0xbdd14c60	-0.102196455
78	0xbc744e80	-0.014911294
79	0xbf0ce577	-0.55037636
80	0x3ef07fd8	0.46972537
81	0xbedbe318	-0.42946696
82	0x3e0ddf3b	0.13854687
83	0xbe7fcdba	-0.24980822
84	0x3ee1865e	0.44047827
85	0x3d897618	0.06711978
86	0xbe87ee87	-0.2654917
87	0xbe919f2c	-0.2844175
88	0xbe6c42ec	-0.23072404
89	0xbe628ec8	-0.22124779
90	0x3ec19e16	0.37815922
91	0x3eaf4346	0.34231013
92	0x3e6e3d94	0.23265678
93	0xbd0963a0	-0.033542275
94	0x3db154d8	0.08658761
95	0x3e97e003	0.29663095
96	0x3da02fa8	0.0782159
97	0xbe0b80a0	-0.13623285
98	0x3e9fe857	0.3123195
99	0xbe73c753	-0.23806505
100	0x3ebd62c6	0.3698942
101	0xbdf829a8	-0.1211732
102	0xbba84d1a	-0.0051361443
103	0x3e93799e	0.28803724
104	0x3ed7a334	0.42116702
105	0x3efac3a4	0.48977387
106	0xbe3d6fd8	-0.18499696
107	0xbe6451a4	-0.22296768
108	0x3e6de5a4	0.23232132
109	0x3ca03720	0.019557536
110	0x3e2810a8	0.16412604
111	0x3ef24981	0.47321704
112	0x3e04ea84	0.12980086
113	0x3ed57cb4	0.41696703
114	0x3e8abce4	0.27097237
115	0xbf0d37d8	-0.55163336
116	0x3ebbc926	0.36676902
117	0xbe075500	-0.13216019
118	0x3ecbf40c	0.3983463
119	0x3eb39cca	0.35080558
120	0x3e780c78	0.24223506
121	0x3e951922	0.29120737
122	0xbeec54c6	-0.46158427
123	0xbeefbaaa	-0.468221
124	0x3dd04288	0.1016894
125	0xbe673d20	-0.22581911
126	0x3ecc13e8	0.39858937
127	0xbefb9f35	-0.49144903

fc.weight f4 [1, 8]
0	0xbe9d2fa8	-0.3070042
1	0x3ba27f0c	0.004958993
2	0x3dae4451	0.08509124
3	0xbe56e2a5	-0.20984896
4	0x3dd275f3	0.10276403
5	0x3d379d41	0.044827703
6	0xbe88505b	-0.26623806
7	0x3e7c84e3	0.24660067
