Task1/model/best_model.pth (torch, 58183 bytes, 25 tensors)

conv1.bias f4 [16]
-0.21805777 -0.5129516 0.19905682 -0.4434255 0.14158367 -0.9041987 -2.5122359 -1.0147198
0.52452224 1.0743375 0.11170636 -0.29632655 1.2342532 0.072440274 -1.153094 -0.8870439
00000000: 894a 5fbe cc50 03bf 8dd5 4b3e ab08 e3be
00000010: 4ffb 103e 9179 67bf 79c8 20c0 57e2 81bf
00000020: 1747 063f e483 893f 4ec6 e43d 1db8 97be
00000030: 02fc 9d3f 915b 943d 9698 93bf 4f15 63bf

conv1.lin.weight f4 [16, 1]
0.079266824 0.32513094 -0.70558584 -0.3972632 0.5759318 -0.006178506 -0.02008061 -0.34679502
-0.06313003 0.11840324 -0.05691356 0.22007284 0.27584586 -0.052755345 -0.9012624 0.38340023
00000000: a556 a23d 9077 a63e 46a1 34bf 1566 cbbe
00000010: 4470 133f 1175 cabb 1780 a4bc 1e8f b1be
00000020: 514a 81bd 667d f23d 311e 69bd c65a 613e
00000030: ab3b 8d3e fd15 58bd 22b9 66bf 094d c43e

bn1.module.weight f4 [16]
0.8803293 1.0022404 0.9647978 0.96782327 1.2013354 1.0601572 1.0548528 1.235181
1.0627104 0.9761123 1.0153477 0.8721898 1.1355506 1.0253617 0.97738945 0.9341609
00000000: 435d 613f 6a49 803f fdfc 763f 44c3 773f
00000010: 5cc5 993f 3bb3 873f 6b05 873f 691a 9e3f
00000020: e506 883f 7fe2 793f eaf6 813f d547 5f3f
00000030: b959 913f 0d3f 833f 3236 7a3f 2b25 6f3f

bn1.module.bias f4 [16]
-0.1300993 0.082609095 -0.0135612255 0.061009996 -0.09306052 0.17678869 -0.120526254 -0.096195094
0.31723112 0.016227119 0.25173447 0.06295064 -0.22120084 -0.051361892 -0.09094584 0.020507447
00000000: c038 05be f52e a93d e72f 5ebc 9ee5 793d
00000010: 8496 bebd 1808 353e 78d6 f6bd ef01 c5bd
00000020: 1e6c a23e bcee 843c 57e3 803e 44ec 803d
00000030: 7982 62be d960 52bd d041 babd 3cff a73c

bn1.module.running_mean f4 [16]
-0.09858001 -0.022946278 -0.8643109 -1.0421445 1.0095805 -0.9134679 -2.5424807 -1.5373523
0.4293736 1.2527694 0.025926128 0.035338737 1.6500003 -0.0071045007 -2.5113504 -0.30921635
00000000: 51e4 c9bd d5f9 bbbc 7b43 5dbf fe64 85bf
00000010: ef39 813f 08d9 69bf 01b8 22c0 f6c7 c4bf
00000020: dbd6 db3e bf5a a03f 0863 d43c 5abf 103d
00000030: 3633 d33f dfcc e8bb f7b9 20c0 9b51 9ebe

bn1.module.running_var f4 [16]
0.0055424892 0.09323462 0.43909863 0.13919643 0.29256177 3.3523633e-05 0.00035578516 0.10607867
0.0035159069 0.012363386 0.0028580488 0.042717863 0.06711405 0.0024560161 0.71642125 0.12965927
00000000: c59d b53b cbf1 be3d 89d1 e03e 8289 0e3e
00000010: a8ca 953e ba9b 0c38 ad88 ba39 c63f d93d
00000020: 216b 663b cd8f 4a3c 1a4e 3b3b edf8 2e3d
00000030: 1773 893d 1df5 203b 6267 373f 66c5 043e

conv2.bias f4 [16]
2.6040018 0.112905964 -0.24108508 -0.19325384 -3.4460983 1.5560802 0.040898614 -0.21628043
0.69154453 2.9136178 -0.25511447 2.3410757 2.3788133 -0.16666202 -0.22523811 -1.6995571
00000000: f7a7 2640 3e3b e73d 02df 76be 56e4 45be
00000010: e08c 5cc0 a32d c73f 4e85 273d 9e78 5dbe
00000020: 1009 313f b778 3a40 5d9e 82be 2fd4 1540
00000030: 7a3e 1840 73a9 2abe d2a4 66be 168b d9bf

conv2.lin.weight f4 [16, 16]
0.08020527 0.38398868 0.11292253 0.15776159 0.16604087 -0.40616915 0.010045582 -0.1150066
-0.4870016 0.4651633 0.29863408 -0.07148511 -0.21261303 0.34454858 -0.3071862 -0.053809028
0.4155384 -0.17774445 0.51177096 -0.1791529 0.11061495 0.21993235 0.49026582 -0.37083176
-0.20500316 -0.007805826 -0.31623083 0.18540005 -0.19991916 0.038034353 -0.24242413 -0.3269254
-0.007361408 -0.25117216 -0.12784736 0.009916499 0.042236637 0.37918246 -0.42116728 -0.30967
-0.10461844 0.35777372 0.35010886 0.39808968 0.20444706 -0.31087574 -0.04133929 0.23604798
-0.36053848 0.37583864 -0.39053547 -0.30748084 -0.23597388 0.364507 -0.18649653 0.43717113
0.22655208 0.4208786 0.09925995 -0.23937082 -0.37514365 0.03408659 0.22897372 -0.060852714
-0.085102275 -0.15585984 -0.07683111 0.24468896 -0.18684337 -0.10401963 -0.20510648 0.031161053
0.121076845 -0.33576012 -0.014076177 0.2688158 -0.3817416 -0.12863755 0.24764544 0.07212692
0.26728696 0.11223927 0.25536647 0.08357809 -0.17865899 -0.38166228 0.30746573 0.13836578
0.14099115 0.28909084 -0.03839297 -0.015962949 -0.09656252 0.254153 -0.055917308 0.08023132
-0.0025032153 -0.10327046 0.3742742 0.13795634 -0.43491367 -0.012369261 -0.019355103 -0.03428628
-0.23353831 0.4148484 -0.37674555 -0.051309127 0.019360246 -0.06767901 0.43796894 0.34011495
0.30961183 0.40383822 0.11937062 -0.053987276 0.16833511 0.2620903 0.10809825 -0.21512063
-0.29241577 0.24708314 -0.1901016 -0.045255058 0.38003933 -0.12043008 -0.41331646 0.32499015
0.058123145 0.36620232 -0.20893042 0.198156 0.12462671 -0.22136287 0.32257017 0.35517162
0.08519483 0.33471248 -0.12896937 -0.027425503 0.062207676 0.21922185 -0.06661217 -0.30148017
-0.20255649 0.3079312 -0.1496044 0.14068712 0.106202304 0.21954736 -0.23712516 0.0057415306
-0.3901842 0.2036281 -0.19023919 -0.17576216 -0.3633697 0.3761271 0.3517484 0.18108775
-0.10191931 -0.26969123 -0.38139373 -0.015458833 -0.17200078 0.17081201 -0.03581629 -0.13166362
0.3402499 0.38167328 0.29955134 -0.116367154 0.31567776 0.12095288 -0.13857782 0.2938238
0.30596277 -0.124776535 -0.05770388 -0.38729408 -0.33656317 0.34524894 0.22715187 0.07333381
-0.4708086 0.24791458 0.31061196 0.4374902 -0.17954634 0.010098219 0.1402709 -0.1891307
-0.19220926 0.31499743 0.24817199 0.09570501 0.012838723 0.20444593 -0.14905179 0.43710282
0.27242315 -0.47500366 -0.3857263 0.2704459 0.21204646 0.50477767 -0.048854124 0.32984763
0.046500806 0.2193007 0.37638167 0.17521517 0.022575727 -0.08712576 -0.39101055 -0.32543734
0.06935592 0.2632152 0.41160348 0.12256417 -0.20464888 0.3158124 -0.36681494 -0.3146809
-0.17306317 0.039181132 0.16240433 0.27330318 -0.38602707 0.25999585 0.31924525 0.1654835
0.079773 0.30783743 -0.0010217243 0.010032236 -0.32491788 0.26132643 -0.33018517 -0.448878
0.017222311 -0.3919768 -0.13833019 -0.3426124 0.10793142 -0.022281326 0.0170343 0.19946729
-0.090435445 0.33669293 -0.16322617 -0.12409034 0.1026828 0.37851095 -0.010009785 -0.24320576
00000000: a942 a43d 2a9a c43e ed43 e73d 418c 213e
00000010: 9e06 2a3e 67f5 cfbe 3a96 243c 9588 ebbd
00000020: 4658 f9be e229 ee3e 91e6 983e c966 92bd
00000030: 3bb7 59be ac68 b03e 8247 9dbe db66 5cbd
00000040: 73c1 d43e a402 36be 6c03 033f dc73 37be
00000050: 178a e23d f235 613e 1f04 fb3e a9dd bdbe
00000060: 59ec 51be 04c8 ffbb 02e9 a1be 83d9 3d3e
00000070: 9cb7 4cbe e9c9 1b3d 083e 78be c462 a7be
00000080: f737 f1bb a399 80be 6bea 02be d078 223c
00000090: 5300 2d3d 3424 c23e 3da3 d7be 118d 9ebe
000000a0: 3142 d6bd 1e2e b73e 7841 b33e 69d2 cb3e
000000b0: 925a 513e 1b2b 9fbe 6353 29bd 90b6 713e
000000c0: 8098 b8be ec6d c03e 44f4 c7be 216e 9dbe
000000d0: 23a3 71be a9a0 ba3e f2f8 3ebe e5d4 df3e
000000e0: 45fd 673e 667d d73e cd48 cb3d a01d 75be
000000f0: d412 c0be 619e 0b3d 1678 6a3e b240 79bd
00000100: 1a4a aebd b999 1fbe a159 9dbd be8f 7a3e
00000110: de53 3fbe 3e08 d5bd 6f07 52be 7745 ff3c
00000120: 23f7 f73d c0e8 abbe c49f 66bc 39a2 893e
00000130: a373 c3be 90b9 03be c496 7d3e 47b7 933d
00000140: d6d9 883e b4dd e53d 65bf 823e fd2a ab3d
00000150: 62f2 36be 3d69 c3be 266c 9d3e c2af 0d3e
00000160: fc5f 103e b703 943e f241 1dbd bbc4 82bc
00000170: 92c2 c5bd 5820 823e 8c09 65bd 5150 a43d
00000180: fc0c 24bb 777f d3bd dea0 bf3e 6d44 0d3e
00000190: 01ad debe 71a8 4abc 988e 9ebc c56f 0cbd
000001a0: ab24 6fbe 0267 d43e cbe4 c0be 8529 52bd
000001b0: 6199 9e3c 4b9b 8abd 773d e03e 8c23 ae3e
000001c0: 7185 9e3e e2c3 ce3e 9578 f43d c321 5dbd
000001d0: 0a60 2c3e b330 863e 9e62 dd3d 9548 5cbe
000001e0: 85b7 95be 5d03 7d3e fea9 42be 5e5d 39bd
000001f0: 8494 c23e 0ca4 f6bd 379e d3be 1c65 a63e
00000200: 8912 6e3d df7e bb3e dbf1 55be 68e9 4a3e
00000210: 4a3c ff3d f3ac 62be eb27 a53e 0ed9 b53e
00000220: a17a ae3d 6f5f ab3e 8c10 04be 73ab e0bc
00000230: 7acd 7e3d b17b 603e f66b 88bd 9c5b 9abe
00000240: f86a 4fbe 29a9 9d3e e531 19be 4910 103e
00000250: 9880 d93d 06d1 603e f0d0 72be 7323 bc3b
00000260: 39c6 c7be e283 503e 10ce 42be fffa 33be
00000270: 980b babe bb93 c03e 5e18 b43e 116f 393e
00000280: 12bb d0bd f814 8abe 0a46 c3be 0c47 7dbc
00000290: f920 30be 58e9 2e3e 1ab4 12bd d4d2 06be
000002a0: 3c35 ae3e ae6a c33e cb5e 993e e751 eebd
000002b0: 84a0 a13e 25b6 f73d 58e7 0dbe 1370 963e
000002c0: 27a7 9c3e d78a ffbd e75a 6cbd 694b c6be
000002d0: 0252 acbe 78c4 b03e 809a 683e 0930 963d
000002e0: d30d f1be 52dd 7d3e 8808 9f3e b7fe df3e
000002f0: ffda 37be 0073 253c 2da3 0f3e 7aab 41be
00000300: 81d2 44be 5847 a13e cc20 7e3e fd00 c43d
00000310: 8259 523c 465a 513e 08a1 18be f1cb df3e
00000320: 0c7b 8b3e ae33 f3be eb7d c5be e377 8a3e
00000330: b522 593e 1c39 013f 431b 48bd cae1 a83e
00000340: a177 3e3d 5d90 603e 19b5 c03e 9b6b 333e
00000350: bbf0 b83c fe6e b2bd 8932 c8be b99f a6be
00000360: 7a0a 8e3d 25c4 863e b1bd d23e ec02 fb3d
00000370: 7a8f 51be 2ab2 a13e 2bcf bbbe db1d a1be
00000380: 7937 31be 657c 203d 524d 263e 65ee 8b3e
00000390: 57a5 c5be 2d1e 853e 1d74 a33e 8274 293e
000003a0: 0760 a33d de9c 9d3e 61eb 85ba 3f5e 243c
000003b0: a35b a6be 94cc 853e 080e a9be 56d3 e5be
000003c0: ce15 8d3c 2fb1 c8be 6ea6 0dbe e46a afbe
000003d0: 260b dd3d 5487 b6bc 848b 8b3c 2741 4c3e
000003e0: 3836 b9bd 0463 ac3e c324 27be 1423 febd
000003f0: 5c4b d23d 30cc c13e 1500 24bc ee0a 79be

bn2.module.weight f4 [16]
1.1109015 1.1026536 1.0623411 1.0723084 0.9347597 1.0153666 1.2558485 0.9712288
1.0160822 0.9767005 0.952555 1.0488374 1.017221 0.9983573 1.040777 0.90805805
00000000: 0532 8e3f c123 8d3f cbfa 873f 6741 893f
00000010: 694c 6f3f 88f7 813f a5bf a03f 73a2 783f
00000020: fb0e 823f 0b09 7a3f a5da 733f 4e40 863f
00000030: 4c34 823f 5894 7f3f 2e38 853f 7e76 683f

bn2.module.bias f4 [16]
-0.018863585 0.036848556 0.020063179 0.02557789 -0.0315556 0.07307289 -0.21959402 -0.012149948
-0.19859415 0.005239286 -0.028369274 0.05727282 0.02589672 -0.05435455 0.03141187 -0.053834047
00000000: ce87 9abc 83ee 163d 895b a43c b988 d13c
00000010: 7240 01bd 3da7 953d 41dd 60be 9310 47bc
00000020: 445c 4bbe 51ae ab3b ae66 e8bc e896 6a3d
00000030: 5c25 d43c e0a2 5ebd bca9 003d 1781 5cbd

bn2.module.running_mean f4 [16]
2.6153128 -0.04152383 -0.14934821 0.016046314 -3.5339239 1.7808175 -0.014386971 -0.15307775
0.95304483 2.9230647 -0.03914604 2.344471 2.7971938 0.003105841 -0.05095148 -1.8437399
00000000: 4961 2740 e414 2abd bdee 18be 8f73 833c
00000010: cf2b 62c0 d4f1 e33f 54b7 6bbc 6ac0 1cbe
00000020: bffa 733f 7e13 3b40 9957 20bd d00b 1640
00000030: 3905 3340 5e8b 4b3b 80b2 50bd abff ebbf

bn2.module.running_var f4 [16]
0.2564251 0.016538195 0.3091556 0.20056953 0.083250314 0.13609248 0.0035828005 0.92855006
0.088800736 0.008581361 0.033530742 0.003170365 0.45020363 0.007945839 0.88931906 0.00356483
00000000: 274a 833e 1c7b 873c a549 9e3e 1962 4d3e
00000010: 247f aa3d d45b 0b3e 6bcd 6a3b 75b5 6d3f
00000020: 29dd b53d d698 0c3c 8857 093d e6c5 4f3b
00000030: 1781 e63e 442f 023c 6aaa 633f ec9f 693b

conv3.bias f4 [8]
-0.42734814 0.08918102 -3.0580714 0.5070907 2.056427 -1.0148921 1.0426792 -0.5161956
00000000: 60cd dabe 8aa4 b63d 71b7 43c0 b2d0 013f
00000010: 809c 0340 fce7 81bf 8376 853f 6525 04bf

conv3.lin.weight f4 [8, 16]
0.27408955 -0.21141158 0.15110868 0.27749205 -0.22184017 -0.4858357 -0.1811651 -0.31132278
0.03907458 0.28243622 0.34282228 -0.07433598 -0.2516241 0.32187957 0.20567341 0.33936313
0.13346043 -0.7219064 0.049222708 -0.458428 -0.2689407 0.36393568 0.28182092 -0.1911606
-0.16528791 0.43950683 -0.08268031 -0.043892924 0.37595662 0.005918322 0.08322514 -0.25517318
-0.22144568 0.28270948 0.3414992 0.3069033 -0.3309417 -0.13079976 -0.52314967 -0.022314746
-0.102081895 -0.11228274 0.3723062 -0.057663977 -0.53008413 0.16411991 0.2867926 0.51672584
-0.17145373 0.0076330504 -0.08851156 0.34073246 -0.07640515 -0.2949219 0.06756974 0.23106873
0.3181959 -0.06717202 -0.39225188 0.34824365 -0.21871872 -0.24080156 0.09773738 0.13084804
-0.34943467 -0.34244683 -0.10770256 0.24985719 0.29550496 -0.3107418 -0.26723772 -0.04868721
0.22139816 0.6986455 -0.10953818 0.3124033 0.07622732 -0.3837581 -0.28487468 -0.46050704
0.45357338 0.07572358 0.026666751 -0.36786756 0.47738028 -0.0034009353 -0.43084034 0.12757821
0.24632785 -0.110661976 -0.11668785 0.39188555 -0.15045936 0.05638631 0.14943357 -0.26639503
0.19064005 -0.09082318 -0.4343423 0.0054712617 -0.14015919 0.05373912 -0.053804185 0.14931081
0.20565513 0.18901399 -0.24290341 -0.071258344 -0.30717397 0.47561973 0.02858716 0.023267519
-0.18393049 -0.16391201 0.4382074 -0.19954927 0.3023322 0.41927835 0.14809161 -0.5413321
-0.3313955 0.30717963 0.47773907 -0.20817366 -0.06935958 -0.12410316 -0.25549662 -0.11790263
00000000: 7755 8c3e 477c 58be 3cbc 1a3e 7013 8e3e
00000010: 122a 63be 75bf f8be 5883 39be b365 9fbe
00000020: ab0c 203d 7b9b 903e 6786 af3e 763d 98bd
00000030: e0d4 80be 66cd a43e 0d9c 523e 01c1 ad3e
00000040: daa9 083e dcce 38bf c09d 493d 13b7 eabe
00000050: 98b2 89be c755 ba3e d54a 903e 9bbf 43be
00000060: 3c41 29be 0a07 e13e 4b54 a9bd 11c9 33bd
00000070: 637d c03e 7cee c13b f171 aa3d 0fa6 82be
00000080: a8c2 62be 4cbf 903e fcd8 ae3e 6e22 9d3e
00000090: 3171 a9be 5ff0 05be 23ed 05bf 6acd b6bc
000000a0: 5010 d1bd 7ef4 e5bd eb9e be3e 1031 6cbd
000000b0: 98b3 07bf 0d0f 283e 7bd6 923e 2548 043f
000000c0: 9191 2fbe ab1e fa3b 8c45 b5bd 7c74 ae3e
000000d0: 4e7a 9cbd 0100 97be 0162 8a3d 489d 6c3e
000000e0: 93ea a23e 7c91 89bd 3dd5 c8be fe4c b23e
000000f0: cdf7 5fbe af94 76be 892a c83d 07fd 053e
00000100: 1ae9 b2be 3155 afbe 2993 dcbd 90da 7f3e
00000110: 6d4c 973e 8d19 9fbe 62d3 88be 3d6c 47bd
00000120: 33b6 623e 6eda 323f 8e55 e0bd 53f3 9f3e
00000130: 121d 9c3d f17b c4be 18db 91be 94c7 ebbe
00000140: c53a e83e f714 9b3d 3b74 da3c 2359 bcbe
00000150: 306b f43e 3ae2 5ebb 1b97 dcbe dda3 023e
00000160: 5e3d 7c3e bfa2 e2bd 0afa eebd 39a5 c83e
00000170: 0512 1abe 55f5 663d 1d05 193e ee64 88be
00000180: 2537 433e 8101 babd 1d62 debe 4548 b33b
00000190: e485 0fbe 8d1d 5c3d c761 5cbd efe4 183e
000001a0: 4297 523e e28c 413e acbb 78be e5ef 91bd
000001b0: e845 9dbe 6e84 f33e 9f2f ea3c 869b be3c
000001c0: 4658 3cbe 8dd8 27be b85c e03e a556 4cbe
000001d0: 49cb 9a3e a7ab d63e 54a5 173e be94 0abf
000001e0: acac a9be a646 9d3e 379a f43e 7a2b 55be
000001f0: 650c 8ebd cc29 febd 74d0 82be ef76 f1bd

bn3.module.weight f4 [8]
1.282906 1.2930441 1.1468496 1.1853166 1.2365185 0.9530254 1.1942044 1.3404231
00000000: 4436 a43f 7882 a53f f8cb 923f 74b8 973f
00000010: 3d46 9e3f 79f9 733f b1db 983f fc92 ab3f

bn3.module.bias f4 [8]
0.04261077 -0.005851598 0.07492769 -0.065010875 0.32055268 -0.048148144 0.17536752 0.1754252
00000000: a188 2e3d c3be bfbb b073 993d 6c24 85bd
00000010: 7b1f a43e fd36 45bd 8b93 333e aaa2 333e

bn3.module.running_mean f4 [8]
-0.31547278 -0.079479955 -2.9668968 0.49848467 1.8089815 -0.86129665 1.000931 -0.55073154
00000000: a685 a1be 63c6 a2bd a3e1 3dc0 6239 ff3e
00000010: b58c e73f f07d 5cbf 821e 803f befc 0cbf

bn3.module.running_var f4 [8]
0.0036341082 0.037669584 0.027998632 0.00983234 0.04762379 0.098516494 0.0010847651 0.022513881
00000000: 382a 6e3b 6c4b 1a3d 635d e53c d317 213c
00000010: 2a11 433d 04c3 c93d ad2e 8e3a 086f b83c

fc1.weight f4 [128, 8]
0.1299169 -0.091112316 0.06511791 0.2135886 0.069137774 -0.17633276 0.20662025 -0.48255146
-0.15936553 0.24124126 -0.2083487 -0.08372183 0.15640542 -0.14138804 -0.2269448 0.2658107
-0.21382833 -0.2684686 -0.2843482 -0.17261313 0.05858476 -0.3428477 0.07201882 -0.3627094
-0.026846541 0.22172827 -0.251995 0.21218635 -0.1238054 -0.063836075 -0.09379938 0.1645163
-0.31615305 -0.021744376 -0.4296577 -0.31249115 0.06882604 -0.106654316 -0.4534458 0.057799928
0.3568386 0.14298947 0.11352099 0.294221 -0.072321 -0.04355734 -0.3150713 -0.2718202
0.26257017 0.25052783 -0.29512832 0.063400164 -0.15210743 0.22250451 -0.23072502 -0.1725846
0.24135557 -0.16816954 -0.2732934 -0.12977496 0.049296785 0.38272312 0.116638616 -0.31636897
-0.11254375 -0.38854238 0.20840514 0.20064722 -0.121538505 0.3168225 0.052323747 0.028805189
-0.18200204 -0.22806168 -0.055194777 -0.19510894 -0.15727337 0.36801037 0.29233015 0.19650525
-0.33515453 -0.31952122 0.26041016 0.0020312231 0.14325702 0.11378071 -0.09399247 0.21844973
0.15861364 -0.2567006 -0.017451733 0.27655554 0.3971738 -0.06648348 -0.3886167 -0.025324805
0.26103628 -0.20548627 -0.07177666 -0.09103942 0.16224958 0.097371385 -0.28438613 0.11538054
-0.08965983 0.009674558 0.33812183 0.023945907 -0.19429572 0.09042783 0.26992282 -0.31125447
-0.37643918 0.0016211966 -0.120816015 -0.06996503 0.07813275 -0.032274075 0.2388225 0.273709
0.26610702 -0.14582157 -0.10361662 -0.2690102 0.17169963 0.36781478 -0.32059205 -0.12768824
-0.22265054 -0.24711129 0.14499296 -0.10862185 0.23189566 0.18893014 -0.28206655 0.2764506
-0.2997525 -0.03413071 -0.22152384 -0.016013987 0.20013292 -0.04756115 0.19793946 0.3616939
-0.24164675 -0.21691687 0.30004254 -0.029158873 0.3415956 -0.11840249 -0.015140843 -0.002723295
-0.18480013 -0.31222177 0.0066916333 0.11286226 0.047960307 -0.32393909 0.31138828 0.25797743
0.19797617 -0.037318822 -0.19078186 0.05783309 -0.08469029 0.26010668 0.21995874 -0.052320376
-0.15416414 0.06608693 -0.24548139 -0.40119582 -0.17028174 -0.21109563 -0.07011548 -0.2091079
-0.40922642 -0.20585813 -0.36217138 -0.27496758 -0.42588598 0.07257483 -0.13226737 0.08524686
-0.40953395 0.10886217 -0.041476946 0.12832041 0.10816793 0.20849913 -0.119186096 -0.041904908
0.100659475 0.2942634 0.09152713 0.13445492 -0.3201735 -0.28214526 0.1404999 -0.19088
-0.4872036 -0.2736012 -0.21671654 -0.38019392 -0.22609527 0.08231994 0.14050718 -0.04616746
-0.21639156 0.20251727 0.18633197 -0.16406418 0.30519417 -0.08018596 0.13693307 -0.2799646
-0.21959116 -0.30223182 0.056198817 0.2713148 0.1263257 0.04955127 -0.17290795 0.35163504
-0.2168428 -0.36518756 0.2634346 0.14153846 0.114803515 0.06143395 -0.16747491 0.18084194
-0.11136581 0.25281245 -0.032374036 -0.302588 0.35764474 0.105983935 0.082832694 -0.22656287
-0.10768493 0.35086724 -0.2651229 0.21033971 -0.20778336 -0.16608162 0.039785277 -0.004610839
0.16184571 0.37070698 0.11525943 -0.2586543 -0.028326131 -0.062071968 -0.14568233 -0.22023335
00000000: f008 053e 1899 babd 8a5c 853d f8b6 5a3e
00000010: 1b98 8d3d 9390 34be 4294 533e fc10 f7be
00000020: b830 23be f307 773e 5d59 55be 5a76 abbd
00000030: be28 203e 07c8 10be 3864 68be 5718 883e
00000040: d0f5 5abe b774 89be 1696 91be 7fc1 30be
00000050: 93f6 6f3d bc89 afbe 9a7e 933d 0cb5 b9be
00000060: 47ed dbbc bc0c 633e 7d05 81be 6147 593e
00000070: b08d fdbd 7dbc 82bd e419 c0bd f676 283e
00000080: d0de a1be 4321 b2bc 18fc dbbe d7fe 9fbe
00000090: abf4 8c3d 946d dabd 0c2a e8be 9ebf 6c3d
000000a0: 8db3 b63e d56b 123e b17d e83d 23a4 963e
000000b0: 081d 94bd 2e69 32bd 0751 a1be 042c 8bbe
000000c0: 996f 863e 2f45 803e 0f1b 97be f2d7 813d
000000d0: 0dc2 1bbe 39d8 633e 2e43 6cbe 04ba 30be
000000e0: ea25 773e a334 2cbe 1ded 8bbe bae3 04be
000000f0: 6deb 493d 49f4 c33e 3ae0 ee3d 1dfb a1be
00000100: 567d e6bd 07ef c6be 2868 553e 7776 4d3e
00000110: 2ee9 f8bd 8f36 a23e 6d51 563d dcf8 eb3c
00000120: be5e 3abe 0089 69be eb13 62bd a3ca 47be
00000130: 450c 21be db6b bc3e 4cac 953e ac38 493e
00000140: 6099 abbe 4998 a3be 7b54 853e 451e 053b
00000150: f8b1 123e dc05 e93d 207f c0bd 49b1 5f3e
00000160: 9d6b 223e 436e 83be f0f6 8ebc b098 8d3e
00000170: 5d5a cb3e 7e28 88bd c5f8 c6be f775 cfbc
00000180: 8ca6 853e fe6a 52be a4ff 92bd e072 babd
00000190: c124 263e a66a c73d 0f9b 91be a24c ec3d
000001a0: 939f b7bd 0a82 1e3c 4e1e ad3e 352a c43c
000001b0: 75f5 46be 3a32 b93d 5333 8a3e bf5c 9fbe
000001c0: a3bc c0be 557e d43a 636e f7bd d349 8fbd
000001d0: 1004 a03d d231 04bd e38d 743e 9623 8c3e
000001e0: 2e3f 883e 4052 15be f334 d4bd b4bb 89be
000001f0: 07d2 2f3e 3852 bc3e a424 a4be b5c0 02be
00000200: 81fe 63be be0a 7dbe 0979 143e 2275 debd
00000210: 0e76 6d3e e776 413e 076b 90be ef8a 8d3e
00000220: 2979 99be a5cc 0bbd 25d7 62be c42f 83bc
00000230: a5ef 4c3e 7bcf 42bd a4b0 4a3e f12f b93e
00000240: 3f72 77be 751f 5ebe 2d9f 993e 97de eebc
00000250: 9ee5 ae3e 017d f2bd 4c11 78bc 4f79 32bb
00000260: 3f3c 3dbe 88db 9fbe 7d45 db3b 5424 e73d
00000270: 0772 443d 58db a5be 496e 9f3e 9e15 843e
00000280: 44ba 4a3e 9fdb 18bd 525c 43be 64e2 6c3d
00000290: 1a72 adbd b42c 853e dd3c 613e e44d 56bd
000002a0: 34dd 1dbe 9658 873d 795f 7bbe 8a69 cdbe
000002b0: 565e 2ebe 7429 58be b498 8fbd 6220 56be
000002c0: 2086 d1be 79cc 52be 876e b9be 8dc8 8cbe
000002d0: ba0d dabe 1da2 943d 1971 07be e895 ae3d
000002e0: 6fae d1be 21f3 de3d bbe3 29bd 6d66 033e
000002f0: 2687 dd3d cc80 553e d717 f4bd 7ba4 2bbd
00000300: 8e26 ce3d b1a9 963e 9372 bb3d 8dae 093e
00000310: c8ed a3be 5875 90be 35df 0f3e 0c76 43be
00000320: c072 f9be 7515 8cbe f1ea 5dbe c7a8 c2be
00000330: 8585 67be 5b97 a83d 1de1 0f3e 171a 3dbd
00000340: c095 5dbe b060 4f3e cfcd 3e3e 7100 28be
00000350: 6942 9c3e 8938 a4bd 2f38 0c3e 8557 8fbe
00000360: 81dc 60be 21be 9abe bb30 663d c6e9 8a3e
00000370: 865b 013e 46f6 4a3d c80e 31be 8209 b43e
00000380: 0a0c 5ebe ddf9 babe e6e0 863e 75ef 103e
00000390: 1b1e eb3d 2aa2 7b3d 8b7e 2bbe a12e 393e
000003a0: c213 e4bd a270 813e a39a 04bd d0ec 9abe
000003b0: 361d b73e 1b0e d93d 30a4 a93d 1900 68be
000003c0: eb89 dcbd dfa4 b33e 30be 87be 4b63 573e
000003d0: 29c5 54be 4d11 2abe e3f5 223d 8516 97bb
000003e0: e2ba 253e 4ecd bd3e 230d ec3d 566e 84be
000003f0: 340c e8bc 2d3f 7ebd c02d 15be da84 61be

fc1.bias f4 [128]
0.124075584 0.19260924 -0.13548973 -0.06794703 -0.058502104 -0.22074275 0.17183042 0.23015222
-0.25840098 -0.051525667 0.010133193 -0.15824302 0.03804216 -0.16014838 -0.11586298 0.34828094
0.0123811625 -0.33717865 -0.088319205 0.03227134 -0.5036002 -0.2619646 0.15782546 0.09234228
0.073004514 -0.27542394 -0.21748294 -0.27881104 -0.03548696 -0.26662034 0.25525257 0.135918
-0.26449174 -0.046821762 -0.0013219512 0.25970083 0.3436949 0.32079822 -0.030204605 0.16931088
-0.011150272 0.1958827 -0.19380137 0.008656671 -0.105788 -0.19161691 0.21801114 0.09202674
0.041879654 -0.087695666 0.06495698 0.14040186 0.14881423 0.29403248 -0.056456316 0.01927428
-0.2979905 -0.05238398 0.0057931216 0.0041358396 -0.34751517 -0.3693411 -0.0045714416 -0.13265254
-0.50956535 -0.16809897 0.08470231 -0.10376931 -0.22186887 -0.09992697 -0.027850585 0.19350043
-0.14414203 -0.08932706 0.07354581 0.120989844 -0.30619922 -0.32847708 0.07821622 -0.11597174
0.24844049 0.071630925 -0.14102271 0.05088899 0.060933776 -0.25925308 -0.009077036 -0.19842494
0.27590558 0.060241163 0.15485945 0.20020764 -0.19791512 0.15380444 -0.27075353 0.25707328
0.109919965 0.0006361788 0.1813107 -0.07433812 0.13680092 0.10887868 -0.10068763 0.19991833
-0.13590008 -0.027587228 -0.30494964 -0.14783165 -0.21518444 -0.37630048 -0.02812295 -0.02469455
0.15798688 -0.16323143 0.031359542 -0.07454369 0.12801969 -0.38167128 -0.15101367 0.09811492
-0.44949397 -0.25046057 0.17635363 0.14512725 0.20034778 0.062962 0.21875705 0.0110854395
00000000: 571b fe3d 5b3b 453e d2bd 0abe d027 8bbd
00000010: e79f 6fbd 630a 62be 50f4 2f3e 06ad 6b3e
00000020: 224d 84be 940c 53bd b105 263c 750a 22be
00000030: 19d2 1b3d f0fd 23be 9249 edbd e151 b23e
00000040: 5cda 4a3c aea2 acbe b3e0 b4bd f42e 043d
00000050: f1eb 00bf 3920 86be ff9c 213e f31d bd3d
00000060: 6483 953d 5e04 8dbe d9b3 5ebe 52c0 8ebe
00000070: c65a 11bd 7682 88be 77b0 823e 172e 0b3e
00000080: 766b 87be 2dc8 3fbd 5245 adba 82f7 843e
00000090: c7f8 af3e aa3f a43e a66f f7bc d55f 2d3e
000000a0: a1af 36bc 7995 483e de73 46be b6d4 0d3c
000000b0: 61a7 d8bd 3937 44be 503e 5f3e 8478 bc3d
000000c0: 008a 2b3d c999 b3bd 2a08 853d 81c5 0f3e
000000d0: c262 183e 6d8b 963e bd3e 67bd 18e5 9d3c
000000e0: 3692 98be 9690 56bd 3ad4 bd3b f085 873b
000000f0: 82ed b1be 471a bdbe 08cc 95bb 11d6 07be
00000100: e072 02bf 2322 2cbe 6878 ad3d 0185 d4bd
00000110: 9831 63be 83a6 ccbd e926 e4bc fa24 463e
00000120: f899 13be 1bf1 b6bd 309f 963d 86c9 f73d
00000130: 25c6 9cbe 262e a8be d32f a03d 9782 edbd
00000140: 2f67 7e3e 3cb3 923d 4268 10be f970 503d
00000150: b295 793d d2bc 84be d9b7 14bc e82f 4bbe
00000160: 7f43 8d3e 70bf 763d 7a93 1e3e 3b03 4d3e
00000170: 43aa 4abe e97e 1d3e 35a0 8abe 1c9f 833e
00000180: b81d e13d 3dc5 263a 83a9 393e 963e 98bd
00000190: 8a15 0c3e c9fb de3d 5135 cebd 64b7 4c3e
000001a0: 6429 0bbe 9cfe e1bc 5c22 9cbe 2e61 17be
000001b0: 4f59 5cbe 75aa c0be 1a62 e6bc 3a4c cabc
000001c0: 50c7 213e 2426 27be dd72 003d 5daa 98bd
000001d0: 9817 033e 6b6a c3be 54a3 1abe 7af0 c83d
000001e0: 1324 e6be 5e3c 80be 0c96 343e 3d9c 143e
000001f0: f827 4d3e 39f2 803d d901 603e b49f 353c

fc2.weight f4 [64, 128]
0.5275878 -0.35462996 -0.02899599 -0.32692635 0.019535488 0.11633399 0.44360372 0.35144037
-0.043086953 0.20492966 -0.4380234 -0.6270393 -0.53787386 0.5143928 -0.12736186 -0.1097129
-0.64080215 -0.43325537 -0.43215188 -0.15395549 0.10426956 0.026937544 -0.056075625 -0.14311652
0.70464003 -0.027872754 0.021861896 -0.46851924 -0.6596343 -0.12666106 -0.031149052 0.48568597
-0.39593628 0.00011755989 -0.9127929 0.46170774 -0.089009464 0.4409985 -0.8760108 0.41645947
-0.56640977 -0.25626478 0.034233417 0.63621634 0.06803172 -0.05570118 0.5330485 0.49559563
-0.4313245 -0.3546124 0.00776564 -0.004894508 -0.10907117 -0.028774273 -0.80275434 0.10602569
-0.08876159 0.0139596285 -0.07909474 -0.1469799 -0.17568338 -0.069274984 0.11514903 0.05802676
0.15166463 -0.011662903 -0.017955277 -0.06372458 0.107652865 -0.8164707 -0.089134276 -0.17544506
0.41410267 -0.7344645 1.0144293 -0.4458168 -0.01772555 0.010348959 -0.13263576 -0.09301898
-0.20222825 -0.35622397 0.037371367 -0.18714935 0.02371348 0.007694531 1.4649066 -0.0065686526
0.0066587953 0.10045494 -0.93477947 0.30099717 -0.5738736 -0.031453654 -0.054113645 -0.07443401
-0.29891506 -1.2670915 0.07472297 -0.043182846 0.09426967 -0.02524618 0.12623589 -0.022418784
-0.3786009 -0.06978685 -0.4880058 -0.1091664 0.43592066 -0.008513582 -0.061056614 -0.67774993
-0.22355911 -0.23673436 -0.008624487 0.80267125 -0.036839917 -0.36045775 -0.6389904 0.5362406
0.102092795 0.0034763408 -0.1423054 0.038607486 -0.08519379 0.022530422 0.3713368 -1.0589275
-0.0033127216 -0.13428895 -0.04243685 0.16311535 0.022745308 0.018322928 0.3066782 -0.07254501
0.030680174 0.1419278 -0.26454955 -0.059658676 -0.31157726 0.2113223 0.22970296 -0.16978383
-0.094445094 0.041518603 -0.46535835 -0.05090091 -0.015222736 -0.059226945 0.031621285 0.063830934
0.18913014 0.042067476 -0.014574667 0.11183943 -0.23948596 -0.15356424 0.08547325 -0.10719333
-0.20989127 -0.08277968 -0.93899673 0.44910926 -0.031643376 0.1622463 -0.51461524 0.13341689
-0.12560052 -0.14406745 -0.047972716 0.3114206 0.049054995 0.067735285 -0.019545209 0.008779015
-0.2952516 -0.36244014 -0.12785664 0.066812724 0.09345788 -0.008449531 -0.5984368 -0.16827822
-0.19029321 0.44339442 -0.16187592 -0.18506673 -0.094501205 -0.12530208 -0.034482453 0.048553906
0.05081649 0.0037015984 -0.08139855 -0.038260795 0.27486593 -0.79251343 -0.037572205 0.15989408
0.6075257 -0.31464815 0.8580349 -0.39117086 -0.05734101 -0.06633002 0.06472329 -0.010625972
0.119387716 0.22557743 0.00015842696 0.12303586 -0.18830703 0.025876097 1.187966 0.045880184
-0.08164762 0.19516937 -0.6887722 0.25307906 -0.119395964 -0.045968726 -0.0028791302 -0.008891889
-0.3643787 -1.3310012 0.117470436 -0.011026817 -0.061056282 -0.05390389 0.16318601 0.060486693
-0.5071885 0.066115364 -0.3289579 -0.060281456 0.5309011 -0.05055588 -0.017058643 -0.35780427
-0.03554662 -0.2934395 -0.004808967 0.5233485 0.077292025 0.03700697 -0.6203124 0.22326516
-0.009803713 -0.0938149 -0.14778633 -0.07757614 -0.08998831 -0.04181357 0.27227187 -1.099505
00000000: fe0f 073f 0f92 b5be 0089 edbc e462 a7be
00000010: e308 a03c 8440 ee3d 0720 e33e feef b33e
00000020: f27b 30bd 15d9 513e 9a44 e0be a685 20bf
00000030: 1ab2 09bf 3faf 033f 266b 02be 28b1 e0bd
00000040: 9c0b 24bf a6d3 ddbe 0343 ddbe 82a6 1dbe
00000050: 478b d53d 20ac dc3c 8eaf 65bd 238d 12be
00000060: 4a63 343f 6755 e4bc b817 b33c c1e1 efbe
00000070: cbdd 28bf 70b3 01be 4c2c ffbc d5ab f83e
00000080: 29b8 cabe 7c8a f638 ccac 69bf f564 ec3e
00000090: 984a b6bd 8eca e13e 3e42 60bf 2d3a d53e
000000a0: 3b00 11bf 2335 83be 5738 0c3d 13df 223f
000000b0: 3754 8b3d ec26 64bd de75 083f b6be fd3e
000000c0: 91d6 dcbe c28f b5be e976 fe3b 1c62 a0bb
000000d0: b560 dfbd 06b8 ebbc 4f81 4dbf ff23 d93d
000000e0: a3c8 b5bd edb6 643c 6cfc a1bd e681 16be
000000f0: 58e6 33be 0be0 8dbd 41d3 eb3d 78ad 6d3d
00000100: f94d 1b3e c315 3fbc f216 93bc 0882 82bd
00000110: 1b79 dc3d 3904 51bf 088c b6bd dfa7 33be
00000120: 4405 d43e de05 3cbf d2d8 813f 1a42 e4be
00000130: 2c35 91bc ae8e 293c abd1 07be bc80 bebd
00000140: ec14 4fbe fd62 b6be b812 193d 14a4 3fbe
00000150: c642 c23c 6822 fc3b 0f82 bb3f da3d d7bb
00000160: 0632 da3b 52bb cd3d b54d 6fbf 4d1c 9a3e
00000170: 61e9 12bf 8cd5 00bd 45a6 5dbd dc70 98bd
00000180: 650b 99be 0e30 a2bf 5b08 993d 7fe0 30bd
00000190: 7510 c13d 14d1 cebc fb43 013e 99a7 b7bc
000001a0: fad7 c1be 68ec 8ebd e5db f9be a292 dfbd
000001b0: fe30 df3e 8d7c 0bbc 8016 7abd 0581 2dbf
000001c0: aeec 64be 7e6a 72be b84d 0dbc dd7b 4d3f
000001d0: 74e5 16bd eb8d b8be e094 23bf 1047 093f
000001e0: 0716 d13d 52d3 633b 82b8 11be e222 1e3d
000001f0: 157a aebd b891 b83c db1f be3e f08a 87bf
00000200: 3f1a 59bb 0b83 09be 43d2 2dbd b607 273e
00000210: 5e54 ba3c f719 963c ed04 9d3e 7a92 94bd
00000220: fd54 fb3c 8555 113e 0a73 87be a85c 74bd
00000230: 0e87 9fbe df64 583e 4137 6b3e d0db 2dbe
00000240: 6e6c c1bd 690f 2a3d 7343 eebe 797d 50bd
00000250: c868 79bc f497 72bd 5285 013d cbb9 823d
00000260: 55ab 413e f24e 2c3d 96ca 6ebc 120c e53d
00000270: cf3b 75be f23f 1dbe 990c af3d 2d88 dbbd
00000280: bded 56be 6588 a9bd 1762 70bf a6f1 e53e
00000290: 7c9c 01bd e523 263e d3bd 03bf 709e 083e
000002a0: 6c9d 00be 6b86 13be 0a7f 44bd 8572 9f3e
000002b0: e4ed 483d ccb8 8a3d 461d a0bc dcd5 0f3c
000002c0: 382b 97be c191 b9be daec 02be 1cd5 883d
000002d0: d866 bf3d e76f 0abc 2733 19bf 2051 2cbe
000002e0: 39dc 42be 9804 e33e cdc2 25be 2282 3dbe
000002f0: d989 c1bd 304f 00be 793d 0dbd 76e0 463d
00000300: f424 503d 8496 723b 48b4 a6bd 5ab7 1cbd
00000310: 3abb 8c3e 29e2 4abf 50e5 19bd 46bb 233e
00000320: ce86 1b3f 9019 a1be 2da8 5b3f 8c47 c8be
00000330: 68de 6abd 09d8 87bd a58d 843d 8f18 2ebc
00000340: 8c81 f43d c5fd 663e 6a1f 2639 3afa fb3d
00000350: 8fd3 40be 1cfa d33c 450f 983f dcec 3b3d
00000360: de36 a7bd 7bda 473e 6053 30bf 9493 813e
00000370: df85 f4bd b449 3cbd caaf 3cbb 49af 11bc
00000380: d88f babe 3f5e aabf 5794 f03d d3a9 34bc
00000390: 2716 7abd 53ca 5cbd 3c1a 273e e5c0 773d
000003a0: 1bd7 01bf 7e67 873d 2b6d a8be b0e9 76bd
000003b0: 22e9 073f af13 4fbd 91be 8bbc 1f32 b7be
000003c0: 5599 11bd b43d 96be 8a94 9dbb 2bfa 053f
000003d0: 484b 9e3d 9f94 173d cbcc 1ebf 9f9f 643e
000003e0: c19f 20bc 0722 c0bd 4d55 17be 3de0 9ebd
000003f0: cb4b b8bd b544 2bbd 3867 8b3e 94bc 8cbf

fc2.bias f4 [64]
0.065601714 0.1420062 -0.07959098 0.023494033 -0.052720748 0.16369349 0.19663641 0.028631093
0.0607571 -0.045938604 0.08473793 -0.0448333 0.09404058 0.010477982 0.11432878 0.15767732
-0.012455655 0.032839045 0.1505085 0.17136642 0.033087697 0.038581558 0.015783088 0.052872993
-0.014823513 0.07023797 0.14042208 0.1998526 0.1788087 -0.07841559 0.12147119 -0.030833047
0.04095961 0.09719073 0.048950665 0.11641702 0.1659999 0.05957949 -0.017323334 0.15260194
0.09954918 0.07582494 0.116834596 0.066183314 0.017985975 0.076663665 0.15674038 -0.013614291
0.06885309 0.1061077 -0.010605865 -0.013590333 -0.08641566 0.040924963 0.1215295 0.14861259
0.033625007 0.03351276 0.17163752 -0.025439328 -0.06196962 -0.04093431 0.0051731933 -0.00042425317
00000000: 315a 863d 136a 113e 9900 a3bd 8f76 c03c
00000010: b6f1 57bd 449f 273e 0e5b 493e c18b ea3c
00000020: 70dc 783d 1e2a 3cbd 148b ad3d 1fa3 37bd
00000030: 5998 c03d d8ab 2b3c 3525 ea3d 2a76 213e
00000040: ce12 4cbc 3c82 063d e61e 1a3e ae7a 2f3e
00000050: f786 073d b207 1e3d 894b 813c 5a91 583d
00000060: 52de 72bc edd8 8f3d ceca 0f3e 29a6 4c3e
00000070: a119 373e 5a98 a0bd e3c5 f83d 9695 fcbc
00000080: 44c5 273d ef0b c73d 7e80 483d 0c6c ee3d
00000090: e1fb 293e a009 743d aae9 8dbc af43 1c3e
000000a0: 71e0 cb3d 1b4a 9b3d fa46 ef3d 1e8b 873d
000000b0: 5357 933c d701 9d3d 8d80 203e 7a0e 5fbc
000000c0: d902 8d3d fe4e d93d 39c4 2dbc fda9 5ebc
000000d0: b2fa b0bd efa0 273d 75e4 f83d e62d 183e
000000e0: 60ba 093d ad44 093d bfc1 2f3e 2366 d0bc
000000f0: dbd3 7dbd bcaa 27bd e483 a93b 4c6e deb9

fc3.weight f4 [32, 64]
0.117153764 0.18434498 0.106645495 -0.028117431 0.101719804 -0.029455455 -0.012390013 0.079494394
0.09085305 -0.028582498 -0.0006402998 -0.0035467437 0.05722308 0.08126706 -0.13373406 0.01783779
-0.078627124 -0.10890115 0.09475644 -0.00271465 0.2783119 -0.013185857 0.16802531 -0.038488448
0.20507616 -0.048058454 0.114739746 -0.16008154 0.08532277 0.020954156 -0.017751014 -0.090733506
0.22892451 0.23455231 -0.02724302 -0.14078254 0.043694034 0.052766345 -0.052068003 -0.15630685
0.032135602 -0.00020592642 0.04229792 0.025097309 0.067141555 0.038752478 0.08390197 0.13186769
0.15486224 0.025032789 0.1498048 0.050371695 -0.029770657 0.048652116 -0.06881755 0.13504717
-0.16123748 0.1717657 0.14529914 0.18290637 -0.104515195 0.010586682 0.14043406 0.0007293566
0.1362474 0.13738006 0.09608165 0.09508773 0.11052974 0.0071661416 -0.0961103 -0.08582248
0.3150348 0.170249 0.12575425 -0.18364981 0.16981938 0.11725244 -0.028069125 0.028992793
-0.0716112 0.0015099762 -0.03901668 0.104914896 0.262297 -0.22792594 0.11962165 -0.023507867
0.3573221 0.10505184 -0.04855311 -0.076861545 0.09553571 -0.05846124 0.13366841 0.011784649
0.22285095 0.29488614 0.06429474 -0.030367281 -0.07334636 0.21262589 -0.06702607 -0.11296311
0.14273381 0.075916424 0.12975518 0.05265055 0.057100408 0.103682026 0.16782483 0.087859325
0.11822055 0.092762135 0.11312693 0.19657502 -0.23246889 0.07301792 0.04531072 0.12495601
-0.15239647 0.15090066 0.13522485 0.23078056 -0.22698283 -0.09039151 -0.11257332 0.022871986
0.104934596 0.04981286 -0.04309517 0.13032183 -0.015403447 -0.10658765 0.06685816 -0.033218265
-0.05671042 -0.010305469 -0.017079264 -0.0546069 0.03346246 0.05044501 -0.036948975 0.04873533
-0.12520884 -0.046119988 -0.04848487 -0.0050487993 0.08159617 -0.15825924 0.12699223 0.05250396
-0.14603269 0.011630916 -0.019445127 -0.09891998 0.052506488 -0.116132855 -0.13210498 -0.2005715
-0.09365408 0.031208625 0.124605946 0.039201032 -0.023657586 0.080611594 -0.14315598 0.069397755
0.07547859 0.10435187 -0.0680453 -0.118962884 0.05539632 0.06572493 -0.028939186 -0.017551513
-0.08314837 -0.015118289 0.06587872 0.045581847 0.02810785 -0.022597603 0.079314016 0.14534253
-0.02162458 0.16246584 -0.03500939 0.12032305 0.113804385 -0.28695574 -0.2856245 -0.019704793
0.33279288 0.5286162 0.017260738 0.20834799 -0.0649036 0.22305475 0.52759707 0.28083405
0.19192328 -0.17561246 0.2377821 -0.023649672 0.23627889 -0.09002994 0.3088793 0.4034488
-0.015244569 -0.612125 0.64592165 0.29297116 0.13819952 0.020219566 0.25801533 0.78139764
-0.2671097 0.17140861 0.36223182 -0.63195866 0.61579615 -0.18289766 0.36391634 0.21861815
0.21958263 0.25468317 -0.02212622 0.24571823 0.5261379 0.5302102 -0.88691694 0.2853751
0.48627338 0.62865096 0.37030694 0.22464056 0.57826465 0.18376783 0.36170712 -0.05136038
-0.027903492 0.17650826 0.13204269 -0.2921955 -0.26570466 0.4562403 0.4962796 0.5668425
-0.32400993 0.06989357 0.49807033 0.2317119 -0.2596108 -1.0810254 -0.70571893 -0.3497849
00000000: 50ee ef3d eec4 3c3e f468 da3d 8756 e6bc
00000010: 7952 d03d 914c f1bc 7bff 4abc f5cd a23d
00000020: 2a11 ba3d d825 eabc cbd9 27ba 7c70 68bb
00000030: c062 6a3d 586f a63d 95f1 08be 8f20 923c
00000040: 4207 a1bd 9107 dfbd aa0f c23d 45e8 31bb
00000050: e67e 8e3e 7e09 58bc d40e 2c3e 10a6 1dbd
00000060: 7cff 513e f1d8 44bd acfc ea3d 6aec 23be
00000070: b4bd ae3d 0da8 ab3c 936a 91bc 7dd2 b9bd
00000080: 306b 6a3e 7b2e 703e c12c dfbc 4c29 10be
00000090: 84f8 323d 8621 583d 4245 55bd e70e 20be
000000a0: 9fa0 033d f4ed 57b9 9540 2d3d df98 cd3c
000000b0: 8381 893d ebba 1e3d ccd4 ab3d 5308 073e
000000c0: 3594 1e3e 9011 cd3c 6e66 193e 8d52 4e3d
000000d0: 98e1 f3bc 7147 473d 37f0 8cbd ce49 0a3e
000000e0: 701b 25be 59e3 2f3e 4cc9 143e cf4b 3b3e
000000f0: 100c d6bd c373 2d3c f2cd 0f3e 4b32 3f3a
00000100: 7084 0b3e 5cad 0c3e 75c6 c43d 5bbd c23d
00000110: 6b5d e23d f4d1 ea3b 7ad5 c4bd b2c3 afbd
00000120: 3e4c a13e c155 2e3e b9c5 003e b20e 3cbe
00000130: 22e5 2d3e 0c22 f03d 39f1 e5bc 4b82 ed3c
00000140: e5a8 92bd 65ea c53a f4cf 1fbd 9fdd d63d
00000150: cb4b 863e 6b65 69be 32fc f43d 9293 c0bc
00000160: ecf2 b63e 6b25 d73d a0df 46bd 9669 9dbd
00000170: 3aa8 c33d 0e75 6fbd 5fe0 083e 6714 413c
00000180: 0a33 643e 51fb 963e f6ac 833d cec4 f8bc
00000190: 9e36 96bd 9aba 593e f744 89bd 3459 e7bd
000001a0: d028 123e 127a 9b3d 8bde 043e 1aa8 573d
000001b0: 1ee2 693d 3e57 d43d 46da 2b3e 97ef b33d
000001c0: 9e1d f23d 13fa bd3d 18af e73d f64a 493e
000001d0: 530c 6ebe 6b8a 953d bc97 393d f0e8 ff3d
000001e0: d20d 1cbe b485 1a3e 6278 0a3e bd51 6c3e
000001f0: 306e 68be 2f1f b9bd d78c e6bd 085e bb3c
00000200: f3e7 d63d 9208 4c3d 9084 30bd 1673 053e
00000210: bd5e 7cbc a04a dabd eeec 883d e00f 08bd
00000220: 2f49 68bd 45d8 28bc d0e9 8bbc 7cab 5fbd
00000230: ef0f 093d 6d9f 4e3d cf57 17bd b39e 473d
00000240: bf36 00be 50e8 3cbd 1298 46bd 6670 a5bb
00000250: e51b a73d b60e 22be 400a 023e 640e 573d
00000260: 9889 15be 998f 3e3c 634b 9fbc 8f96 cabd
00000270: 0b11 573d 10d7 edbd 8746 07be 9e62 4dbe
00000280: b6cd bfbd 3ba9 ff3c 6731 ff3d 4391 203d
00000290: 8ecd c1bc b117 a53d 7b97 12be 6920 8e3d
000002a0: 8594 9a3d 6fb6 d53d 565b 8bbd d0a2 f3bd
000002b0: 40e7 623d cb9a 863d df11 edbc 31c8 8fbc
000002c0: b149 aabd b3b2 77bc 6ceb 863d 08b4 3a3d
000002d0: 6f42 e63c 9c1e b9bc 636f a23d acd4 143e
000002e0: 0826 b1bc 725d 263e 0266 0fbd ee6b f63d
000002f0: 4612 e93d ddeb 92be 603d 92be f26b a1bc
00000300: d463 aa3e 6453 073f 6466 8d3c 2d59 553e
00000310: 2eec 84bd 7768 643e 9a10 073f 7bc9 8f3e
00000320: 8987 443e c1d3 33be 277d 733e f5bc c1bc
00000330: 18f3 713e 9e61 b8bd 6d25 9e3e d790 ce3e
00000340: 5bc4 79bc 39b4 1cbf 1f5b 253f 5100 963e
00000350: 2d84 0d3e 81a3 a53c 961a 843e ad09 483f
00000360: 9ac2 88be bd85 2f3e 7376 b93e 0bc8 21bf
00000370: d1a4 1d3f 8649 3bbe 3e53 ba3e 70dd 5f3e
00000380: 45da 603e d565 823e 0c42 b5bc 8f9d 7b3e
00000390: f9b0 063f dbbb 073f fd0c 63bf af1c 923e
000003a0: d3f8 f83e 45ef 203f df98 bd3e 2d08 663e
000003b0: 2709 143f a22d 3c3e ad31 b93e 435f 52bd
000003c0: dd95 e4bc 95be 343e 3336 073e a69a 95be
000003d0: 710a 88be 5498 e93e 5c18 fe3e 971c 113f
000003e0: a1e4 a5be 5c24 8f3d 1303 ff3e e245 6d3e
000003f0: b5eb 84be 0a5f 8abf ffa9 34bf 0217 b3be

fc3.bias f4 [32]
0.087833926 -0.058716867 0.049192585 0.008551659 -0.11248933 -0.027921844 -0.0033240344 0.09291888
-0.017515682 -0.07688837 0.005014717 0.057360556 0.089263484 0.08559141 0.017405158 -0.055664733
0.056128535 0.006899055 -0.0060543623 0.022978362 0.037694626 -0.1344841 -0.13889785 0.043293312
0.047916014 0.0777602 -0.029698104 0.084804974 -0.050481267 -0.13652831 0.0126817785 0.062945254
00000000: 46e2 b33d 1981 70bd 2a7e 493d 421c 0c3c
00000010: ce60 e6bd 5abc e4bc 0bd8 59bb 414c be3d
00000020: 0c7d 8fbc a677 9dbd 7f52 a43b e7f2 6a3d
00000030: c6cf b63d 8d4a af3d 4395 8e3c b400 64bd
00000040: 09e7 653d 7811 e23b ac63 c6bb 1e3d bc3c
00000050: ae65 1a3d 33b6 09be 3d3b 0ebe 5454 313d
00000060: 9543 443d bd40 9f3d 7049 f3bc 3bae ad3d
00000070: 72c5 4ebd 14ce 0bbe 3cc7 4f3c 71e9 803d

fc4.weight f4 [1, 32]
-0.15042843 -0.1957338 0.28790113 -0.353747 0.24857184 0.15443747 0.29721442 -0.15481527
0.07707398 0.26513866 -0.1742921 0.12568086 0.1403401 0.25405827 0.15795426 -0.19784881
0.20180577 0.339263 -0.22008508 -0.22672522 0.27616692 0.1880294 0.18961647 -0.2313648
0.25023335 -0.252988 -0.13086297 -0.14689463 -0.1806799 0.10720512 -0.13837922 0.20183751
00000000: e909 1abe 716e 48be c767 933e 541e b5be
00000010: 9e89 7e3e db24 1e3e 7d2c 983e e587 1ebe
00000020: f6d8 9d3d 41c0 873e a179 32be 7cb2 003e
00000030: 51b5 0f3e ed13 823e c3be 213e e198 4abe
00000040: 2ca6 4e3e e1b3 ad3e fc5d 61be a82a 68be
00000050: c065 8d3e c78a 403e d22a 423e e5ea 6cbe
00000060: 961e 803e a587 81be f100 06be 8c6b 16be
00000070: 2704 39be 5c8e db3d 48b3 0dbe 7eae 4e3e
