Task1/model/bs1_epoch21.pth (torch, 58183 bytes, 25 tensors)

conv1.bias f4 [16]
-0.25623846 -0.520661 -0.5538313 -0.929028 0.72650987 -0.39966547 -0.9662987 0.3864116
0.40007463 0.7806016 0.23224448 -0.36110282 0.44230708 0.10194447 -0.8391309 -0.63879395
00000000: b031 83be 0a4a 05bf e3c7 0dbf c7d4 6dbf
00000010: 8dfc 393f f4a0 ccbe 5a5f 77bf bed7 c53e
00000020: 95d6 cc3e 82d5 473f 7fd1 6d3e 78e2 b8be
00000030: 1376 e23e 43c8 d03d 48d1 56bf 0088 23bf

conv1.lin.weight f4 [16, 1]
0.17257077 0.3820008 -0.6150275 -0.2605308 0.45935437 -0.0067337654 -0.012411503 -0.3346089
-0.099451765 0.14216815 -0.11790189 0.266981 0.09253192 -0.07335144 -0.80195314 0.3695271
00000000: 64b6 303e 9c95 c33e 7172 1dbf 4b64 85be
00000010: 7f30 eb3e eba6 dcbb 9e59 4bbc dc51 abbe
00000020: 5ead cbbd 8794 113e 8c76 f1bd bcb1 883e
00000030: 6081 bd3d 4839 96bd cd4c 4dbf a832 bd3e

bn1.module.weight f4 [16]
0.949293 0.9998184 0.9733285 0.9549111 1.1411086 1.0177326 1.028889 1.1864258
1.031094 0.99858445 1.0084596 0.9068647 1.0711305 1.0769548 0.9740624 0.93810326
00000000: de04 733f 19f4 7f3f 0e2c 793f 0e75 743f
00000010: d90f 923f 1045 823f a2b2 833f cddc 973f
00000020: e3fa 833f 3ba3 7f3f 3415 813f 4928 683f
00000030: ce1a 893f a8d9 893f 275c 793f 8927 703f

bn1.module.bias f4 [16]
-0.06973131 0.043377694 -0.020914681 0.038129598 -0.067973055 0.13593408 -0.116963476 -0.06673351
0.19952807 0.035792068 0.16697022 0.019352932 -0.18119946 -0.021365227 -0.081223026 0.02072716
00000000: 4acf 8ebd cfac 313d 4455 abbc c82d 1c3d
00000010: 7535 8bbd 4e32 0b3e 8c8a efbd 94ab 88bd
00000020: 1651 4c3e b49a 123d 3efa 2a3e 0a8a 9e3c
00000030: 5a8c 39be 2106 afbc 4258 a6bd 01cc a93c

bn1.module.running_mean f4 [16]
0.006256564 0.060489446 -1.489497 -1.3253793 1.4253718 -0.40995717 -0.9851481 -0.12260813
0.2488101 0.9969513 0.052883208 0.04501875 0.583124 -0.009642467 -2.059171 -0.07662984
00000000: dd03 cd3b c8c3 773d d6a7 bebf 07a6 a9bf
00000010: 9572 b63f e8e5 d1be aa32 7cbf f919 fbbd
00000020: 13c8 7e3e 3338 7f3f 109c 583d 9565 383d
00000030: 9d47 153f 70fb 1dbc 75c9 03c0 1bf0 9cbd

bn1.module.running_var f4 [16]
0.02446233 0.11988546 0.31081998 0.05577705 0.17338522 3.7361293e-05 0.00012633762 0.09198151
0.008126908 0.016614087 0.0114222225 0.058554817 0.0070386883 0.004420421 0.5284402 0.11218105
00000000: 3965 c83c 8286 f53d cc23 9f3e 7a76 643d
00000010: e58b 313e 62b4 1c38 7f79 0439 cd60 bc3d
00000020: b926 053c 441a 883c 4624 3b3c 2dd7 6f3d
00000030: cca4 e63b 2ed9 903b db47 073f 2ebf e53d

conv2.bias f4 [16]
2.1276028 0.09001674 -0.11351573 -0.14316441 -2.548437 1.0107614 0.012116172 -0.26731956
0.512707 2.0492682 -0.21801761 1.2069665 1.2331883 -0.13979068 -0.21630286 -1.2187144
00000000: a52a 0840 b25a b83d ef7a e8bd b199 12be
00000010: 9819 23c0 a160 813f e982 463c 1cde 88be
00000020: c440 033f 3627 0340 0240 5fbe e17d 9a3f
00000030: 1dd9 9d3f 4a25 0fbe 7f7e 5dbe d5fe 9bbf

conv2.lin.weight f4 [16, 16]
0.07871032 0.41644996 0.10376143 0.16998228 0.12171624 -0.36455485 -0.032627594 -0.1580458
-0.4341101 0.4869651 0.34347302 -0.022010565 -0.2760211 0.32208782 -0.3341851 -0.02192666
0.4021981 -0.18745928 0.49791947 -0.1968856 0.10414079 0.19779381 0.4752777 -0.37382507
-0.21034713 -0.019151773 -0.32915613 0.17354132 -0.20798138 0.030098202 -0.2558268 -0.33837533
-0.048942156 -0.40676802 -0.12541649 0.020117655 0.019884326 0.38796726 -0.43318406 -0.3079823
-0.07118045 0.23152687 0.37718573 0.24501544 0.27903584 -0.3068581 -0.046866257 0.10805625
-0.37495172 0.34666598 -0.3772933 -0.29857382 -0.25243428 0.35868987 -0.17333397 0.4480531
0.21376553 0.39609036 0.09457918 -0.2672866 -0.3798222 0.047435578 0.24477358 -0.086121865
-0.086959004 -0.092851914 -0.0795006 0.23925465 -0.15697102 -0.10798056 -0.20008309 0.03427158
0.1087606 -0.291401 -0.024654467 0.31030232 -0.38616487 -0.12944987 0.24812302 0.11131607
0.25785214 0.09163435 0.27997628 0.114014834 -0.19685741 -0.3432127 0.31710196 0.13368793
0.18021327 0.27018458 -0.0017561105 -0.031351727 -0.102744736 0.26853952 -0.03858931 0.06441761
-0.0063527715 -0.10833566 0.3696004 0.13446261 -0.42835066 -0.0111090215 -0.0226279 -0.038573254
-0.23398016 0.410295 -0.37829074 -0.05948048 0.03536697 -0.07265483 0.43196014 0.33465475
0.23715085 0.48924473 0.11769675 -0.059068646 0.1591221 0.26386353 0.11855255 -0.19160032
-0.2998836 0.2945099 -0.19664592 0.0042790263 0.26962042 -0.113689736 -0.4108092 0.35813498
0.039228495 0.36203992 -0.21355517 0.19611272 0.11855101 -0.21599224 0.31622672 0.3567253
0.09129355 0.3274206 -0.1247282 -0.036544714 0.044416748 0.21686926 -0.07418415 -0.31081715
-0.15798353 0.30324388 -0.15845232 0.13610335 0.0874419 0.23064287 -0.25324818 -0.015651258
-0.38792163 0.2068036 -0.18913442 -0.14876409 -0.34771612 0.3629348 0.3391764 0.20089991
-0.1251643 -0.27895784 -0.37651375 -0.009220058 -0.20504873 0.19415277 -0.030748023 -0.13625073
0.3350344 0.36961335 0.30032727 -0.12720062 0.26634333 0.12260234 -0.13406661 0.28062454
0.30333668 -0.14626874 -0.05653206 -0.3884949 -0.338908 0.32994533 0.23014835 0.07042485
-0.47829425 0.22989419 0.30412954 0.4183341 -0.16032535 0.009320863 0.14396572 -0.2050317
-0.16327825 0.32459277 0.2457521 0.098304965 0.022008853 0.19623317 -0.17238106 0.38443077
0.2750737 -0.4625278 -0.38372996 0.287652 0.24013568 0.48292693 -0.057747636 0.3472598
0.02565867 0.21316367 0.36407956 0.1642241 0.026356628 -0.09101602 -0.40561095 -0.32394752
0.06970447 0.2558629 0.4088941 0.108467035 -0.21293008 0.30980992 -0.381864 -0.32763624
-0.15464976 0.038619395 0.18111901 0.28765398 -0.37302965 0.26092744 0.3382393 0.18150519
0.074556634 0.31243595 0.00094843446 0.012502823 -0.29657948 0.2801915 -0.30888367 -0.44401827
0.016233258 -0.38286367 -0.1432723 -0.3444458 0.1097962 -0.015438956 0.008778021 0.19512615
-0.08410013 0.34532663 -0.15822534 -0.116499856 0.096655294 0.37507653 -0.018029282 -0.23665579
00000000: e032 a13d ee38 d53e df80 d43d d60f 2e3e
00000010: 5d46 f93d efa6 babe 83a4 05bd c2d6 21be
00000020: ae43 debe 7d53 f93e b2db af3e 804f b4bc
00000030: a352 8dbe b2e8 a43e 4f1a abbe 8a9f b3bc
00000040: e9ec cd3e 53f5 3fbe 4def fe3e 619c 49be
00000050: c447 d53d 768a 4a3e 9957 f33e 0066 bfbe
00000060: 3d65 57be 2ee4 9cbc 2787 a8be d1b4 313e
00000070: 12f9 54be 8190 f63c bbfb 82be 883f adbe
00000080: 9277 48bd e643 d0be 2e6d 00be c8cd a43c
00000090: 74e4 a23c a5a3 c63e 4dca ddbe dbaf 9dbe
000000a0: 0ec7 91bd 6115 6d3e 7d1e c13e 54e5 7a3e
000000b0: c9dd 8e3e 811c 9dbe d5f6 3fbd 984c dd3d
000000c0: acf9 bfbe 347e b13e 962c c1be abde 98be
000000d0: 113f 81be 33a6 b73e 767e 31be 3767 e53e
000000e0: 5ae5 5a3e 5bcc ca3e bbb2 c13d cad9 88be
000000f0: 0e78 c2be cf4b 423d eda5 7a3e a960 b0bd
00000100: 9017 b2bd 2529 bebd 36d1 a2bd 2cff 743e
00000110: 03bd 20be e924 ddbd 95e2 4cbe 5b60 0c3d
00000120: e1bd de3d 8332 95be 2af8 c9bc f2df 9e3e
00000130: 67b7 c5be 828e 04be f613 7e3e aef9 e33d
00000140: 3205 843e caaa bb3d 0d59 8f3e 9c80 e93d
00000150: fd94 49be 93b9 afbe 305b a23e 7de5 083e
00000160: d489 383e a255 8a3e 4a2d e6ba ab6a 00bd
00000170: d56b d2bd 037e 893e d30f 1ebd 61ed 833d
00000180: e92a d0bb 16df ddbd 433c bd3e 91b0 093e
00000190: c750 dbbe 9d02 36bc 255e b9bc fdfe 1dbd
000001a0: 7f98 6fbe 3012 d23e 53af c1be cea1 73bd
000001b0: f5dc 103d 0ecc 94bd e129 dd3e de57 ab3e
000001c0: acd7 723e 497e fa3e fe0a f13d f7f1 71bd
000001d0: e7f0 223e 1f19 873e aecb f23d e032 44be
000001e0: 588a 99be 00ca 963e 8c5d 49be 1337 8c3b
000001f0: b00b 8a3e 2ad6 e8bd 9555 d2be 785d b73e
00000200: 0fae 203d 4c5d b93e 35ae 5abe c6d1 483e
00000210: dfca f23d 122d 5dbe 78e8 a13e b3a4 b63e
00000220: 1df8 ba3d aca3 a73e 8071 ffbd e9af 15bd
00000230: 56ee 353d fa12 5e3e dced 97bd 6d23 9fbe
00000240: 6fc6 21be c842 9b3e 5341 22be ad5e 0b3e
00000250: bd14 b33d a52d 6c3e bfa9 81be 1137 80bc
00000260: aa9d c6be 53c4 533e 74ac 41be 9d55 18be
00000270: d907 b2be 97d2 b93e 87a8 ad3e b5b8 4d3e
00000280: 122b 00be 90d3 8ebe 69c6 c0be ba0f 17bc
00000290: 4bf8 51be fccf 463e 47e3 fbbc 5085 0bbe
000002a0: a189 ab3e f63d bd3e 7fc4 993e e140 02be
000002b0: 275e 883e f016 fb3d c248 09be 05ae 8f3e
000002c0: f24e 9b3e 79c7 15be 298e 67bd cee8 c6be
000002d0: 5985 adbe 98ee a83e 02ac 6b3e e73a 903d
000002e0: fce2 f4be 6269 6b3e deb6 9b3e e32f d63e
000002f0: 542c 24be 88b6 183c c06b 133e d4f3 51be
00000300: 6a32 27be 0631 a63e 70a6 7b3e 1d54 c93d
00000310: e94b b43c 59f1 483e a984 30be 1cd4 c43e
00000320: 76d6 8c3e 72d0 ecbe 4178 c4be 1f47 933e
00000330: 21e6 753e 3342 f73e c988 6cbd 09cc b13e
00000340: 2232 d23c 9447 5a3e a368 ba3e 5d2a 283e
00000350: dbe9 d73c 9b66 babd 3dac cfbe 73dc a5be
00000360: 38c1 8e3d 7600 833e 915a d13e f723 de3d
00000370: 580a 5abe 689f 9e3e ae83 c3be f0bf a7be
00000380: 825c 1ebe 5f2f 1e3d 4377 393e 6247 933e
00000390: befd bebe 4898 853e b42d ad3e 7fdc 393e
000003a0: 26b1 983d 9bf7 9f3e 5ca0 783a a4d8 4c3c
000003b0: 44d9 97be 4375 8f3e 0026 9ebe 5d56 e3be
000003c0: 9cfb 843c b506 c4be f9b5 12be 335b b0be
000003d0: d5dc e03d adf3 7cbc b0d1 0f3c 26cf 473e
000003e0: b03c acbd a7ce b03e d305 22be 7a97 eebd
000003f0: 36f3 c53d 080a c03e 25b2 93bc e555 72be

bn2.module.weight f4 [16]
1.0673155 1.0776869 1.0294771 1.0207158 0.955269 1.0290675 1.256211 0.9829583
0.95470893 0.9310213 0.9964719 1.0049356 1.0111113 1.0224444 1.0113497 0.9301704
00000000: cb9d 883f a5f1 893f e8c5 833f d1a6 823f
00000010: 828c 743f 7cb8 833f 86cb a03f 28a3 7b3f
00000020: ce67 743f 6957 6e3f c818 7f3f bba1 803f
00000030: 186c 813f 75df 823f e873 813f a61f 6e3f

bn2.module.bias f4 [16]
-0.028675178 0.056373183 0.015930967 0.0054238252 0.029327162 0.041811075 -0.13095757 0.013546375
-0.1378512 -0.010702983 0.022976771 -0.025087671 0.01633398 -0.042969305 0.006528893 -0.091735594
00000000: 35e8 eabc 91e7 663d a981 823c 58ba b13b
00000010: 843f f03c 1742 2b3d be19 06be 9df1 5d3c
00000020: dd28 0dbe 905b 2fbc c839 bc3c a984 cdbc
00000030: d7ce 853c 9500 30bd 53f0 d53b dfdf bbbd

bn2.module.running_mean f4 [16]
2.2208986 -0.064125285 -0.13239765 0.0040431772 -2.6288211 1.3095826 0.003343251 -0.13426434
0.78249115 2.0998464 -0.047293965 1.2228723 1.6431949 -0.0020114512 -0.025957191 -1.3097887
00000000: 3423 0e40 1e54 83bd 4093 07be a17c 843b
00000010: 9b3e 28c0 67a0 a73f 721a 5b3b 977c 09be
00000020: 5751 483f e263 0640 51b7 41bd 1487 9c3f
00000030: 3654 d23f 8dd2 03bb 2da4 d4bc 28a7 a7bf

bn2.module.running_var f4 [16]
0.22367771 0.03557821 0.16055794 0.2703319 0.043953646 0.28683805 0.003026722 0.9761218
0.09408579 0.008334482 0.039687343 0.0028242264 0.41220987 0.007047253 1.032381 0.0027726858
00000000: c50b 653e 75ba 113d 4d69 243e f168 8a3e
00000010: bd08 343d 70dc 923e f85b 463b 1ee3 793f
00000020: 0db0 c03d 5a8d 083c 328f 223d a816 393b
00000030: 2c0d d33e a5ec e63b 1025 843f f3b5 353b

conv3.bias f4 [8]
-0.15676554 -0.123218164 -2.4823744 0.098630756 1.1601322 -0.7211361 1.2173431 -0.19521779
00000000: 2587 20be ce59 fcbd 39df 1ec0 ecfe c93d
00000010: 367f 943f 609c 38bf e6d1 9b3f 2ce7 47be

conv3.lin.weight f4 [8, 16]
0.285496 -0.22246669 0.1710553 0.27219343 -0.21514452 -0.49218082 -0.13556482 -0.29319903
0.012755909 0.25216046 0.33200678 -0.06953342 -0.25796345 0.3271304 0.20585136 0.33987498
0.09139931 -0.5715917 0.0351736 -0.42488486 -0.30458245 0.37533668 0.6129193 -0.22619084
-0.15068875 0.42871898 -0.10895517 0.021695394 0.3879428 -0.029621387 0.11746603 -0.053906385
-0.15712357 0.2775114 0.33240974 0.31764895 -0.3433579 -0.13883112 -0.6257476 0.017328687
-0.11594662 0.032136004 0.3457823 -0.020180535 -0.53648114 0.14975871 0.28843358 0.2946361
-0.18406041 -0.06178353 -0.0736107 0.33302376 -0.10206938 -0.28313747 0.02230513 0.24755901
0.36365142 -0.12815122 -0.36811006 0.3392441 -0.20277587 -0.22155811 0.09447763 0.17937326
-0.32415608 -0.18046904 -0.08501931 0.26134163 0.39257213 -0.3016824 -0.3296203 0.0018086659
0.24939913 0.6134928 -0.09973085 0.3295908 0.08088337 -0.3832343 -0.27194777 -0.21781196
0.37024742 -0.008365232 -0.08619996 -0.39610168 0.459245 0.004618716 -0.45196667 0.029458588
0.27292806 -0.088362716 -0.12422004 0.44208258 -0.15043691 0.040090177 0.11413137 -0.3822874
0.19116308 -0.094047114 -0.46922114 0.004616554 -0.13572371 0.059895657 -0.03998609 0.13782597
0.162063 0.23209679 -0.23781289 -0.06612368 -0.29812348 0.46673572 0.029424272 0.021388518
-0.14280836 -0.19563194 0.42986006 -0.20806122 0.20133878 0.42595717 0.16753684 -0.5182302
-0.3250268 0.34011364 0.4739172 -0.20010927 -0.063710436 -0.14766663 -0.26542196 -0.16826099
00000000: 882c 923e 4fce 63be 1f29 2f3e f05c 8b3e
00000010: d84e 5cbe 20ff fbbe 81d1 0abe 2f1e 96be
00000020: 29fe 503c 2d1b 813e cbfc a93e 8a67 8ebd
00000030: c913 84be a37d a73e b3ca 523e 1804 ae3e
00000040: 902f bb3d d553 12bf 3112 103d 828a d9be
00000050: 3bf2 9bbe 212c c03e 47e8 1c3f 929e 67be
00000060: 274e 1abe 0e81 db3e e323 dfbd 8aba b13c
00000070: 70a0 c63e 8da8 f2bc 0892 f03d f1cc 5cbd
00000080: 00e5 20be f915 8e3e 9c31 aa3e e2a2 a23e
00000090: 9bcc afbe bf29 0ebe ff30 20bf e4f4 8d3c
000000a0: 6c75 edbd 0ba1 033d 610a b13e a651 a5bc
000000b0: d456 09bf 595a 193e 91ad 933e 8bda 963e
000000c0: 557a 3cbe ba10 7dbd 35c1 96bd 1782 aa3e
000000d0: c009 d1bd 65f7 90be 3fb9 b63c 1c80 7d3e
000000e0: 8530 ba3e 133a 03be ec78 bcbe 67b1 ad3e
000000f0: 7aa4 4fbe 21e0 62be 7d7d c13d a0ad 373e
00000100: c9f7 a5be e0cc 38be 9b1e aebd 92ce 853e
00000110: 37ff c83e 1e76 9abe fec3 a8be c210 ed3a
00000120: 7c62 7f3e dd0d 1d3f b03f ccbd 20c0 a83e
00000130: 2ea6 a53d 4937 c4be bd3c 8bbe 190a 5fbe
00000140: 1291 bd3e 530e 09bc 9b89 b0bd d7cd cabe
00000150: 2922 eb3e 9958 973b 2d68 e7be 2353 f13c
00000160: 3abd 8b3e 83f7 b4bd 1467 febd a658 e23e
00000170: 220c 1abe 9935 243d b5bd e93d 2dbb c3be
00000180: 41c0 433e c69b c0bd c13d f0be 7646 973b
00000190: 28fb 0abe 2655 753d 74c8 23bd 4022 0d3e
000001a0: d8f3 253e c8aa 6d3e 3985 73be da6b 87bd
000001b0: a4a3 98be fcf7 ee3e 2c0b f13c f936 af3c
000001c0: 5b3c 12be bd53 48be 9e16 dc3e 000e 55be
000001d0: c12b 4e3e 0f17 da3e c78e 2b3e bcaa 04bf
000001e0: ea69 a6be 6023 ae3e 46a5 f23e 72e9 4cbe
000001f0: 9e7a 82bd ec35 17be 63e5 87be 9c4c 2cbe

bn3.module.weight f4 [8]
1.2863871 1.2194747 1.0361707 1.0825506 1.1239742 0.94569296 1.0082834 1.2241404
00000000: 55a8 a43f bf17 9c3f 3ea1 843f 0591 8a3f
00000010: 63de 8f3f ef18 723f 6e0f 813f a2b0 9c3f

bn3.module.bias f4 [8]
0.058244396 -0.011007774 -0.011776278 -0.039960045 0.20620534 -0.050946333 0.009333588 0.13314414
00000000: ad91 6e3d f359 34bc 4af1 40bc 25ad 23bd
00000010: 7e27 533e 1aad 50bd e8eb 183c f056 083e

bn3.module.running_mean f4 [8]
-0.06349121 -0.14391465 -2.4219906 0.03150533 1.0283931 -0.7139639 1.1648899 -0.22642611
00000000: ae07 82bd 5d5e 13be e501 1bc0 bc0b 013d
00000010: 63a2 833f 57c6 36bf 1d1b 953f 3fdc 67be

bn3.module.running_var f4 [8]
0.0023819478 0.11500734 0.044208203 0.00802751 0.04247873 0.17334548 0.0027148386 0.018313162
00000000: 741a 1c3b f888 eb3d a913 353d d185 033c
00000010: 2dfe 2d3d 7a81 313e 6feb 313b 7c05 963c

fc1.weight f4 [128, 8]
0.13899624 -0.11014951 0.067145735 0.20467766 0.09259588 -0.17314413 0.20496966 -0.46830028
-0.17343207 0.23314792 -0.20035951 -0.10981872 0.14471209 -0.13324784 -0.18430926 0.24064693
-0.21003516 -0.263915 -0.2632248 -0.15975644 0.09542271 -0.30805054 0.1126658 -0.33101818
-0.043620154 0.2054453 -0.2328773 0.20601925 -0.12476798 -0.052762598 -0.07972872 0.16507152
-0.3281241 -0.026950138 -0.41353866 -0.3135955 0.08471777 -0.07937457 -0.41338027 0.06730373
0.31969222 0.1480561 0.12892193 0.30145532 -0.07894273 -0.041153423 -0.30442113 -0.28212705
0.27711186 0.2244967 -0.2934178 0.031504493 -0.15318488 0.22543246 -0.22221099 -0.17934018
0.21712677 -0.18674049 -0.27351123 -0.13921097 0.07241785 0.38059402 0.11594649 -0.2966787
-0.076356865 -0.37640968 0.20579565 0.21948454 -0.14020501 0.305124 0.015145145 0.024469836
-0.16356193 -0.23019706 -0.07057858 -0.1992793 -0.15229312 0.36180404 0.27972245 0.20607634
-0.35480383 -0.2961601 0.23766766 0.020104555 0.13631094 0.1058024 -0.101359576 0.21443316
0.15708159 -0.25248763 -0.013832644 0.29511783 0.37525943 -0.0547624 -0.36554688 -0.04802146
0.26058376 -0.21914457 -0.07497203 -0.09675837 0.14350013 0.10246888 -0.26170433 0.101387106
-0.050766636 0.010358952 0.35356638 0.036764737 -0.18180765 0.08584114 0.22379233 -0.294578
-0.35974807 0.0117628705 -0.12413263 -0.06053027 0.095719986 -0.033669155 0.21721174 0.29241166
0.23706184 -0.15272254 -0.113719136 -0.28099197 0.16198078 0.37657815 -0.29005855 -0.13961188
-0.25285262 -0.22536823 0.11813402 -0.09494445 0.2254668 0.18534388 -0.28040516 0.27206
-0.31108338 -0.016278677 -0.2132699 -0.0007166751 0.18920986 -0.054822914 0.19502789 0.35605475
-0.25919837 -0.19191943 0.2833128 -0.006216043 0.34115797 -0.12339016 -0.025561258 -0.0013788125
-0.1557012 -0.30936232 -0.0028483844 0.11588947 0.047152404 -0.33042803 0.30020112 0.26173812
0.18645242 -0.035300672 -0.16612712 0.063779995 -0.08538378 0.25039408 0.20741083 -0.048275877
-0.14529295 0.06923048 -0.22958605 -0.3907042 -0.1328418 -0.17787227 -0.032509387 -0.17825384
-0.40464866 -0.19738913 -0.34232417 -0.26156956 -0.38792616 0.11126033 -0.08351395 0.11714884
-0.38545847 0.10700767 -0.049240727 0.12824824 0.11715057 0.2058519 -0.14793323 -0.034365885
0.11797068 0.27910236 0.10846409 0.12174292 -0.3104676 -0.28015575 0.13859524 -0.18349871
-0.48353726 -0.28736183 -0.20891364 -0.38253942 -0.20123413 0.0942695 0.15336172 -0.023055267
-0.20681003 0.22285114 0.18724188 -0.1546852 0.3094391 -0.091983356 0.112175226 -0.27677947
-0.22532788 -0.28028733 0.05834731 0.2915015 0.10493188 0.04755358 -0.17610072 0.33760387
-0.227418 -0.33984143 0.25423378 0.169087 0.103047185 0.06274666 -0.17240891 0.17561534
-0.09997546 0.2761511 -0.04109906 -0.28799662 0.34941497 0.09710944 0.06588855 -0.23489422
-0.13065949 0.33145615 -0.27079862 0.1826766 -0.17654781 -0.17177902 0.04399675 0.01565213
0.15126447 0.35965228 0.11489028 -0.2728116 -0.017791685 -0.056157988 -0.13215601 -0.21281196
00000000: 0855 0e3e 1196 e1bd b483 893d 0597 513e
00000010: e9a2 bd3d b24c 31be 91e3 513e 0ec5 efbe
00000020: 2d98 31be 54be 6e3e 0b2b 4dbe a3e8 e0bd
00000030: 682f 143e 1f72 08be 91bb 3cbe 266c 763e
00000040: 7513 57be de1f 87be 67c5 86be 3197 23be
00000050: fb6c c33d cdb8 9dbe 54bd e63d 377b a9be
00000060: 0cab 32bd 4160 523e 6377 6ebe b6f6 523e
00000070: 5b86 ffbd 981d 58bd d048 a3bd 8208 293e
00000080: e2ff a7be 89c6 dcbc 57bb d3be 978f a0be
00000090: 8380 ad3d 228f a2bd 94a6 d3be 8ad6 893d
000000a0: b3ae a33e 059c 173e 1c04 043e 5a58 9a3e
000000b0: baac a1bd 7e90 28bd 16dd 9bbe f572 90be
000000c0: 9be1 8d3e 77e2 653e dc3a 96be db0a 013d
000000d0: 7fdc 1cbe c4d7 663e 478b 63be f4a4 37be
000000e0: 7b56 5e3e e638 3fbe aa09 8cbe 528d 0ebe
000000f0: cf4f 943d 38dd c23e 5a75 ed3d 45e6 97be
00000100: fd60 9cbd c5b8 c0be 18bc 523e 8ec0 603e
00000110: e791 0fbe 3739 9c3e 5823 783c f774 c83c
00000120: c77c 27be c7b8 6bbe 818b 90bd df0f 4cbe
00000130: baf2 1bbe 613e b93e c837 8f3e ad05 533e
00000140: d9a8 b5be 4ca2 97be 275f 733e 4fb2 a43c
00000150: 1895 0b3e eeae d83d 9c95 cfbd 5e94 5b3e
00000160: ffd9 203e 0f46 81be 50a2 62bc af19 973e
00000170: 0122 c03e 8a4e 60bd f628 bbbe 27b2 44bd
00000180: 3c6b 853e 6f67 60be f08a 99bd 4129 c6bd
00000190: b3f1 123e 34db d13d 1cfe 85be 0ba4 cf3d
000001a0: adf0 4fbd 98b8 293c a706 b53e 9f96 163d
000001b0: c92b 3abe 7bcd af3d d129 653e edd2 96be
000001c0: e630 b8be 0eb9 403c 4039 febd 97ee 77bd
000001d0: d708 c43d abe8 09bd c16c 5e3e fbb6 953e
000001e0: 57c0 723e 4c63 1cbe 94e5 e8bd 2ede 8fbe
000001f0: 4ade 253e dace c03e 8e82 94be 6bf6 0ebe
00000200: e675 81be eec6 66be 40f0 f13d 3c72 c2bd
00000210: c5e0 663e c9ca 3d3e 4491 8fbe 734b 8b3e
00000220: 5246 9fbe dc5a 85bc 6d63 5abe 40df 3bba
00000230: 3bc0 413e fe8d 60bd 64b5 473e cf4c b63e
00000240: a6b5 84be 8786 44be 600e 913e f3af cbbb
00000250: 42ac ae3e fbb3 fcbd d865 d1bc 45b9 b4ba
00000260: 2370 1fbe bd64 9ebe f6ab 3abb 7557 ed3d
00000270: e122 413d dd2d a9be f6b3 993e 8a02 863e
00000280: 62ed 3e3e 7097 10bd 3a1d 2abe 169f 823d
00000290: b1dd aebd a733 803e 8163 543e edbc 45bd
000002a0: adc7 14be b6c8 8d3d 9b18 6bbe 620a c8be
000002b0: ae07 08be 2624 36be 9028 05bd 2d88 36be
000002c0: 1c2e cfbe 6020 4abe 1d45 afbe 72ec 85be
000002d0: 429e c6be 75dc e33d 5d09 abbd bbeb ef3d
000002e0: d05a c5be d626 db3d a5b0 49bd 8253 033e
000002f0: a3ec ef3d d7ca 523e cf7b 17be 3ec3 0cbd
00000300: 9d9a f13d 81e6 8e3e 6c22 de3d 5a54 f93d
00000310: 9cf5 9ebe 9370 8fbe e9eb 0d3e 16e7 3bbe
00000320: 3292 f7be 1721 93be 75ed 55be 35dc c3be
00000330: 5210 4ebe 5e10 c13d db0a 1d3e 66de bcbc
00000340: 02c6 53be 1733 643e 56bc 3f3e cc65 1ebe
00000350: cd6e 9e3e c561 bcbd 20bc e53d 0ab6 8dbe
00000360: 5abc 66be d281 8fbe 97fd 6e3d af3f 953e
00000370: 87e6 d63d 8bc7 423d bf53 34be 6ada ac3e
00000380: 44e0 68be b2ff adbe ee2a 823e 2425 2d3e
00000390: 670a d33d 5281 803d f68b 30be 82d4 333e
000003a0: efbf ccbd ad63 8d3e 7d57 28bd 4b74 93be
000003b0: 85e6 b23e 50e1 c63d 93f0 863d 1c88 70be
000003c0: 9acb 05be 9fb4 a93e 1ea6 8abe 930f 3b3e
000003d0: f3c8 34be d7e6 2fbe f035 343d e538 803c
000003e0: 13e5 1a3e 5824 b83e 984b eb3d f6ad 8bbe
000003f0: debf 91bc eb05 66bd e853 07be 61eb 59be

fc1.bias f4 [128]
0.1057808 0.23208639 -0.18373205 -0.1035314 -0.12402889 -0.26923552 0.15244827 0.22184876
-0.23544496 -0.0076509663 0.07607665 -0.21442868 0.043168526 -0.21349722 -0.09557653 0.3523602
0.058330007 -0.29379705 -0.051310647 0.08855223 -0.47758478 -0.31063133 0.11470255 0.08710225
0.041004032 -0.31687698 -0.18950063 -0.26540253 -0.022852572 -0.22627333 0.2811516 0.105529964
-0.28519204 -0.10692597 0.04337171 0.2499053 0.2996571 0.28193837 -0.035892803 0.13581656
0.029316604 0.19257587 -0.24315198 -0.025470719 -0.16975354 -0.22345954 0.22795112 0.11901655
0.105871215 -0.020763572 0.1114317 0.09920827 0.15647754 0.23175818 -0.0368271 0.024863463
-0.2807924 -0.1283944 -0.029596033 -0.018685274 -0.3629552 -0.3757778 -0.020026585 -0.10846353
-0.4876688 -0.21693526 0.044706725 -0.13298364 -0.23264946 -0.13106827 -0.06963754 0.18729013
-0.21963042 -0.0918946 0.0999762 0.17700477 -0.35927415 -0.3709084 0.0863234 -0.13961431
0.25466573 0.06460838 -0.19351543 0.072616294 0.052151952 -0.24185343 -0.011176697 -0.23848842
0.24734819 0.017566787 0.20055656 0.16262761 -0.24658842 0.101226196 -0.33153358 0.21564293
0.15068264 0.03422665 0.15839146 -0.1349349 0.18398003 0.07195258 -0.100643344 0.1462911
-0.11015358 -0.080516115 -0.33096078 -0.18863249 -0.26077852 -0.43846267 -0.06906538 -0.018440405
0.15019882 -0.13057481 0.05971952 -0.1351798 0.08464059 -0.36270773 -0.12981185 0.06784748
-0.4166303 -0.30164242 0.18805322 0.13415328 0.24112628 0.018945064 0.19138755 0.022592204
00000000: 9ba3 d83d 0ea8 6d3e 4124 3cbe 4508 d4bd
00000010: dc02 febd 3dd9 89be 661b 1c3e 522c 633e
00000020: 7c18 71be f5b4 fabb 13ce 9b3d 3193 5bbe
00000030: 7bd1 303d 049f 5abe a1bd c3bd 8e68 b43e
00000040: 72eb 6e3d 916c 96be 1d2b 52bd df5a b53d
00000050: fe85 f4be 120b 9fbe 2ce9 ea3d aa62 b23d
00000060: d8f3 273d b33d a2be 740c 42be d7e2 87be
00000070: 5135 bbbc 32b4 67be 1af3 8f3e 1820 d83d
00000080: b104 92be 01fc dabd 89a6 313d 2de7 7f3e
00000090: a86c 993e 3a5a 903e 5504 13bd 7f13 0b3e
000000a0: 6029 f03c 9c32 453e d5fc 78be f8a7 d0bc
000000b0: dfd3 2dbe 94d2 64be 056c 693e f3be f33d
000000c0: 02d3 d83d 5e18 aabc 4e36 e43d b52d cb3d
000000d0: a63b 203e 0452 6d3e 03d8 16bd 76ae cb3c
000000e0: 05c4 8fbe d279 03be 6173 f2bc dc11 99bc
000000f0: 44d5 b9be f365 c0be cb0e a4bc 2122 debd
00000100: baaf f9be 4724 5ebe 661e 373d dd2c 08be
00000110: a93b 6ebe c336 06be 209e 8ebd fcc8 3f3e
00000120: cce6 60be 3c33 bcbd 52c0 cc3d bd40 353e
00000130: c8f2 b7be b5e7 bdbe 53ca b03d 0ef7 0ebe
00000140: 8c63 823e 6651 843d e928 46be dab7 943d
00000150: 499d 553d 6da8 77be 771e 37bc 4f36 74be
00000160: d848 7d3e 39e8 8f3c b35e 4d3e da87 263e
00000170: ad81 7cbe ae4f cf3d c5be a9be 80d1 5c3e
00000180: 8d4c 1a3e 3e31 0c3d 5f31 223e 602c 0abe
00000190: 4365 3c3e e05b 933d 191e cebd 56cd 153e
000001a0: 3398 e1bd a2e5 a4bd b173 a9be e028 41be
000001b0: c384 85be 2e7e e0be 2672 8dbd 5510 97bc
000001c0: b8cd 193e 67b5 05be 759c 743d 936c 0abe
000001d0: 0c58 ad3d d4b4 b9be 66ed 04be 9ff3 8a3d
000001e0: 9150 d5be e070 9abe 0691 403e 7a5f 093e
000001f0: cfe9 763e ae32 9b3c 19fb 433e 4913 b93c

fc2.weight f4 [64, 128]
0.35740954 -0.21807763 -0.0582072 -0.045741238 -0.035213716 0.07288984 0.25261933 0.18862323
-0.034152284 -0.09476935 -0.19561884 -0.3036058 -0.37456393 0.3141379 -0.14570038 -0.020292964
-0.45428005 -0.2616687 -0.11068809 -0.076515876 0.04028253 0.0094687585 -0.08766515 -0.008516185
0.47530016 -0.07369479 -0.055395737 -0.24174261 -0.39127487 -0.21568896 0.034378994 0.25829887
-0.19737141 -0.016107345 -0.7108711 0.34749308 -0.13255787 0.2687041 -0.57174057 0.26150492
-0.3804175 -0.15834309 -0.0010070435 0.38392153 0.0288883 -0.08154299 0.27350968 0.44537443
-0.234104 -0.45568663 0.0014989574 -0.022586606 0.07656154 -0.0668494 -0.5730667 -0.100770846
-0.18236259 -0.008060492 -0.17046563 -0.20724379 -0.13742602 -0.07002678 0.020900987 -0.09613872
0.020587524 -0.034147102 -0.035519045 -0.090333834 0.003581321 -0.5720836 -0.10857426 0.02429268
0.17672019 -0.48809245 0.63243157 -0.3402784 -0.05369433 -0.0041333213 -0.0100573255 -0.085948326
-0.025507364 -0.10856469 -0.027035365 -0.051721808 0.07315951 0.07574912 0.6630994 -0.030131407
0.12071551 0.0065438133 -0.42004803 0.39040378 -0.27850768 -0.082863055 -0.084334716 -0.12742436
-0.23039311 -0.942012 0.022038676 -0.08467345 0.04542388 -0.048937324 0.16853234 -0.06331213
-0.51432985 -0.10117401 -0.38602993 -0.14187577 0.19712791 -0.044096503 -0.09115121 -0.3523948
-0.18541653 -0.34124002 0.09566441 0.46809688 -0.06839138 -0.16646957 -0.6207698 0.38633585
0.09746333 -0.018930232 -0.17095846 0.16767123 0.0031841784 0.022654692 0.24579239 -0.5885069
0.016601693 -0.053004593 -0.06700832 0.060905837 0.005697163 0.007005065 0.12188328 -0.01645493
0.032181907 -0.058596734 -0.11031652 -0.09314666 -0.26862994 0.10134185 0.1471471 -0.026196573
-0.10608774 0.11978531 -0.18459637 0.003018014 0.019902723 -0.058805313 0.038921848 0.11446195
0.15026717 -0.0054488834 -0.087067604 0.112179756 -0.13851742 -0.19405386 0.07534832 -0.14392167
-0.06402507 -0.08105354 -0.6789001 0.35208395 -0.041797742 0.028008323 -0.36486995 0.055669617
-0.08156158 -0.019972164 -0.032634556 0.22362775 0.05929157 0.054038618 0.025185239 0.22926307
-0.19063579 -0.3900781 -0.074923664 0.06745538 0.1020968 -0.02093712 -0.3985835 -0.19450009
-0.15486868 0.26732033 -0.13596913 -0.33449903 -0.10277661 -0.10265127 -0.07890838 -0.16777362
-0.034118406 -0.0032458918 -0.06536421 -0.037346974 0.09598904 -0.3818471 -0.063904345 0.104594395
0.2612892 -0.27884832 0.5831241 -0.31777963 -0.066987656 -0.040555134 -0.06361083 0.02807121
0.02755499 0.15583119 -0.03317114 0.1902853 -0.13549219 0.053058855 0.59309614 0.036639724
-0.03665532 -0.027880205 -0.29893717 0.27838454 -0.04545708 -0.07745271 -0.02689906 -0.0302279
-0.21532732 -0.85817266 0.15699582 -0.027958393 -0.12589116 -0.04887353 0.12885621 0.04757118
-0.5686796 0.051819317 -0.17053704 -0.05999778 0.23090304 -0.08252594 -0.010224849 -0.312591
-0.13925174 -0.20121418 -0.020124296 0.20804366 0.07202215 0.040107228 -0.58058095 0.20748466
0.0065283566 -0.1053995 -0.016222201 0.14385463 -0.105242975 -0.023141049 0.17250142 -0.6277971
00000000: 62fe b63e be4f 5fbe ac6a 6ebd 2a5b 3bbd
00000010: 423c 10bd 4547 953d 5257 813e 7326 413e
00000020: 44e3 0bbd 6f16 c2bd 4e50 48be 3872 9bbe
00000030: d8c6 bfbe afd6 a03e 7b32 15be 6e3d a6bc
00000040: 6597 e8be 71f9 85be 70b0 e2bd 5bb4 9cbd
00000050: 4bff 243d da22 1b3c c989 b3bd 7887 0bbc
00000060: 8b5a f33e 4bed 96bd a4e6 62bd 608b 77be
00000070: 2e55 c8be 91dd 5cbe fdd0 0c3d c03f 843e
00000080: bb1b 4abe 8df3 83bc a6fb 35bf 9dea b13e
00000090: 40bd 07be 9593 893e 975d 12bf f9e3 853e
000000a0: 15c6 c2be b124 22be c6fe 83ba 5d91 c43e
000000b0: 28a7 ec3c 0300 a7bd 7609 8c3e 1e08 e43e
000000c0: f5b8 6fbe c24f e9be aa78 c43a 8c07 b9bc
000000d0: 4ccc 9c3d 57e8 88bd 80b4 12bf f260 cebd
000000e0: 42bd 3abe 2710 04bc 8b8e 2ebe b737 54be
000000f0: 68b9 0cbe 336a 8fbd 8c38 ab3c 61e4 c4bd
00000100: 2ba7 a83c d5dd 0bbd 6b7c 11bd f200 b9bd
00000110: 99b4 6a3b 1274 12bf 2e5c debd 7101 c73c
00000120: 23f6 343e 41e7 f9be 09e7 213f f838 aebe
00000130: 96ee 5bbd d070 87bb 7bc7 24bc ad05 b0bd
00000140: d2f4 d0bc 2a57 debd 4579 ddbc 3fda 53bd
00000150: a7d4 953d 5b22 9b3d e2c0 293f 24d6 f6bc
00000160: b139 f73d 7c6d d63b 8910 d7be 01e3 c73e
00000170: 8f98 8ebe 1bb4 a9bd aeb7 acbd 887b 02be
00000180: 2cec 6bbe b327 71bf 748a b43c 4669 adbd
00000190: 640e 3a3d 8172 48bd be93 2c3e caa9 81bd
000001a0: 1fab 03bf 5234 cfbd b7a5 c5be e247 11be
000001b0: e6db 493e 899e 34bd 7cad babd 176d b4be
000001c0: d5dd 3dbe 03b7 aebe b4eb c33d 65aa ef3e
000001d0: c810 8cbd 0077 2abe c5ea 1ebf d0cd c53e
000001e0: db9a c73d 9313 9bbc bc0f 2fbe 02b2 2b3e
000001f0: a6ad 503b 5596 b93c 00b1 7b3e 63a8 16bf
00000200: 4600 883c 581b 59bd a83b 89bd 6678 793d
00000210: 44af ba3b bf8a e53b f19d f93d 7dcc 86bc
00000220: 2dd1 033d 2103 70bd a1ed e1bd adc3 bebd
00000230: dd89 89be 518c cf3d bbad 163e 329a d6bc
00000240: 8744 d9bd 0052 f53d d506 3dbe dfc9 453b
00000250: 090b a33c d7dd 70bd 846c 1f3d 076b ea3d
00000260: a3df 193e 8c8c b2bb 8050 b2bd 80be e53d
00000270: 83d7 0dbe 0eb6 46be 3850 9a3d 3460 13be
00000280: 931f 83bd 66ff a5bd 66cc 2dbf 5944 b43e
00000290: 1c34 2bbd b671 e53c 3cd0 babe d305 643d
000002a0: c209 a7bd aa9c a3bc d0ab 05bd acfe 643e
000002b0: b8db 723d 9957 5d3d 4651 ce3c f0c3 6a3e
000002c0: 0736 43be 51b8 c7be 9471 99bd 0c26 8a3d
000002d0: 2118 d13d 5384 abbc 2313 ccbe 082b 47be
000002e0: e595 1ebe 36de 883e 7e3b 0bbe 7543 abbe
000002f0: 8b7c d2bd d43a d2bd b79a a1bd d9cc 2bbe
00000300: bebf 0bbd 07b9 54bb acdd 85bd 24f9 18bd
00000310: e795 c43d 7781 c3be 48e0 82bd 9635 d63d
00000320: b3c7 853e 35c5 8ebe 9f47 153f 03b4 a2be
00000330: d330 89bd 241d 26bd 6546 82bd 98f5 e53c
00000340: 01bb e13c 3692 1f3e 76de 07bd 26da 423e
00000350: 77be 0abe 3e54 593d 26d5 173f 8913 163d
00000360: e423 16bd 0765 e4bc 4b0e 99be 6b88 8e3e
00000370: 3431 3abd 879f 9ebd 6b5b dcbc 80a0 f7bc
00000380: c47e 5cbe 34b1 5bbf 83c3 203e 0009 e5bc
00000390: 9de9 00be 9c2f 48bd e2f2 033e ffd9 423d
000003a0: fc94 11bf 7e40 543d 43a1 2ebe 3bc0 75bd
000003b0: d971 6c3e 5c03 a9bd 2086 27bc ed0b a0be
000003c0: 0298 0ebe 170b 4ebe b5db a4bc 6609 553e
000003d0: 5980 933d 7a47 243d f4a0 14bf dc76 543e
000003e0: d3eb d53b b1db d7bd 6ce4 84bc a14e 133e
000003f0: a189 d7bd 4c92 bdbc 36a4 303e 50b7 20bf

fc2.bias f4 [64]
0.04715758 0.058798723 -0.019418458 0.030549524 0.01810295 0.11981391 0.033193726 -0.021690574
0.067537405 0.05061936 0.06080224 -0.067409866 0.09324459 0.0778476 0.026760744 0.068090275
-0.033132847 0.042465094 0.012562111 0.08881483 0.046881266 0.021306464 -0.00236429 -0.038912416
-0.01098773 0.08743839 0.07811913 0.17171147 0.07197584 -0.07279766 0.07695742 -0.0518619
0.04178883 0.08129573 0.10863784 0.06349197 0.09311715 0.008245372 -0.0040948302 0.088183105
0.023037147 -0.04122181 0.08371471 0.043872416 -0.03558904 0.058874592 0.08074954 0.023201391
0.117776744 0.0752292 0.038187582 0.06447783 -0.067385666 -0.048602503 0.053499725 0.06411325
0.015235849 0.07862889 0.05793043 -0.041719727 -0.036839515 -0.037334953 0.014631112 0.09811203
00000000: 4e28 413d eed6 703d 7513 9fbc ff42 fa3c
00000010: a34c 943c ff60 f53d 25f6 073d 6eb0 b1bc
00000020: 0d51 8a3d 3f56 4f3d c50b 793d 2f0e 8abd
00000030: 05f7 be3d 906e 9f3d 5939 db3c ea72 8b3d
00000040: 4fb6 07bd e1ef 2d3d 50d1 4d3c 8de4 b53d
00000050: 9206 403d e58a ae3c 34f2 1abb a062 1fbd
00000060: e105 34bc e612 b33d ecfc 9f3d 22d5 2f3e
00000070: 1268 933d f116 95bd da9b 9d3d 256d 54bd
00000080: c42a 2b3d 607e a63d 847d de3d 1408 823d
00000090: 34b4 be3d 9917 073c ed2d 86bb 5899 b43d
000000a0: 66b8 bc3c 33d8 28bd 9e72 ab3d 90b3 333d
000000b0: d0c5 11bd 7c26 713d 0460 a53d d810 be3c
000000c0: ef34 f13d c411 9a3d 956a 1c3d f40c 843d
000000d0: 7f01 8abd 6b13 47bd 8722 5b3d cf4d 833d
000000e0: c89f 793c 2f08 a13d 7548 6d3d 4ee2 2abd
000000f0: 08e5 16bd 89ec 18bd 55b7 6f3c f6ee c83d

fc3.weight f4 [32, 64]
0.07199937 0.15857278 0.06491476 -0.06122775 0.048074 0.031680603 0.0691417 0.13692798
0.038366295 -0.046426255 0.10111382 0.07064945 0.02419069 0.025814625 -0.05282609 0.122959934
0.008404092 -0.1344394 0.18048342 0.07622342 0.214319 0.033085786 0.12941304 0.07511941
0.1289425 -0.057265595 0.19106233 -0.18970123 0.18360685 0.07394829 0.0627479 -0.045029886
0.17146719 0.19082147 -0.04112941 -0.04828849 0.12675707 0.14933638 -0.051034875 -0.067486025
0.13542384 0.099900275 0.1042231 0.10438269 0.1686138 0.1162676 0.14961079 0.09545703
0.15085618 0.10595398 0.09360297 0.044565175 0.023176162 0.16020028 0.02677888 0.24199793
-0.21364139 0.11613798 0.06289435 0.12131948 -0.1497389 -0.1090647 0.07611139 -0.0025248646
0.079008006 0.12047042 0.02940658 0.044800486 0.029778156 0.14038515 -0.0032453935 0.012775373
0.25114605 0.12714636 0.21271196 -0.10074711 0.11904751 0.041400474 0.1395654 0.1484655
0.014559254 -0.028615648 0.08798981 0.20157754 0.18312599 -0.1419053 0.064560644 0.09390342
0.21283 0.07166283 0.09557669 -0.10360021 0.20509976 -0.025752688 0.20301963 0.08320817
0.15359092 0.23912004 0.025708959 0.065948695 0.076791674 0.28640753 -0.060346104 0.03140631
0.22818236 0.20600383 0.16509713 0.09429587 0.17274 0.1663297 0.2211915 0.009827459
0.091235615 0.16639566 0.04331107 0.14427401 -0.19421236 0.18975195 0.12623532 0.222553
-0.18811059 0.077375434 0.045640476 0.14224392 -0.20911933 -0.26129434 -0.18059112 -0.027765706
0.08204817 0.023522912 -0.06662211 0.114878416 -0.042321656 -0.10981627 0.061417233 0.0044372804
-0.10220754 -0.05782905 -0.014212799 -0.011568992 0.005130245 0.059762657 -0.048536915 0.0503177
-0.092049755 -0.017190246 -0.041475188 0.0025133444 0.0765615 -0.13024487 0.107327476 0.023411095
-0.04622332 -0.022577748 0.0008271537 -0.07059685 0.025617179 -0.06544448 -0.12141802 -0.1689485
-0.10455794 -0.012728326 0.072938465 0.06043223 -0.026375843 0.07645761 -0.16773926 0.068027586
0.07350274 0.09858909 -0.046649233 -0.11175799 0.050483193 0.06838446 -0.033677142 -0.019364646
-0.1298299 0.015027554 0.04142031 0.014288431 0.1037001 -0.039087456 0.08057547 0.11198021
0.059204906 0.1368113 -0.040620055 0.14051986 0.2500144 -0.14989392 -0.2561198 -0.05988113
0.23237753 0.17079158 -0.020396508 -0.005309413 -0.041020192 0.03804965 0.25216016 0.13208872
0.034725923 -0.12489173 0.14660265 0.107785664 0.052644003 -0.15360612 0.087778136 0.24014772
0.07553121 -0.23454815 0.33962664 0.120670095 0.087484755 0.115364835 0.16388245 0.48703122
-0.06943933 0.017321412 0.15471818 -0.39265403 0.36800984 0.004440798 0.24645206 0.23303515
0.16715148 0.078272305 -0.046903167 0.17961119 0.323588 0.37534943 -0.40933982 0.1092897
0.29108995 0.33314577 0.26550594 0.14100163 0.39467236 0.13593212 0.18653032 -0.10114978
-0.050037574 0.08959575 0.06540275 -0.17534463 0.011302935 0.22362934 0.31931782 0.33947852
-0.16259383 -0.054722052 0.16597876 0.14302297 -0.19546163 -0.5792528 -0.3390317 -0.19894722
00000000: 6874 933d e760 223e 08f2 843d f3c9 7abd
00000010: 3ee9 443d 85c3 013d 2a9a 8d3d d936 0c3e
00000020: fa25 1d3d 7529 3ebd c314 cf3d a9b0 903d
00000030: 8e2b c63c 3179 d33c 2c60 58bd 6bd2 fb3d
00000040: 51b1 093c 7baa 09be a5d0 383e 061b 9c3d
00000050: 7176 5b3e f684 073d da84 043e 35d8 993d
00000060: 8109 043e 548f 6abd d8a5 433e 0a41 42be
00000070: 6f03 3c3e 3372 973d f981 803d 4271 38bd
00000080: 1895 2f3e b466 433e 5077 28bd 27ca 45bd
00000090: 9bcc 013e a3eb 183e f209 51bd 1d36 8abd
000000a0: 8cac 0a3e 8498 cc3d ec72 d53d 97c6 d53d
000000b0: 19a9 2c3e b51d ee3d 9233 193e fa7e c33d
000000c0: 0b7a 1a3e 66fe d83d eab2 bf3d f989 363d
000000d0: efdb bd3c 8b0b 243e 625f db3c 4ece 773e
000000e0: cfc4 5abe c0d9 ed3d c1ce 803d 5976 f83d
000000f0: 2755 19be 505d dfbd 4ae0 9b3d 3378 25bb
00000100: f3ce a13d 32b9 f63d 11e6 f03c b780 373d
00000110: 52f1 f33c 20c1 0f3e abb0 54bb cc4f 513c
00000120: 3796 803e a832 023e 2ad1 593e 8054 cebd
00000130: 2ecf f33d 8b93 293d 3bea 0e3e 5707 183e
00000140: f089 6e3c 5d6b eabc 0034 b43d 586a 4e3e
00000150: 6185 3b3e 9f4f 11be 5f38 843d 7050 c03d
00000160: 1cf0 593e f6c3 923d b6bd c33d 592c d4bd
00000170: ac05 523e 4df7 d2bc 61e4 4f3e 0c69 aa3d
00000180: f046 1d3e e2db 743e 989b d23c 1c10 873d
00000190: f444 9d3d 02a4 923e 7a2d 77bd e7a3 003d
000001a0: a3a8 693e abf2 523e 390f 293e 311e c13d
000001b0: c1e2 303e 5552 2a3e 0680 623e 5a03 213c
000001c0: bdd9 ba3d a063 2a3e f366 313d 91bc 133e
000001d0: 9bdf 46be 564e 423e d543 013e efe4 633e
000001e0: 10a0 40be 0377 9e3d 82f1 3a3d 64a8 113e
000001f0: 6123 56be 5fc8 85be e1ec 38be e874 e3bc
00000200: df08 a83d 1fb3 c03c 2c71 88bd 6045 eb3d
00000210: 7959 2dbd 5ae7 e0bd a390 7b3d 9b66 913b
00000220: 3052 d1bd 27de 6cbd cddc 68bc df8b 3dbc
00000230: 9d1b a83b b0c9 743d a5ce 46bd ef19 4e3d
00000240: 9584 bcbd 8fd2 8cbc e3e1 29bd ecb6 243b
00000250: 47cc 9c3d e95e 05be 82ce db3d a0c8 bf3c
00000260: aa54 3dbd f8f4 b8bc 58d5 583a 1595 90bd
00000270: 1edb d13c c107 86bd 03aa f8bd d600 2dbe
00000280: 7922 d6bd 788a 50bc c360 953d c987 773d
00000290: 2712 d8bc cf95 9c3d d7c3 2bbe 0c52 8b3d
000002a0: 9b88 963d 14e9 c93d 4413 3fbd 60e1 e4bd
000002b0: 77c7 4e3d 270d 8c3d 0bf1 09bd 9ba2 9ebc
000002c0: 21f2 04be 2136 763c 58a8 293d 061a 6a3c
000002d0: b860 d43d 2b1a 20bd c104 a53d e155 e53d
000002e0: d880 723d 4318 0c3e 3761 26bd 70e4 0f3e
000002f0: e301 803e cb7d 19be 2222 83be ea45 75bd
00000300: 60f4 6d3e fde3 2e3e 9416 a7bc 96fa adbb
00000310: ca04 28bd f3d9 1b3d 231b 813e 4442 073e
00000320: c53c 0e3d 3cc7 ffbd 011f 163e bbbe dc3d
00000330: 3da1 573d ec4a 1dbe 06c5 b33d 49e9 753e
00000340: 1bb0 9a3d 642d 70be 8be3 ad3e e221 f73d
00000350: 352b b33d 6644 ec3d cdd0 273e 285c f93e
00000360: 3536 8ebd a2e5 8d3c 716e 1e3e f309 c9be
00000370: c96b bc3e 1d84 913b ee5d 7c3e c4a0 6e3e
00000380: c229 2b3e 3b4d a03d 891d 40bd ffeb 373e
00000390: 54ad a53e cd2d c03e fd94 d1be 47d3 df3d
000003a0: be09 953e 1592 aa3e 65f0 873e bb62 103e
000003b0: 7f12 ca3e ca31 0b3e ce01 3f3e 9e27 cfbd
000003c0: 33f4 4cbd fa7d b73d e1f1 853d 8b8d 33be
000003d0: f22f 393c 17ff 643e a07d a33e 21d0 ad3e
000003e0: ff7e 26be 3b24 60bd 56f6 293e 9d74 123e
000003f0: 1827 48be e949 14bf 9095 adbe d2b8 4bbe

fc3.bias f4 [32]
0.08247494 -0.058539327 0.060709637 -0.08593602 -0.11013925 -0.024538195 -0.012049139 0.0862747
-0.013732988 -0.07615536 0.004020053 0.07318261 0.09964973 0.09011319 -0.093248986 -0.053973008
0.06453469 0.047935586 -0.011123551 0.03163216 0.047386028 -0.12931415 -0.13921812 0.049218845
0.048570074 0.072537296 -0.020635126 0.094555065 -0.056395188 -0.1279302 0.01889966 0.06548185
00000000: 9fe8 a83d efc6 6fbd abaa 783d 39ff afbd
00000010: b090 e1bd 5304 c9bc c069 45bc cab0 b03d
00000020: 5400 61bc 57f7 9bbd a6ba 833b c4e0 953d
00000030: 2815 cc3d 448d b83d 53f9 bebd cd12 5dbd
00000040: c32a 843d 1b58 443d 8e3f 36bc b990 013d
00000050: da17 423d ee6a 04be 328f 0ebe b399 493d
00000060: 6af1 463d 6f8e 943d ff0a a9bc 16a6 c13d
00000070: a4fe 66bd 2200 03be 76d3 9a3c 591b 863d

fc4.weight f4 [1, 32]
-0.15814629 -0.19517098 0.29282054 -0.3369362 0.21241532 0.12357314 0.2557509 -0.22989605
0.05842713 0.23498276 -0.14714539 0.13303392 0.12168992 0.200492 0.12621178 -0.18495426
0.18302646 0.3248776 -0.21527353 -0.1280235 0.25970364 0.15070233 0.15322337 -0.2246302
0.23183489 -0.22359322 -0.111291185 -0.07230818 -0.16191192 0.10053301 -0.09585861 0.17594089
00000000: 1af1 21be e7da 47be 93ec 953e e782 acbe
00000010: 6783 593e ea13 fd3d c8f1 823e df69 6bbe
00000020: 4951 6f3d 529f 703e 48ad 16be 0b3a 083e
00000030: 9138 f93d c64d 4d3e a93d 013e a664 3dbe
00000040: 4a6b 3b3e 5b56 a63e aa70 5cbe 9818 03be
00000050: e0f7 843e b651 1a3e 96e6 1c3e 7605 66be
00000060: 2066 6d3e 9ff5 64be a2ec e3bd 5016 94bd
00000070: 3dcc 25be 40e4 cd3d 8551 c4bd d929 343e
