Task1/model/bs1_epoch25.pth (torch, 58150 bytes, 25 tensors)

conv1.bias f4 [16]
0	0xbe8c1d22	-0.27365977
1	0xbf0a995c	-0.5414026
2	0xbee17bf2	-0.44039875
3	0xbf674db6	-0.9035295
4	0x3f1bc7aa	0.6085154
5	0xbe439bc0	-0.19102383
6	0xbfb388a2	-1.4026072
7	0x3e3d938b	0.18513314
8	0x3eeb9739	0.4601381
9	0x3f61d34d	0.88213044
10	0x3e41080a	0.18850723
11	0xbec8689c	-0.3914231
12	0x3f1788c2	0.5919305
13	0x3daf6faf	0.08566224
14	0xbf674f33	-0.90355223
15	0xbf2ec283	-0.6826555

conv1.lin.weight f4 [16, 1]
0	0x3e1c484a	0.15261951
1	0x3ec3c870	0.3823886
2	0xbf260dc5	-0.6486476
3	0xbe958435	-0.29202428
4	0x3f00a832	0.50256646
5	0xbbdfbf76	-0.006828244
6	0xbc7ee15c	-0.01555666
7	0xbeb1c034	-0.34716952
8	0xbd9dad68	-0.0769909
9	0x3dfc5e55	0.1232268
10	0xbdb1ac86	-0.08675484
11	0x3e87eb74	0.26546824
12	0x3e0150b5	0.12628444
13	0xbd681c2d	-0.056667496
14	0xbf567eb1	-0.83787066
15	0x3ebf21f4	0.37330592

bn1.module.weight f4 [16]
0	0x3f6f2f8d	0.9343193
1	0x3f801bcf	1.0008487
2	0x3f78130f	0.9690408
3	0x3f74966c	0.95542026
4	0x3f945ca0	1.1590767
5	0x3f85252d	1.040197
6	0x3f84bffa	1.0371087
7	0x3f9b473d	1.2131115
8	0x3f84f749	1.0387965
9	0x3f7d9f00	0.9907074
10	0x3f81302f	1.009283
11	0x3f668c55	0.9005788
12	0x3f8b96c9	1.0905391
13	0x3f890eba	1.0707619
14	0x3f7969f8	0.9742732
15	0x3f6fd64b	0.9368636

bn1.module.bias f4 [16]
0	0xbd9cdf7c	-0.07659814
1	0x3d69f5ad	0.05711906
2	0xbc7cd3cf	-0.0154313585
3	0x3d4e1226	0.050310276
4	0xbd9cc183	-0.07654097
5	0x3e1386b0	0.14406848
6	0xbdefe6e6	-0.11713962
7	0xbd932d10	-0.07186329
8	0x3e6486dc	0.2231707
9	0x3d1ab6b9	0.037771914
10	0x3e312c5d	0.1730208
11	0x3ce75edd	0.028243477
12	0xbe5392a2	-0.20661405
13	0xbcfa9369	-0.030587869
14	0xbd9cd488	-0.076577246
15	0x3c9abb61	0.018888177

bn1.module.running_mean f4 [16]
0	0xbd1aa38f	-0.037753638
1	0x3d4b5130	0.049637973
2	0xbfb8b509	-1.4430248
3	0xbfad6e1b	-1.3549227
4	0x3fb15316	1.3853481
5	0xbe4e6bdc	-0.20158333
6	0xbfb69d25	-1.4266707
7	0xbeb3fa49	-0.3515189
8	0x3eaea8b3	0.34113082
9	0x3f894b4f	1.0726107
10	0x3d5ed414	0.054401472
11	0x3c9b0ae3	0.01892609
12	0x3f49833f	0.7871589
13	0xbaf9b71c	-0.0019051763
14	0xc00cb731	-2.198681
15	0xbdd84d78	-0.10561651

bn1.module.running_var f4 [16]
0	0x3c9b85cb	0.018984696
1	0x3df4133c	0.11917731
2	0x3eaf93ad	0.34292355
3	0x3d8e597d	0.06950662
4	0x3e52cd2f	0.20586084
5	0x381fa184	3.8058977e-05
6	0x394f00f8	0.00019741419
7	0x3dc932b8	0.09824127
8	0x3b9e4eae	0.0048311567
9	0x3c4ac535	0.012376119
10	0x3bc90221	0.006134287
11	0x3d6b4568	0.057439238
12	0x3c54faae	0.01299922
13	0x3b2b864d	0.0026172579
14	0x3f127b57	0.5721945
15	0x3de8a018	0.113586605

conv2.bias f4 [16]
0	0x401bc31d	2.4337838
1	0x3ddf6267	0.10907441
2	0xbded9b26	-0.11601858
3	0xbe1fe743	-0.15615563
4	0xc0373b64	-2.863
5	0x3f989015	1.191897
6	0x3c809a9f	0.01569873
7	0xbe7f72df	-0.24946164
8	0x3f10d67c	0.5657728
9	0x401fb916	2.4956717
10	0xbe343e98	-0.17602003
11	0x3fbb6737	1.4640874
12	0x3fcabe75	1.5839373
13	0xbe12348e	-0.1427786
14	0xbe53a8bf	-0.2066984
15	0xbfb0c426	-1.380986

conv2.lin.weight f4 [16, 16]
0	0x3d98a7db	0.07453891
1	0x3ed078d7	0.40717193
2	0x3ddcc704	0.10780147
3	0x3e2a5803	0.16635136
4	0x3e006421	0.12538196
5	0xbec13409	-0.37735012
6	0xbc89292b	-0.016743263
7	0xbe132351	-0.14368941
8	0xbee8051f	-0.45316407
9	0x3ef50c1d	0.47860804
10	0x3ea7ae97	0.3275039
11	0xbd0fda9f	-0.035120603
12	0xbe8c3cff	-0.27390286
13	0x3ea88e4b	0.3292106
14	0xbea5cd63	-0.3238326
15	0xbd05d25a	-0.03267131
16	0x3ecf926a	0.40541393
17	0xbe3c9897	-0.18417583
18	0x3f022c83	0.5084917
19	0xbe3ebf89	-0.18627752
20	0x3dd9e9f9	0.1064033
21	0x3e527af3	0.20554714
22	0x3ef920ee	0.48657936
23	0xbebc05dc	-0.3672322
24	0xbe555498	-0.20833051
25	0xbc7f9268	-0.015598871
26	0xbea63695	-0.32463518
27	0x3e354a58	0.17704141
28	0xbe52b7e8	-0.20577967
29	0x3d1e0288	0.038576633
30	0xbe7b5ada	-0.24546376
31	0xbeab7eba	-0.33495122
32	0xbcd821e3	-0.026383346
33	0xbec37531	-0.38175347
34	0xbdff63e5	-0.12470225
35	0x3c63e897	0.013910434
36	0x3d1b1544	0.037862077
37	0x3ebf4371	0.3735614
38	0xbed9d6cd	-0.42546692
39	0xbe9fb604	-0.31193554
40	0xbdbf7ae3	-0.09349611
41	0x3e8308c3	0.25592622
42	0x3eb74e86	0.35802096
43	0x3e8ad065	0.27112117
44	0x3e967c79	0.2939184
45	0xbe9ddb54	-0.30831397
46	0xbd268aa8	-0.040659577
47	0x3e087c71	0.1332872
48	0xbebd9b63	-0.37032613
49	0x3eb4f0af	0.35339877
50	0xbec015be	-0.37516588
51	0xbe977a9a	-0.29585725
52	0xbe7e8ce4	-0.24858433
53	0x3eb9f557	0.36319992
54	0xbe2ef980	-0.17087364
55	0x3ee60d32	0.44931942
56	0x3e5f591f	0.21811341
57	0x3ecdfe20	0.40232944
58	0x3dc98778	0.09840292
59	0xbe856b35	-0.26058355
60	0xbec1a1c6	-0.37818736
61	0x3d4911bc	0.04908918
62	0x3e7c8c88	0.24662983
63	0xbda33b2c	-0.079702705
64	0xbdbfaa96	-0.093587086
65	0xbdc642d5	-0.09680716
66	0xbda2e7a3	-0.079543374
67	0x3e75b801	0.23995973
68	0xbe24521f	-0.16046952
69	0xbdda2a54	-0.10652605
70	0xbe4ef617	-0.20211063
71	0x3d0ad71d	0.033896554
72	0x3de447d2	0.11146511
73	0xbe977894	-0.2958418
74	0xbcb77c8d	-0.022398258
75	0x3e9c0ca9	0.3047841
76	0xbec7d3ce	-0.39028782
77	0xbe0496e0	-0.12948179
78	0x3e7d4010	0.24731469
79	0x3dd80842	0.1054845
80	0x3e86ea10	0.2635045
81	0x3dc5d637	0.09659999
82	0x3e8cf33d	0.27529326
83	0x3ddd24a3	0.107980035
84	0xbe41ccab	-0.18925731
85	0xbeb39732	-0.3507629
86	0x3ea17733	0.31536254
87	0x3e0bd006	0.13653573
88	0x3e3136f3	0.17306118
89	0x3e8d088d	0.27545586
90	0xbc0c983d	-0.008581218
91	0xbcddfaa6	-0.027097058
92	0xbdc18b3e	-0.094503865
93	0x3e888d24	0.26670182
94	0xbd2c3886	-0.042046092
95	0x3d8d6c38	0.06905407
96	0xbbdc70f9	-0.0067273346
97	0xbdd925a4	-0.106028825
98	0x3ebdaa70	0.37044096
99	0x3e0a7d00	0.13524246
100	0xbedcd3b0	-0.43130255
101	0xbc4e9e77	-0.012611023
102	0xbcbbea09	-0.022938745
103	0xbd1d1384	-0.03834869
104	0xbe6ef8cf	-0.233371
105	0x3ed31807	0.4122927
106	0xbec15310	-0.37758684
107	0xbd678056	-0.056518875
108	0x3ce6d787	0.028178943
109	0xbd939ee0	-0.072080374
110	0x3eddaabe	0.43294328
111	0x3eac7eef	0.33690593
112	0x3e6a63e9	0.22889675
113	0x3ef6d2f4	0.4820782
114	0x3dd82c23	0.105552934
115	0xbd8ba492	-0.06818499
116	0x3e145f7f	0.14489554
117	0x3e843c4e	0.2582726
118	0x3dd2ec04	0.10298923
119	0xbe537587	-0.20650302
120	0xbe99fccf	-0.3007569
121	0x3e931241	0.28724864
122	0xbe4c59fb	-0.199562
123	0xba6edf9b	-0.00091122993
124	0x3e836750	0.2566476
125	0xbe0222dc	-0.1270861
126	0xbed9982a	-0.42498904
127	0x3eb42ef1	0.35192063
128	0x3d2ee8f6	0.042702638
129	0x3ebb1c13	0.36544856
130	0xbe5cf1c2	-0.21576598
131	0x3e4551d6	0.19269499
132	0x3df59920	0.11992097
133	0xbe6278c8	-0.22116387
134	0x3ea1c808	0.31597924
135	0x3eb550e4	0.35413277
136	0x3dad0f14	0.084501415
137	0x3ea96697	0.33086082
138	0xbe05e587	-0.13075839
139	0xbd0542d0	-0.03253442
140	0x3d39042a	0.045169987
141	0x3e5b3535	0.21407016
142	0xbd999941	-0.07499934
143	0xbe9d39c0	-0.30708122
144	0xbe31b4de	-0.17354152
145	0x3e981a6d	0.2970766
146	0xbe21968f	-0.1578009
147	0x3e0b3ce8	0.13597453
148	0x3dba7288	0.09103876
149	0x3e6b354d	0.22969551
150	0xbe80356f	-0.25040767
151	0xbc352169	-0.011055329
152	0xbec70ad4	-0.3887545
153	0x3e4cc02f	0.19995187
154	0xbe426278	-0.18982875
155	0xbe2bcff6	-0.1677855
156	0xbeb5b0df	-0.35486504
157	0x3ebafa08	0.36518884
158	0x3eae395f	0.34028146
159	0x3e3f0b8d	0.1865675
160	0xbdf39d34	-0.118952185
161	0xbe8ce38a	-0.2751735
162	0xbec4d487	-0.38443395
163	0xbc9f7fb3	-0.019470071
164	0xbe4ae455	-0.19813664
165	0x3e2fafd2	0.17156914
166	0xbd1a99f3	-0.037744474
167	0xbe117d03	-0.14207844
168	0x3ea4f88f	0.32220885
169	0x3ebf31f4	0.373428
170	0x3e926dc7	0.28599378
171	0xbdfb7b6a	-0.12279399
172	0x3e8d6f60	0.27624035
173	0x3decc184	0.11560348
174	0xbe104160	-0.14087439
175	0x3e91f242	0.2850514
176	0x3e9b9b45	0.303919
177	0xbe12664a	-0.14296833
178	0xbd617d29	-0.055051003
179	0xbec6673e	-0.38750643
180	0xbeac639b	-0.33669743
181	0x3ea9d03a	0.33166677
182	0x3e6df0d3	0.23236398
183	0x3d99bb39	0.07506413
184	0xbef48b18	-0.4776237
185	0x3e6ec1e1	0.23316146
186	0x3e9c2801	0.3049927
187	0x3ed7486e	0.42047447
188	0xbe25c7d1	-0.16189505
189	0x3c45f318	0.012081884
190	0x3e15711e	0.14593932
191	0xbe4f9510	-0.20271707
192	0xbe280d89	-0.16411413
193	0x3ea55524	0.3229152
194	0x3e7465c8	0.23866951
195	0x3dbd900f	0.092559926
196	0x3ce37301	0.0277648
197	0x3e478403	0.19483952
198	0xbe3b1e1d	-0.18273206
199	0x3ec849fd	0.3911895
200	0x3e8cdc36	0.27511758
201	0xbeed7fac	-0.46386468
202	0xbec50248	-0.38478303
203	0x3e916ee8	0.28404927
204	0x3e7cbfba	0.24682513
205	0x3ef6ee6d	0.4822878
206	0xbd8ae559	-0.06782026
207	0x3eb068dc	0.34455
208	0x3cdb8f99	0.026801871
209	0x3e5b7089	0.21429648
210	0x3ebc75cc	0.36808622
211	0x3e2c73ef	0.168411
212	0x3cb3c164	0.021942802
213	0xbdb7c267	-0.08972626
214	0xbecd9135	-0.40149847
215	0xbea68606	-0.32524127
216	0x3d9209f4	0.07130805
217	0x3e8366df	0.25664422
218	0x3ed27dc7	0.41111585
219	0x3de46935	0.11152879
220	0xbe5e53ad	-0.21711607
221	0x3e9f3838	0.3109758
222	0xbec142fe	-0.37746423
223	0xbea69679	-0.32536677
224	0xbe232de0	-0.15935469
225	0x3d1609bc	0.036630377
226	0x3e344f4c	0.17608374
227	0x3e90e22a	0.2829755
228	0xbec1a6fc	-0.3782271
229	0x3e83b806	0.25726336
230	0x3eaaf11f	0.33387086
231	0x3e34231d	0.1759152
232	0x3d90fd0a	0.07079513
233	0x3e9eaacf	0.30989692
234	0xbb50bbbf	-0.0031850187
235	0x3c283894	0.0102673955
236	0xbe9c0581	-0.3047295
237	0x3e8ca7d5	0.27471796
238	0xbea0c130	-0.3139739
239	0xbee49c18	-0.4465034
240	0x3c8402da	0.016114641
241	0xbec4c8a6	-0.38434333
242	0xbe118c79	-0.14213742
243	0xbeb040ab	-0.34424338
244	0x3de03a4c	0.10948619
245	0xbc920569	-0.017824845
246	0x3c37bf49	0.0112150395
247	0x3e499a9c	0.19687885
248	0xbdb00cae	-0.085961685
249	0x3eafeead	0.34361783
250	0xbe23a0fe	-0.15979382
251	0xbdf11d5f	-0.1177318
252	0x3dc7be51	0.09753097
253	0x3ec07977	0.3759267
254	0xbc82b3b1	-0.015954824
255	0xbe7391a9	-0.23786034

bn2.module.weight f4 [16]
0	0x3f8ad7da	1.0847123
1	0x3f8b2997	1.0872067
2	0x3f8500c3	1.0390857
3	0x3f83e8fc	1.0305476
4	0x3f715561	0.942709
5	0x3f83bd2d	1.0292107
6	0x3fa3dd2f	1.2801875
7	0x3f796ba4	0.9742987
8	0x3f78b4b0	0.9715071
9	0x3f71e195	0.94484836
10	0x3f7d8784	0.99034905
11	0x3f81b21b	1.0132478
12	0x3f81a708	1.0129099
13	0x3f827b5c	1.0193896
14	0x3f826078	1.018569
15	0x3f6d9951	0.9281207

bn2.module.bias f4 [16]
0	0xbcc65851	-0.024212034
1	0x3d4d3762	0.050101645
2	0x3c59d17b	0.013294573
3	0x3c1ac037	0.009445242
4	0x3ca07a6d	0.019589627
5	0x3d3c224c	0.045931146
6	0xbe239b40	-0.15977192
7	0x3c689721	0.014196188
8	0xbe1deed9	-0.15423144
9	0xbc1f22a5	-0.00971285
10	0x3c8c5dad	0.017134512
11	0xbc86974e	-0.01642957
12	0x3ce6c9a2	0.028172318
13	0xbd41d6a0	-0.047323823
14	0x3c2fb3a1	0.010723979
15	0xbdafc9d2	-0.08583416

bn2.module.running_mean f4 [16]
0	0x401f72dd	2.4913857
1	0xbcd60cb6	-0.026129108
2	0xbe02de83	-0.12780194
3	0x3cd1cc1f	0.025610028
4	0xc03b9202	-2.9307866
5	0x3fbc7ba1	1.4725229
6	0xbb5e6636	-0.0033935434
7	0xbe373741	-0.17892171
8	0x3f516197	0.81789535
9	0x4021e166	2.5293822
10	0xbcd1f1fb	-0.02562808
11	0x3fbd829d	1.4805485
12	0x3ffcf98a	1.9763653
13	0xbb29467f	-0.0025829372
14	0xbc692477	-0.014229885
15	0xbfbd9b1a	-1.4812958

bn2.module.running_var f4 [16]
0	0x3e688f3e	0.22710893
1	0x3ca41a90	0.020032197
2	0x3e5650a0	0.20929193
3	0x3e88ec3e	0.26742738
4	0x3d42e360	0.047580123
5	0x3e73b4d7	0.23799454
6	0x3b4aaec9	0.0030926934
7	0x3f81ac36	1.013068
8	0x3da56807	0.08076482
9	0x3bd6f6c6	0.0065601794
10	0x3c94fa48	0.01818575
11	0x3b8483a6	0.004044014
12	0x3ebc2720	0.367486
13	0x3bc92fff	0.006139755
14	0x3f7273b2	0.9470779
15	0x3b280abe	0.0025641168

conv3.bias f4 [8]
0	0xbe4b170e	-0.19833013
1	0xbdceb574	-0.10093203
2	0xc025c3a0	-2.590065
3	0x3e3a1c3b	0.18174832
4	0x3fa8d665	1.3190428
5	0xbf5603db	-0.8359963
6	0x3f922c56	1.141978
7	0xbe6771f6	-0.22602066

conv3.lin.weight f4 [8, 16]
0	0x3e92ef1f	0.2869806
1	0xbe5e83ae	-0.2172992
2	0x3e2e5c38	0.17027366
3	0x3e8c4101	0.27393344
4	0xbe5672c8	-0.20942223
5	0xbefc1f5e	-0.4924268
6	0xbe1e8af8	-0.154827
7	0xbe95f243	-0.29286394
8	0x3c96e8e6	0.018421602
9	0x3e851e42	0.25999647
10	0x3eaa22ba	0.3322962
11	0xbd8e0fd1	-0.069366105
12	0xbe841d50	-0.25803614
13	0x3ea6eafe	0.3260116
14	0x3e540bfe	0.207077
15	0x3eae79ef	0.34077403
16	0x3dd3870d	0.10328493
17	0xbf1664f5	-0.587478
18	0x3cdacd0a	0.026709098
19	0xbedc55ce	-0.43034214
20	0xbe95efc3	-0.29284486
21	0x3ebe8a2a	0.37214786
22	0x3f12ee22	0.5739461
23	0xbe61c908	-0.22049344
24	0xbe275c2d	-0.16343756
25	0x3ee6a9a9	0.45051315
26	0xbde0356f	-0.10947692
27	0x3c52840c	0.012848865
28	0x3ec551e6	0.38539046
29	0xbd0b307a	-0.033981778
30	0x3de54a69	0.11195833
31	0xbdbf4b38	-0.09340519
32	0xbe446fbb	-0.19183247
33	0x3e995c6f	0.29953334
34	0x3ea2602a	0.31713992
35	0x3ea01dea	0.31272823
36	0xbeb0dbf4	-0.3454281
37	0xbe0dd329	-0.13850082
38	0xbf1d3822	-0.61413777
39	0xbc5656cf	-0.01308222
40	0xbdef5c86	-0.11687569
41	0xbc33263f	-0.010934412
42	0x3eae6dce	0.3406815
43	0xbc83d259	-0.016091513
44	0xbf097a7c	-0.5370252
45	0x3e13b25f	0.14423512
46	0x3e9221ed	0.28541508
47	0x3ebb98cf	0.3664002
48	0xbe395802	-0.18099979
49	0xbd732d99	-0.059369657
50	0xbd9e1453	-0.0771872
51	0x3eabfa2f	0.33589312
52	0xbdc7874c	-0.09742603
53	0xbe91ad88	-0.28452706
54	0x3ce26ff2	0.02764127
55	0x3e790633	0.24318771
56	0x3eb5b02c	0.3548597
57	0xbdd8f4d1	-0.1059357
58	0xbebe2bad	-0.37142697
59	0x3eae76c0	0.34074974
60	0xbe52b47f	-0.20576666
61	0xbe6776c2	-0.22603896
62	0x3dc6b262	0.097019926
63	0x3e3f5493	0.18684606
64	0xbeaab626	-0.33342093
65	0xbe67ca77	-0.22635828
66	0xbdb73995	-0.0894653
67	0x3e822794	0.2542082
68	0x3eb8251a	0.35965806
69	0xbe9a5563	-0.3014327
70	0xbe96d3f1	-0.29458573
71	0xbc20e2c5	-0.009819691
72	0x3e835365	0.25649562
73	0x3f21e581	0.6324082
74	0xbdd2a862	-0.10286023
75	0x3eaa3135	0.33240667
76	0x3da6f837	0.08152812
77	0xbec6264d	-0.38701096
78	0xbe8ea024	-0.27856553
79	0xbe7c2df9	-0.24626912
80	0x3ed559dd	0.41670123
81	0x3d17b15a	0.03703437
82	0xbd0f3aa7	-0.034968045
83	0xbec40ea5	-0.38292423
84	0x3ee53f4b	0.4477485
85	0x3c39cc6f	0.011340245
86	0xbeec5137	-0.46155712
87	0x3d9e1550	0.07718909
88	0x3e87e37f	0.26540753
89	0xbd94e9b7	-0.0727114
90	0xbdda151b	-0.10648557
91	0x3edbe7ec	0.4295038
92	0xbe12340d	-0.14277668
93	0x3d7d5c1e	0.061855428
94	0x3e048c7b	0.12944214
95	0xbea89ac6	-0.32930583
96	0x3e3cc899	0.18435897
97	0xbdbca364	-0.09210852
98	0xbeebd327	-0.46059534
99	0x3bea9a41	0.007159502
100	0xbe097c19	-0.13426246
101	0x3d687ae8	0.056757838
102	0xbd677734	-0.056510165
103	0x3e08f2ce	0.13373873
104	0x3e37034f	0.17872356
105	0x3e5c8a6d	0.2153718
106	0xbe79259f	-0.24330758
107	0xbd7a310c	-0.06108193
108	0xbe9add00	-0.30246735
109	0x3eef6357	0.46755478
110	0x3d021df3	0.031766843
111	0x3d52989b	0.051415067
112	0xbe28a450	-0.1646893
113	0xbe41c6a4	-0.18923432
114	0x3ed9aafa	0.42513257
115	0xbe54a4f7	-0.20766054
116	0x3e6fb932	0.2341049
117	0x3ed6f80b	0.41986117
118	0x3e401e4b	0.18761556
119	0xbf0951b4	-0.53640294
120	0xbea602c6	-0.3242399
121	0x3ea6163a	0.32438833
122	0x3ef15b38	0.47139907
123	0xbe54086c	-0.20706338
124	0xbd8ede8e	-0.06976043
125	0xbe163ef4	-0.14672452
126	0xbe878d73	-0.26475105
127	0xbe0f9214	-0.14020568

bn3.module.weight f4 [8]
0	0x3fa362f8	1.2764578
1	0x3f9eaee0	1.2397118
2	0x3f876f48	1.0580835
3	0x3f8ca734	1.0988526
4	0x3f9258bb	1.1433328
5	0x3f736bdc	0.95086455
6	0x3f8602be	1.0469587
7	0x3fa1dede	1.2646139

bn3.module.bias f4 [8]
0	0x3d80bf45	0.06286482
1	0xbc59344c	-0.013257097
2	0x3baef90a	0.0053397464
3	0xbd12473a	-0.03571246
4	0x3e6e0903	0.23245625
5	0xbd4baec8	-0.04972723
6	0x3d3ee93a	0.04660914
7	0x3e1936ee	0.1496236

bn3.module.running_mean f4 [8]
0	0xbdc8682c	-0.09785494
1	0xbe0c74a5	-0.13716371
2	0xc0223150	-2.5342598
3	0x3de259c5	0.110522784
4	0x3f926e7e	1.143997
5	0xbf45029d	-0.7695711
6	0x3f8b2a9e	1.0872381
7	0xbe7fb3ee	-0.24970981

bn3.module.running_var f4 [8]
0	0x3c06195b	0.008184756
1	0x3dcafee7	0.099119
2	0x3d5c5e49	0.053800855
3	0x3c68057a	0.014161462
4	0x3d2bbc35	0.041927535
5	0x3e11bba6	0.14231738
6	0x3a890678	0.0010454198
7	0x3ce45b14	0.02787546

fc1.weight f4 [128, 8]
0	0x3e0bd0d9	0.13653888
1	0xbdd8be1b	-0.10583135
2	0x3d802a48	0.062580645
3	0x3e562d50	0.20915723
4	0x3db61dff	0.0889244
5	0xbe3075bc	-0.17232412
6	0x3e52ce26	0.20586452
7	0xbef0fc0c	-0.47067297
8	0xbe29e2bc	-0.16590399
9	0x3e6efacd	0.2333786
10	0xbe4d5e49	-0.20055498
11	0xbdd8af73	-0.10580339
12	0x3e16ca35	0.14725573
13	0xbe0bddeb	-0.13658874
14	0xbe43ac42	-0.1910868
15	0x3e7f0b83	0.24906735
16	0xbe578d1c	-0.21049923
17	0xbe8818e7	-0.265815
18	0xbe872002	-0.26391608
19	0xbe2516a8	-0.16121924
20	0x3dab5472	0.08365716
21	0xbea0d3f5	-0.3141171
22	0x3ddcfddc	0.10790607
23	0xbeae1e9f	-0.34007737
24	0xbd101b0c	-0.035182044
25	0x3e534c6a	0.20634618
26	0xbe7324e8	-0.23744547
27	0x3e535a1e	0.20639846
28	0xbe011339	-0.12604989
29	0xbd6c5ad7	-0.05770382
30	0xbdaefa6e	-0.085438594
31	0x3e295835	0.16537555
32	0xbea536d0	-0.3226838
33	0xbce27047	-0.027641429
34	0xbed407a7	-0.41412088
35	0xbea0d960	-0.31415844
36	0x3d9d8b98	0.07692641
37	0xbdad9ad0	-0.08476794
38	0xbed75865	-0.42059627
39	0x3d7ea4ab	0.06216876
40	0x3ea71dfc	0.32640064
41	0x3e19709a	0.1498436
42	0x3dfe9481	0.124306686
43	0x3e9a3025	0.30114856
44	0xbd9b1ebc	-0.075742215
45	0xbd2663e4	-0.040622607
46	0xbe9d0d62	-0.30674273
47	0xbe8fdd58	-0.2809856
48	0x3e8b7bbd	0.27242842
49	0x3e6af02f	0.22943185
50	0xbe973b8b	-0.29537615
51	0x3d196108	0.03744605
52	0xbe1d493c	-0.15359968
53	0x3e6545cb	0.22389905
54	0xbe66d364	-0.22541577
55	0xbe36e39c	-0.17860264
56	0x3e6215ba	0.220786
57	0xbe3a4cbb	-0.18193333
58	0xbe8c5e97	-0.27415916
59	0xbe095f98	-0.13415372
60	0x3d8bfd0b	0.068353735
61	0x3ec3c3ad	0.38235226
62	0x3ded3691	0.11582673
63	0xbe9a1285	-0.30092254
64	0xbdb2a9a4	-0.08723763
65	0xbec0f875	-0.37689558
66	0x3e543a59	0.20725383
67	0x3e5c1200	0.21491241
68	0xbe0bb7d3	-0.13644342
69	0x3e9daafe	0.3079452
70	0x3cb7cc3b	0.022436252
71	0x3cc25789	0.02372338
72	0xbe2ab174	-0.16669255
73	0xbe6cc0a2	-0.23120359
74	0xbd83eadb	-0.064412795
75	0xbe4ca839	-0.19986047
76	0xbe1c2122	-0.15247014
77	0x3eb9acec	0.3626474
78	0x3e90637c	0.282009
79	0x3e522763	0.20522837
80	0xbeb3f840	-0.35150337
81	0xbe99c6c9	-0.30034474
82	0x3e78ecab	0.24309032
83	0x3c827be2	0.015928213
84	0x3e0c2371	0.13685395
85	0x3ddb8f21	0.10720659
86	0xbdcc6ba9	-0.09981472
87	0x3e5d0994	0.21585685
88	0x3e21a585	0.15785797
89	0xbe7ff398	-0.24995267
90	0xbc5affba	-0.013366634
91	0x3e95c31e	0.29250425
92	0x3ec49f5e	0.38402838
93	0xbd62f003	-0.055404674
94	0xbebcfacd	-0.36910096
95	0xbd273530	-0.040822208
96	0x3e840da2	0.2579165
97	0xbe5a7429	-0.21333374
98	0xbd98ae63	-0.074551366
99	0xbdc2cbe6	-0.09511547
100	0x3e19d807	0.15023814
101	0x3dcf554a	0.101236895
102	0xbe881b0e	-0.2658314
103	0x3dd998e2	0.10624863
104	0xbd82fab7	-0.06395476
105	0x3c274a1f	0.010210543
106	0x3eb370f2	0.35047108
107	0x3d0c8446	0.034305833
108	0xbe3c08bc	-0.18362707
109	0x3db44288	0.08801752
110	0x3e6ec8b3	0.23318748
111	0xbe990b35	-0.29891363
112	0xbebaa9f5	-0.36457792
113	0x3be1a186	0.00688571
114	0xbdfbbf40	-0.122923374
115	0xbd856cbc	-0.0651488
116	0x3dbb301c	0.091400355
117	0xbd117c05	-0.035518665
118	0x3e60fb96	0.21970972
119	0x3e93d19e	0.28870863
120	0x3e7bdaa2	0.2459512
121	0xbe19d277	-0.15021692
122	0xbde838a6	-0.1133893
123	0xbe8e4b66	-0.277919
124	0x3e27d05b	0.16388075
125	0x3ec06588	0.37577462
126	0xbe97b9c4	-0.29633915
127	0xbe0cca4b	-0.13749044
128	0xbe7aeceb	-0.2450444
129	0xbe6a3c67	-0.22874604
130	0x3e02d432	0.12776259
131	0xbdc94e28	-0.0982936
132	0x3e673b7e	0.22581288
133	0x3e3f4084	0.18676955
134	0xbe8ee0ae	-0.27905792
135	0x3e8c5e3d	0.27415648
136	0xbe9f1386	-0.31069583
137	0xbcb031d2	-0.021508131
138	0xbe58cda3	-0.21172194
139	0xbbcdc7ac	-0.0062799063
140	0x3e42b5c8	0.19014657
141	0xbd63fc0e	-0.0556603
142	0x3e47e2f1	0.19520165
143	0x3eb68097	0.3564498
144	0xbe8249c4	-0.25446904
145	0xbe48b295	-0.19599374
146	0x3e93895d	0.28815737
147	0xbc2bd898	-0.010488652
148	0x3eae5277	0.3404729
149	0xbdf908e1	-0.12159897
150	0xbcb452d8	-0.02201216
151	0xbaabda47	-0.0013111316
152	0xbe25f6b7	-0.16207395
153	0xbe9ff7cb	-0.3124374
154	0xb7c4bbee	-2.3452532e-05
155	0x3de70e0e	0.112819776
156	0x3d3ac52d	0.045598198
157	0xbea99edc	-0.33129013
158	0x3e9a3867	0.30121157
159	0x3e85d5fa	0.26139814
160	0x3e4398f3	0.19101314
161	0xbd0c22e9	-0.03421298
162	0xbe2ee8fd	-0.17081065
163	0x3d7f9261	0.062395457
164	0xbdab368e	-0.08360015
165	0x3e8203d0	0.25393534
166	0x3e57e76f	0.21084379
167	0xbd558426	-0.05212798
168	0xbe13a348	-0.14417756
169	0x3d8def6a	0.0693043
170	0xbe692390	-0.22767472
171	0xbec787aa	-0.3897069
172	0xbe12665a	-0.14296857
173	0xbe3a7ead	-0.18212385
174	0xbd14a172	-0.03628678
175	0xbe3dbabf	-0.18528269
176	0xbecf40ed	-0.40479222
177	0xbe4e02d2	-0.20118263
178	0xbeaf4a9e	-0.34236616
179	0xbe876895	-0.26446977
180	0xbeccc3fb	-0.3999327
181	0x3dd30c74	0.103051096
182	0xbdbdbbc4	-0.09264329
183	0x3ddddd20	0.10833192
184	0xbec85a9f	-0.39131638
185	0x3dd84b02	0.105611816
186	0xbd3bdfd7	-0.045867767
187	0x3e027966	0.12741622
188	0x3dea0b2b	0.11427911
189	0x3e5376ac	0.20650738
190	0xbe10ac55	-0.1412824
191	0xbd136c16	-0.03599175
192	0x3de9453b	0.11390158
193	0x3e902101	0.2815018
194	0x3dcbdab8	0.09953827
195	0x3dfedb95	0.12444226
196	0xbe9fbb54	-0.31197608
197	0xbe8fbba0	-0.28072834
198	0x3e0d24e3	0.13783602
199	0xbe3e1148	-0.1856128
200	0xbefbeb7d	-0.492031
201	0xbe96496e	-0.29352897
202	0xbe58c2a5	-0.21168001
203	0xbec7099a	-0.38874513
204	0xbe5de1b7	-0.21668135
205	0x3db2c3b1	0.087287314
206	0x3e19019a	0.14942017
207	0xbd18bfac	-0.037292168
208	0xbe556d1a	-0.208424
209	0x3e5fb78b	0.2184736
210	0x3e41f5f0	0.18941474
211	0xbe20d12b	-0.15704791
212	0x3e9ea8a8	0.3098805
213	0xbdb6d5bb	-0.089274846
214	0x3deffec5	0.11718515
215	0xbe8d5c8b	-0.27609667
216	0xbe66d8b4	-0.22543603
217	0xbe923209	-0.285538
218	0x3d76a336	0.060214244
219	0x3e91ccd1	0.28476575
220	0x3dded57c	0.10880563
221	0x3d3e5f14	0.046477392
222	0xbe34d10f	-0.17657875
223	0x3eadf4b9	0.3397577
224	0xbe673441	-0.22578527
225	0xbeb07cd6	-0.34470242
226	0x3e83ae02	0.25718695
227	0x3e2665e2	0.16249803
228	0x3dd6e4aa	0.10492833
229	0x3d7de296	0.061983667
230	0xbe2f4ba7	-0.17118703
231	0x3e35b930	0.17746425
232	0xbdd259ae	-0.10271011
233	0x3e8af797	0.2714202
234	0xbd120192	-0.03564603
235	0xbe9580f0	-0.29199934
236	0x3eb447f5	0.3521115
237	0x3dca9e9d	0.09893534
238	0x3d8c6355	0.068548836
239	0xbe6ebd4b	-0.23314397
240	0xbe00e9bf	-0.12589167
241	0x3eaae09f	0.33374497
242	0xbe89ebe5	-0.26937786
243	0x3e413cda	0.1887087
244	0xbe3d711f	-0.18500184
245	0xbe2f28ce	-0.1710541
246	0x3d31c4b2	0.043400474
247	0x3c3bfba0	0.011473566
248	0x3e1e7070	0.15472579
249	0x3eb998e9	0.36249474
250	0x3de5c05f	0.112183325
251	0xbe89d8ec	-0.2692331
252	0xbca5c11a	-0.02023368
253	0xbd670052	-0.05639679
254	0xbe0a4c9c	-0.13505787
255	0xbe5c83d5	-0.21534665

fc1.bias f4 [128]
0	0x3ddb67a9	0.10713131
1	0x3e66e3f5	0.22547896
2	0xbe317bc5	-0.1733237
3	0xbdc75c12	-0.09734358
4	0xbde24b0d	-0.11049471
5	0xbe83c12f	-0.25733325
6	0x3e1e075d	0.15432496
7	0x3e6372e5	0.22211798
8	0xbe76168f	-0.24032043
9	0xbc867bbe	-0.016416427
10	0x3d79fbc4	0.061031118
11	0xbe4df95a	-0.20114651
12	0x3d36265a	0.04447017
13	0xbe4d14d2	-0.20027474
14	0xbdcb3f7f	-0.0992422
15	0x3eb3db4c	0.35128248
16	0x3d3512b4	0.04420729
17	0xbe9bbe73	-0.3041874
18	0xbd74e9fd	-0.05979346
19	0x3d9ad36f	0.07559859
20	0xbef94663	-0.48686513
21	0xbe989dc8	-0.29807878
22	0x3e01de7d	0.12682529
23	0x3dad6130	0.08465803
24	0x3d4e74b8	0.05040428
25	0xbea22362	-0.3166762
26	0xbe4401c9	-0.19141306
27	0xbe8a113a	-0.26966268
28	0xbce1eb3c	-0.027577989
29	0xbe6e3bc0	-0.2326498
30	0x3e8cb540	0.27482033
31	0x3de4da8a	0.111744955
32	0xbe8f0306	-0.27931994
33	0xbdb22d91	-0.08700097
34	0x3d049c24	0.03237547
35	0x3e7ea7d9	0.24868716
36	0x3e9c396c	0.3051256
37	0x3e95c590	0.2925229
38	0xbd21328a	-0.03935484
39	0x3e10ab12	0.14127758
40	0x3c9664ea	0.018358666
41	0x3e420259	0.18946208
42	0xbe6f713a	-0.23383036
43	0xbc846ed2	-0.016166124
44	0xbe1886ce	-0.14895174
45	0xbe68c022	-0.22729543
46	0x3e68109b	0.22662584
47	0x3dde8c62	0.1086662
48	0x3dc0825b	0.09399863
49	0xbd0108a4	-0.03150238
50	0x3dce4f15	0.100736775
51	0x3de11d75	0.109919466
52	0x3e1cd0a4	0.15313965
53	0x3e745831	0.23861767
54	0xbd30f523	-0.04320253
55	0x3cc1fd7d	0.023680443
56	0xbe90769e	-0.28215498
57	0xbde24166	-0.1104763
58	0xbc8afd45	-0.016966471
59	0xbc4c9efd	-0.012489078
60	0xbeb8d53b	-0.36100182
61	0xbec01448	-0.37515473
62	0xbc6e3f59	-0.01454147
63	0xbde939f8	-0.1138801
64	0xbefda069	-0.49536446
65	0xbe536a43	-0.20646004
66	0x3d3c55d8	0.045980304
67	0xbe0e2433	-0.13880996
68	0xbe6952f9	-0.22785558
69	0xbdfdedb0	-0.12398851
70	0xbd54f012	-0.05198676
71	0x3e43a497	0.19105755
72	0xbe4e5816	-0.2015079
73	0xbdba3075	-0.09091274
74	0x3dc09f92	0.094054356
75	0x3e23aa29	0.1598288
76	0xbeb70399	-0.35744932
77	0xbebce2bf	-0.36891744
78	0x3daf67b6	0.08564703
79	0xbe0aeaed	-0.1356618
80	0x3e803c89	0.25046185
81	0x3d81680e	0.06318675
82	0xbe46b1ce	-0.19403765
83	0x3d8740c8	0.06604153
84	0x3d50bb4f	0.05095988
85	0xbe787308	-0.24262631
86	0xbbb6b470	-0.005575709
87	0xbe72cb6a	-0.23710409
88	0x3e81a3f1	0.2532039
89	0x3cc8051a	0.024416495
90	0x3e3a1973	0.1817377
91	0x3e2afc07	0.16697703
92	0xbe73f082	-0.23822215
93	0x3ddecdf1	0.10879124
94	0xbe9c68c9	-0.30548695
95	0x3e695c04	0.22789007
96	0x3e0b9190	0.13629746
97	0x3cad4692	0.021151815
98	0x3e2374bc	0.159625
99	0xbdfedf5b	-0.124449454
100	0x3e2e66eb	0.17031448
101	0x3da3efef	0.08004748
102	0xbdcda197	-0.100405864
103	0x3e29ed06	0.16594324
104	0xbde442d7	-0.11145561
105	0xbd8f6da3	-0.070033334
106	0xbea46e4f	-0.3211541
107	0xbe3d4cf5	-0.18486388
108	0xbe7d2826	-0.24722347
109	0xbed65742	-0.41863447
110	0xbd963b6c	-0.073355526
111	0xbcc6459b	-0.024203112
112	0x3e159a40	0.14609623
113	0xbe0d6fab	-0.13812129
114	0x3d4ad80e	0.049522452
115	0xbdf06898	-0.117387
116	0x3dc3fb90	0.09569466
117	0xbebae0e3	-0.364997
118	0xbe0bc254	-0.13648349
119	0x3d955bad	0.072928764
120	0xbeda8ade	-0.42684072
121	0xbe96567c	-0.29362857
122	0x3e39021f	0.18067215
123	0x3e09adca	0.13445202
124	0x3e6b75e4	0.2299419
125	0x3d0c714a	0.03428773
126	0x3e47567e	0.19466588
127	0x3c71e484	0.014763955

fc2.weight f4 [64, 128]
0	0x3ecabe82	0.3959847
1	0xbe808ea3	-0.25108823
2	0xbd73afb5	-0.05949374
3	0xbe05a5bf	-0.13051508
4	0xbce895a6	-0.02839167
5	0x3d8687ea	0.06568892
6	0x3ea8da96	0.32979268
7	0x3e5e7629	0.21724762
8	0xbcdb34df	-0.02675861
9	0x3d82283b	0.063553296
10	0xbe8ab5ec	-0.2709192
11	0xbed6c3a9	-0.41946152
12	0xbebaafc3	-0.3646222
13	0x3ec820a2	0.39087397
14	0xbdc448c7	-0.09584194
15	0xbd58fde8	-0.05297652
16	0xbeff6d6f	-0.4988818
17	0xbe96257b	-0.2932547
18	0xbe60556b	-0.21907584
19	0xbdb0377a	-0.08604331
20	0x3d56d4b6	0.05244895
21	0x3b12f5f4	0.0022424432
22	0xbdba890e	-0.09108172
23	0xbc9c3f09	-0.019073026
24	0x3f06319d	0.52419454
25	0xbd886c5a	-0.066612914
26	0xbd093251	-0.03349525
27	0xbea329e0	-0.31867886
28	0xbef93682	-0.486744
29	0xbe568aee	-0.20951435
30	0x3d32e54d	0.04367571
31	0x3ea6839a	0.3252228
32	0xbe970106	-0.29492968
33	0xbc9c8789	-0.019107597
34	0xbf49454f	-0.7862138
35	0x3ed19172	0.40931278
36	0xbe053c7c	-0.13011354
37	0x3e9f1f51	0.3107858
38	0xbf2cdb99	-0.6752258
39	0x3e8d379b	0.27581486
40	0xbece6005	-0.40307632
41	0xbe476d68	-0.19475329
42	0x3adfd146	0.0017075918
43	0x3ee9137c	0.45522678
44	0x3d183740	0.037162066
45	0xbdafe7c8	-0.08589131
46	0x3eac3b38	0.3363893
47	0x3f13e1db	0.57766503
48	0xbe965885	-0.2936441
49	0xbecf5a2b	-0.4049848
50	0x3d16b6af	0.036795314
51	0xbd0023f7	-0.0312843
52	0x3cfe82c3	0.031068211
53	0xbd7d253c	-0.061803088
54	0xbf30f0dc	-0.6911752
55	0xbdc99565	-0.09842948
56	0xbe444dce	-0.19170305
57	0xbcf7bd34	-0.030241586
58	0xbe8ff64a	-0.2811759
59	0xbe39d3e6	-0.18147239
60	0xbe3bc91e	-0.18338439
61	0xbdb12a3e	-0.08650635
62	0x3b97d1f6	0.0046331836
63	0xbc456550	-0.012048081
64	0x3d7461d6	0.059663616
65	0xbd2722ad	-0.040804554
66	0xbd2db354	-0.04240735
67	0xbdbad651	-0.09122909
68	0x3d83d67a	0.064373925
69	0xbf26c356	-0.6514181
70	0xbde50fa5	-0.111846246
71	0xbb6a0ca6	-0.0035713105
72	0x3e6a0078	0.22851741
73	0xbf33ec5a	-0.7028252
74	0x3f3894f2	0.7210227
75	0xbebbc491	-0.36673406
76	0xbd7859df	-0.060632583
77	0x3b3d6f4b	0.0028905447
78	0x3cfd4b9a	0.030919839
79	0xbdde5c1f	-0.108574145
80	0xbc7a7fb5	-0.015289237
81	0xbe6ef6cf	-0.23336338
82	0xbccdcce2	-0.02512211
83	0xbd595eb6	-0.05306884
84	0x3da2b669	0.07944948
85	0x3d99c351	0.07507957
86	0x3f66aed6	0.9011053
87	0xbced6aa2	-0.02898151
88	0x3dbe1286	0.09280877
89	0x3d523ad0	0.05132562
90	0xbf13ed9c	-0.5778444
91	0x3ec2d314	0.38051665
92	0xbeca7893	-0.39545116
93	0xbd8adc36	-0.06780283
94	0xbdadebfa	-0.084922746
95	0xbe0bf4fe	-0.13667676
96	0xbe92428f	-0.28566405
97	0xbf859f7e	-1.0439298
98	0xbc1aabf5	-0.009440412
99	0xbdba0783	-0.09083464
100	0x3daef8a8	0.08543521
101	0xbd38a82e	-0.045082264
102	0x3e51a7c1	0.2047415
103	0xbd5e6944	-0.054299608
104	0xbf06ee65	-0.5270751
105	0xbdc5f120	-0.096651316
106	0xbeda937e	-0.42690653
107	0xbe1cc68a	-0.15310112
108	0x3e8c0f23	0.27355298
109	0xbd318cb8	-0.04334709
110	0xbdb929a0	-0.090411425
111	0xbee68f3b	-0.4503115
112	0xbe4757e7	-0.19467126
113	0xbeaafc1c	-0.3339547
114	0x3e02d1ee	0.12775394
115	0x3f1154fe	0.5677031
116	0xbd92b158	-0.07162732
117	0xbe5e0ef9	-0.21685399
118	0xbf3e8248	-0.74417543
119	0x3ee5e62d	0.44902173
120	0x3dc6c3e3	0.09705331
121	0xbc514877	-0.012773625
122	0xbe4603a0	-0.1933732
123	0x3dbf0644	0.09327367
124	0x3be24e77	0.0069063264
125	0x3c79114f	0.015201881
126	0x3e95d418	0.29263377
127	0xbf36165d	-0.71127874
128	0xbbcfacfd	-0.0063377605
129	0xbd4d9d74	-0.050198987
130	0xbd9dc4bb	-0.07703539
131	0x3d9edaa7	0.077565484
132	0xbb7b99dc	-0.0038391268
133	0x3babe73e	0.005246072
134	0x3e4f47db	0.20242254
135	0xbcd2b457	-0.025720758
136	0x3ce2d187	0.027687801
137	0x3d8b7ed7	0.06811302
138	0xbe377b12	-0.17918041
139	0xbdc01492	-0.093789235
140	0xbe379c7d	-0.1793079
141	0x3de549be	0.11195706
142	0x3e52a3b9	0.20570268
143	0xbd4abe64	-0.049497977
144	0xbde7b53f	-0.11313867
145	0x3e0e44ca	0.13893428
146	0xbe9c0371	-0.30471376
147	0xbba58f2e	-0.0050524687
148	0x3d08c99b	0.03339539
149	0xbd98d58e	-0.07462607
150	0x3cb8cfc7	0.022560013
151	0x3dd6280c	0.10456857
152	0x3e06ea51	0.13175322
153	0xbba4ad85	-0.005025568
154	0xbdc1e75b	-0.09467956
155	0x3dde5ce4	0.10857561
156	0xbe4d3ee2	-0.20043519
157	0xbe3e54e6	-0.18587074
158	0x3da32c41	0.07967425
159	0xbe120dfb	-0.14263146
160	0xbdbad78d	-0.09123144
161	0xbdbb3d53	-0.09142556
162	0xbf402bca	-0.75066817
163	0x3ed4bb69	0.41549233
164	0xbd466a53	-0.048441242
165	0x3c064ed9	0.00819751
166	0xbee1496f	-0.44001338
167	0x3cec53fc	0.02884864
168	0xbd59dc11	-0.053188387
169	0xbd0c4449	-0.03424481
170	0xbd0f42e8	-0.034975916
171	0x3e781f34	0.24230653
172	0x3d6616f0	0.05617422
173	0x3d4826be	0.048865072
174	0x3cb90028	0.022583082
175	0x3e92defd	0.28685752
176	0xbe675965	-0.22592695
177	0xbebd3cf7	-0.36960575
178	0xbd9b024f	-0.075688
179	0x3d4456a1	0.04793418
180	0x3dae0351	0.08496726
181	0xbcd33df9	-0.025786387
182	0xbf00b630	-0.50277996
183	0xbe4a84a2	-0.19777158
184	0xbe2c59be	-0.16831109
185	0x3e930515	0.28714815
186	0xbe73b754	-0.23800403
187	0xbe8b2b24	-0.2718135
188	0xbdf12b04	-0.11775783
189	0xbdfe7156	-0.12423961
190	0xbdd4586e	-0.10368429
191	0xbdd64012	-0.10461439
192	0xbc90055b	-0.017580679
193	0xbc80c5bf	-0.015719293
194	0xbda57f6f	-0.08080947
195	0xbd4a9cfc	-0.04946612
196	0x3e19c69b	0.15017168
197	0xbedf84ae	-0.43655914
198	0xbd8651c3	-0.065585636
199	0x3deb869d	0.11500285
200	0x3ea5f185	0.32410827
201	0xbecbc6f4	-0.39800227
202	0x3f1a8247	0.6035504
203	0xbea733ad	-0.32656613
204	0xbdab72cf	-0.083715074
205	0xbd365adb	-0.04452024
206	0xbd471852	-0.048607178
207	0x3ce798c5	0.028271088
208	0x3d299c5c	0.04140888
209	0x3ded88e9	0.11598379
210	0xbd23b485	-0.03996708
211	0x3e404528	0.18776381
212	0xbe321efe	-0.17394635
213	0x3d8537b4	0.06504765
214	0x3f4a727e	0.7908095
215	0x3d081eb9	0.033232424
216	0xbd5c0eed	-0.05372517
217	0x3cacf753	0.021114027
218	0xbed881fa	-0.42286664
219	0x3e9f1212	0.31068474
220	0xbd5c59bd	-0.05379652
221	0xbd8e8c61	-0.06960369
222	0xbceab1ef	-0.028649298
223	0xbd481093	-0.04884393
224	0xbe6aa4d4	-0.2291444
225	0xbf6fee0b	-0.937226
226	0x3e009388	0.12556279
227	0xbd300487	-0.042973068
228	0xbe00aa9d	-0.12565084
229	0xbd71446c	-0.058903143
230	0x3e16a1d9	0.14710177
231	0x3d4f07f7	0.050544705
232	0xbf1af64f	-0.6053209
233	0x3d65ccc4	0.056103483
234	0xbe442470	-0.19154525
235	0xbdaa9047	-0.083283
236	0x3e9a3759	0.30120352
237	0xbdae85fe	-0.08521651
238	0xbcb4e33d	-0.022081012
239	0xbec0adad	-0.37632504
240	0xbdf08f3b	-0.11746069
241	0xbe436276	-0.19080529
242	0xbb14e75c	-0.0022720909
243	0x3e729e8f	0.23693298
244	0x3d8237f1	0.06358326
245	0x3d553279	0.052050088
246	0xbf2e545a	-0.6809746
247	0x3e723c0e	0.23655722
248	0x3c39b5a3	0.0113348095
249	0xbdd41458	-0.10355443
250	0xbcd6440f	-0.0261555
251	0x3daf20b7	0.08551162
252	0xbde073c3	-0.1095958
253	0xbd0dd509	-0.034626994
254	0x3e2d37dc	0.1691584
255	0xbf37474c	-0.71593165

fc2.bias f4 [64]
0	0x3d7dc7f6	0.061958276
1	0x3d9d8c2a	0.0769275
2	0xbbdc950e	-0.006731636
3	0x3d2da258	0.04239115
4	0x3ca6e1cf	0.020371346
5	0x3e02d1e4	0.1277538
6	0x3cc6dbc7	0.02427472
7	0xbca5df00	-0.020247936
8	0x3da3b1ed	0.07992921
9	0x3d5fb2f0	0.054614007
10	0x3d735be5	0.05941381
11	0xbd9010d7	-0.07034462
12	0x3de56277	0.11200421
13	0x3dae932a	0.08524163
14	0x3d09d8e2	0.0336541
15	0x3d7cc064	0.061706915
16	0xbd166c5a	-0.036724426
17	0x3d41340e	0.047168784
18	0x3c54a45c	0.012978639
19	0x3dbeaea0	0.09310651
20	0x3d7da1ce	0.061921887
21	0x3cbf6efa	0.023368347
22	0x3c842c9f	0.016134558
23	0xbd1f7f39	-0.03893969
24	0xbc1d5634	-0.009603072
25	0x3dca0dd5	0.098659195
26	0x3daa9b41	0.083303936
27	0x3e47530e	0.19465277
28	0x3d9b56ad	0.075848915
29	0xbd94144e	-0.07230435
30	0x3d9f415a	0.07776137
31	0xbd4d5d00	-0.05013752
32	0x3d6de0b5	0.058075625
33	0x3dcc6958	0.0998103
34	0x3dfdc13c	0.12390372
35	0x3d74affc	0.059738144
36	0x3dcf9546	0.101358935
37	0x3c0e052a	0.008668223
38	0xb9235c7d	-0.00015579346
39	0x3dbcb79d	0.09214709
40	0x3c95e615	0.018298188
41	0xbd298c2b	-0.04139344
42	0x3dac6e6c	0.08419499
43	0x3d3cd41f	0.046100732
44	0xbd06048c	-0.03271918
45	0x3d6c1171	0.05763382
46	0x3daded42	0.08492519
47	0x3d1d90d7	0.03846821
48	0x3df99ef8	0.12188524
49	0x3d987ea6	0.07446031
50	0x3d4118f4	0.047142938
51	0x3d979b2b	0.07402643
52	0xbd9af119	-0.07565517
53	0xbd4bbcbf	-0.04974055
54	0x3d4c96b1	0.049948398
55	0x3d87666f	0.066113345
56	0x3c65a03d	0.014015255
57	0x3dbf6be3	0.0934675
58	0x3da520f3	0.08062925
59	0xbd0a175c	-0.033713683
60	0xbd285025	-0.041092057
61	0xbccdc884	-0.025120027
62	0x3c838bbf	0.016057847
63	0x3dd0335e	0.101660475

fc3.weight f4 [32, 64]
0	0x3dbb2366	0.09137611
1	0x3e347bf6	0.17625412
2	0x3dac6aff	0.084188454
3	0xbd3df47e	-0.046375744
4	0x3d7aa2b2	0.061190315
5	0x3cdfa583	0.027300602
6	0x3d4bc756	0.04975065
7	0x3e0eff12	0.13964489
8	0x3d61e9f5	0.05515476
9	0xbd0d0d3f	-0.03443646
10	0x3db9278a	0.090407446
11	0x3d728dd3	0.059217285
12	0x3d24b039	0.04020712
13	0x3d0dda83	0.034632217
14	0xbd7e1889	-0.062035117
15	0x3de0fa8f	0.1098529
16	0xbb9111e2	-0.0044271806
17	0xbdf2c381	-0.11853696
18	0x3e31c7d2	0.17361382
19	0x3d8b8197	0.06811827
20	0x3e72f5c9	0.23726572
21	0x3d1ad2ab	0.037798565
22	0x3e17921c	0.1480183
23	0x3d6fc2af	0.058535274
24	0x3e208727	0.15676557
25	0xbd45d228	-0.048296124
26	0x3e3e4f6c	0.18584985
27	0xbe339293	-0.17536382
28	0x3e300e02	0.17192844
29	0x3d6a3688	0.05718091
30	0x3d54be93	0.05193956
31	0xbd2eb796	-0.04265555
32	0x3e452146	0.19250974
33	0x3e558eb1	0.20855214
34	0xbcec9ecd	-0.028884316
35	0xbd74ecd1	-0.05979616
36	0x3df3c1f7	0.1190223
37	0x3e0b7b87	0.1362134
38	0xbd33608e	-0.043793254
39	0xbd9de53e	-0.0770974
40	0x3e004621	0.12526752
41	0x3daf3ce7	0.08556538
42	0x3dcb003d	0.09912155
43	0x3dbf7343	0.09348156
44	0x3e2481b1	0.16065098
45	0x3ddede78	0.10882276
46	0x3e0fc7fb	0.1404113
47	0x3ddcf753	0.10789361
48	0x3e22c1b4	0.15894204
49	0x3dcbb821	0.09947229
50	0x3de9f238	0.11423153
51	0x3d4a6d90	0.049420893
52	0x3bccb4c8	0.0062471367
53	0x3e156e91	0.14592959
54	0x3c79626b	0.015221219
55	0x3e6a10ad	0.22857924
56	0xbe44b7f1	-0.19210793
57	0x3e0835de	0.13301799
58	0x3db1b5e0	0.08677268
59	0x3e0babc7	0.13639747
60	0xbe08201e	-0.13293502
61	0xbdaf0b42	-0.08547069
62	0x3dccedab	0.10006269
63	0x3a93a680	0.0011264831
64	0x3de0ccce	0.109765634
65	0x3e143141	0.14471914
66	0x3d85709f	0.065156214
67	0x3d96c67e	0.07362078
68	0x3d6386cd	0.055548478
69	0x3ded635a	0.115912154
70	0xbce7f2e9	-0.02831407
71	0xbad6cee7	-0.0016388566
72	0x3e8f92cc	0.28041685
73	0x3e1decd6	0.15422377
74	0x3e4aa445	0.19789226
75	0xbe027e00	-0.12743378
76	0x3e17cd1f	0.14824341
77	0x3d7d700f	0.061874446
78	0x3dd198f5	0.10234252
79	0x3e009443	0.12556557
80	0xbc3b26fa	-0.011422867
81	0xbbf0d6e4	-0.0073498357
82	0x3d8f4ebc	0.06997439
83	0x3e3f0293	0.18653326
84	0x3e5f3294	0.21796638
85	0xbe2776b3	-0.16353874
86	0x3dc7fd9d	0.0976517
87	0x3d91febb	0.07128664
88	0x3e843de4	0.2582847
89	0x3dbd5878	0.0924539
90	0x3d9335c7	0.071879916
91	0xbdb756c5	-0.08952097
92	0x3e42dbce	0.19029161
93	0xbd44129e	-0.047869317
94	0x3e43d8c3	0.19125657
95	0x3d86f674	0.06589976
96	0x3e3dfb5d	0.18552919
97	0x3e894f5c	0.2681836
98	0x3d531019	0.051529024
99	0x3d381eae	0.044951133
100	0x3d427177	0.04747149
101	0x3e8b3947	0.27192137
102	0xbd7fdd0c	-0.062466666
103	0x3bf44f15	0.0074557164
104	0x3e5efd8a	0.21776405
105	0x3e38c19e	0.18042609
106	0x3e24fd67	0.1611229
107	0x3dae186c	0.08500752
108	0x3e18c312	0.14918163
109	0x3e1e721b	0.15473215
110	0x3e5ab749	0.2135898
111	0x3d29d51a	0.041462995
112	0x3de2903b	0.11062666
113	0x3e2016ba	0.1563367
114	0x3d9d808c	0.07690534
115	0x3e289427	0.16462766
116	0xbe621c90	-0.22081208
117	0x3e2b7730	0.16744685
118	0x3de5788c	0.11204633
119	0x3e5728b6	0.21011624
120	0xbe355b42	-0.17710593
121	0x3dded166	0.10879783
122	0x3da76e1a	0.08175297
123	0x3e3098de	0.17245814
124	0xbe635af7	-0.22202669
125	0xbe66632b	-0.22498767
126	0xbe263cf9	-0.16234197
127	0xbc3c67ae	-0.011499329
128	0x3dc0377d	0.093855835
129	0x3d2459ec	0.04012482
130	0xbd62e6ea	-0.055395998
131	0x3e036fb5	0.12835582
132	0xbcb718c5	-0.022350678
133	0xbdf625a4	-0.12018898
134	0x3d60a877	0.05484816
135	0xbcd24f4d	-0.02567258
136	0xbda1faba	-0.079091504
137	0xbd1d728c	-0.03843932
138	0xbd168534	-0.036748126
139	0xbd0ec3d8	-0.03485474
140	0x3ca73980	0.02041316
141	0x3d993a3a	0.07481809
142	0xbd65973a	-0.056052424
143	0x3cdf439e	0.027253922
144	0xbdf4c088	-0.11950785
145	0xbd2897e3	-0.041160475
146	0xbd715120	-0.058915257
147	0xbc7921b7	-0.015205792
148	0x3da80843	0.08204701
149	0xbe242c13	-0.16032438
150	0x3def4f44	0.116850406
151	0x3c94f58e	0.018183496
152	0xbdc7e5d4	-0.09760633
153	0xbc2cd8d9	-0.010549747
154	0xbcb954c6	-0.022623431
155	0xbdacbc48	-0.08434349
156	0x3c9aaf70	0.018882483
157	0xbdab5056	-0.08364932
158	0xbe0f4590	-0.1399138
159	0xbe46d078	-0.19415462
160	0xbdc8c3f5	-0.09803001
161	0x3bc52088	0.006015841
162	0x3db41b6b	0.08794292
163	0x3cf9f4b1	0.030512186
164	0xbd306a1c	-0.043069944
165	0x3d7ab425	0.061206955
166	0xbe2a2d08	-0.1661874
167	0x3d5d6038	0.05404684
168	0x3d5e8791	0.054328505
169	0x3db52a8b	0.08846005
170	0xbd9167e9	-0.070998974
171	0xbe05ee5e	-0.13079211
172	0x3d0984e2	0.033573993
173	0x3d409a45	0.047022123
174	0xbd3052ac	-0.043047592
175	0xbbc0cb33	-0.0058835982
176	0xbde71919	-0.11284084
177	0xbc5ed03d	-0.013599453
178	0x3d664f25	0.05622782
179	0x3cc4d744	0.024028428
180	0x3da53a9b	0.08067819
181	0xbd4b5237	-0.049638953
182	0x3d767277	0.060167756
183	0x3dd89a6e	0.1057633
184	0x3cadd707	0.021220697
185	0x3e20b4d9	0.15693988
186	0xbcc85c44	-0.024458058
187	0x3e1912f0	0.1494863
188	0x3e3635ae	0.17793915
189	0xbe44224b	-0.19153707
190	0xbe8955e7	-0.2682335
191	0xbd41be76	-0.04730078
192	0x3e9b9c7b	0.30392823
193	0x3e8f26fa	0.27959424
194	0x3d2eb299	0.042650793
195	0x3d65e196	0.05612334
196	0xbc886df2	-0.016653989
197	0x3d865d8a	0.0656081
198	0x3ea48e1b	0.32139668
199	0x3e50077f	0.2031536
200	0x3de258e5	0.110521115
201	0xbde3bda8	-0.111201584
202	0x3e2b769a	0.16744462
203	0x3dc72609	0.097240515
204	0x3dd5f5a1	0.104472406
205	0xbe15295f	-0.14566563
206	0x3e0f4d53	0.1399434
207	0x3e897623	0.26847944
208	0x3d974aee	0.073873386
209	0xbeaef7b4	-0.34173357
210	0x3edce9b5	0.43147054
211	0x3e17f73a	0.14840403
212	0x3e164cc7	0.14677726
213	0x3db9644a	0.09052332
214	0x3e6d1f8a	0.23156562
215	0x3f16b802	0.58874524
216	0xbdf36777	-0.11884969
217	0x3d3dba51	0.046320263
218	0x3e4b3aa4	0.19846588
219	0xbef53e97	-0.47899315
220	0x3edb3452	0.42813355
221	0xb9eed479	-0.00045553202
222	0x3e8867ad	0.26641598
223	0x3e857753	0.260676
224	0x3e6d83fb	0.23194878
225	0x3e1d2e6c	0.1534974
226	0xbca193fa	-0.019723881
227	0x3e398e3f	0.18120669
228	0x3eb81cc9	0.3595946
229	0x3ed64ebc	0.41856945
230	0xbf0a1ed5	-0.53953296
231	0x3e0a0295	0.13477547
232	0x3eb257bb	0.34832558
233	0x3ed9d3bd	0.42544356
234	0x3e8f9896	0.280461
235	0x3e21cc8d	0.15800686
236	0x3ef31484	0.4747659
237	0x3e0b6255	0.1361173
238	0x3e6070ae	0.21917984
239	0xbd8ce09b	-0.068787776
240	0xbceba33f	-0.028764365
241	0x3ddaada5	0.10677651
242	0x3e00da6c	0.12583321
243	0xbe51c335	-0.20484622
244	0xbce482a8	-0.027894333
245	0x3ea1553c	0.3151034
246	0x3eb73458	0.35782123
247	0x3ec9ce35	0.39415136
248	0xbe6dc8fa	-0.23221198
249	0xbc5a1035	-0.013309528
250	0x3e8a8e0e	0.27061504
251	0x3e43fe59	0.19139995
252	0xbe813b97	-0.25240776
253	0xbf4397ba	-0.7640339
254	0xbed77657	-0.42082474
255	0xbe808714	-0.25103056

fc3.bias f4 [32]
0	0x3db564d6	0.088571236
1	0xbd5cfe3c	-0.053953394
2	0x3d5e5c08	0.054286987
3	0xbdc6c4f4	-0.097055346
4	0xbde2a0a2	-0.110657945
5	0xbcd87f8c	-0.026428007
6	0xbbd3931c	-0.006456746
7	0x3dba58e8	0.09098989
8	0xbc996ef0	-0.018729657
9	0xbd9ee951	-0.07759345
10	0x3c06b5ec	0.0082220845
11	0x3d85b0ce	0.065278634
12	0x3dc280dc	0.09497234
13	0x3db78e09	0.08962638
14	0xbd820d11	-0.063501485
15	0xbd497fde	-0.04919421
16	0x3d7624f4	0.060093835
17	0x3d5067c2	0.0508802
18	0xbb82ca51	-0.003991403
19	0x3cf9a8c1	0.030475976
20	0x3d32d80b	0.043663066
21	0xbe083ff9	-0.13305654
22	0xbe0f608b	-0.14001672
23	0x3d49b845	0.049248
24	0x3d4aab4c	0.049479768
25	0x3da04994	0.07826534
26	0xbca7316c	-0.020409308
27	0x3db9d88a	0.09074505
28	0xbd503350	-0.050830185
29	0xbe0827c3	-0.13296418
30	0x3ca696dc	0.020335607
31	0x3d81747c	0.06321046

fc4.weight f4 [1, 32]
0	0xbe206c46	-0.15666303
1	0xbe48a488	-0.19594014
2	0x3e9a0b3b	0.30086693
3	0xbeafe4d0	-0.34354258
4	0x3e67da40	0.2264185
5	0x3e07069f	0.1318612
6	0x3e81b255	0.2533137
7	0xbe5c2856	-0.21499762
8	0x3d91fc84	0.07128242
9	0x3e8459a6	0.25849646
10	0xbe1d2b17	-0.15348469
11	0x3e001a1f	0.12509964
12	0x3e134c62	0.14384606
13	0x3e6d43b5	0.2317036
14	0x3de1cb41	0.11025096
15	0xbe3e0acf	-0.1855881
16	0x3e50fc52	0.20408753
17	0x3ea915df	0.330245
18	0xbe5e22e4	-0.21692997
19	0xbe1b4d60	-0.15166235
20	0x3e9288f7	0.2862012
21	0x3e265b51	0.16245772
22	0x3e2a8707	0.16653071
23	0xbe5fabdc	-0.21842903
24	0x3e7e082e	0.24807808
25	0xbe6e9662	-0.23299554
26	0xbde583c8	-0.11206776
27	0xbdafc47e	-0.085824
28	0xbe27533f	-0.1634035
29	0x3de2dee5	0.1107767
30	0xbdddd9a8	-0.1083253
31	0x3e479282	0.19489482
