Task1/model/bs64_epoch20.pth (torch, 58183 bytes, 25 tensors)

conv1.bias f4 [16]
000000 25 e4 fc 37 85 cf 0f b9 b1 f6 71 b7 b1 90 59 37
       3.0146979e-05 -0.0001371485 -1.4422157e-05 1.29678965e-05
000010 66 7b 08 39 3b e6 86 37 83 e5 6c 37 c3 f1 98 b7
       0.0001301594 1.6081254e-05 1.41201335e-05 -1.8232391e-05
000020 ea 93 a1 b6 cc ca c7 b7 8d d6 48 b6 f8 f5 ae 37
       -4.8153934e-06 -2.3817083e-05 -2.9927207e-06 2.0856955e-05
000030 98 0d a7 37 98 09 31 38 f5 c8 10 b8 77 61 bb b8
       1.9914281e-05 4.2209023e-05 -3.451943e-05 -8.935009e-05

conv1.lin.weight f4 [16, 1]
000000 3b 8a a8 be d0 1c 76 3d b6 dd d7 3e 9e 7f be 3e
       -0.3291796 0.06008607 0.4216134 0.3720674
000010 ba db 09 bd 7b f2 4b be fe 20 8e 3e b9 a6 a2 3e
       -0.033656813 -0.19916718 0.27759546 0.31767824
000020 d4 32 ce 3e 95 3d 40 be e7 ba 63 3e 9b 82 01 3f
       0.40273154 -0.18773492 0.22239266 0.50589913
000030 72 4d 88 be 27 d2 9a 3e 42 37 de 3e 08 a8 55 be
       -0.26621586 0.3023846 0.43401533 -0.2086488

bn1.module.weight f4 [16]
000000 e4 3f 7d 3f c0 e2 79 3f ee fe 7c 3f 8d a6 81 3f
       0.98925614 0.9761162 0.9882649 1.0128952
000010 87 cc 7e 3f 10 b7 7c 3f 8d c2 81 3f 5d cb 7e 3f
       0.99530834 0.9871683 1.0137497 0.9952906
000020 02 4d 7e 3f 66 fb 7f 3f 32 d9 7b 3f 18 8f 82 3f
       0.99336255 0.9999298 0.9837829 1.0199919
000030 97 3b 80 3f c2 a5 82 3f 6f 37 79 3f 2f 24 81 3f
       1.0018185 1.0206835 0.9735021 1.0089167

bn1.module.bias f4 [16]
000000 12 76 5a bc 39 eb 10 bc 57 53 07 3c ef 99 21 b9
       -0.013333814 -0.008845144 0.008259616 -0.00015411501
000010 71 3b 5c 3c 0a 68 96 bc 10 2d b9 3b 20 8b e7 bb
       0.013441906 -0.018360157 0.005651124 -0.0070661455
000020 21 f5 94 bc b3 4d 2b 3c 38 d9 a1 bc a0 f0 9c 3c
       -0.018183293 0.010455537 -0.019756898 0.019157708
000030 ba 26 1e bc 27 21 90 3c 8e 1a c1 bc 46 70 86 3b
       -0.009652788 0.017593933 -0.023572233 0.0041027395

bn1.module.running_mean f4 [16]
000000 4e 9d 03 bf dc fb bf 3d a8 94 28 3f 07 c6 14 3f
       -0.514119 0.0937421 0.6585183 0.58114666
000010 ee e5 56 bd b5 40 9f be 35 00 de 3e fe 08 fe 3e
       -0.05246537 -0.31104055 0.43359533 0.49616235
000020 be 08 21 3f 94 25 96 be 8b d7 b1 3e 2a 4a 4a 3f
       0.62903965 -0.29325545 0.3473476 0.79019415
000030 21 e4 d4 be 1a d7 f1 3e c9 88 2d 3f 64 e7 a6 be
       -0.415803 0.47234422 0.6778684 -0.32598412

bn1.module.running_var f4 [16]
000000 2c c6 ce 3d c5 99 5c 3b 44 9b 29 3e b7 14 04 3e
       0.10096392 0.003366099 0.16563135 0.12898527
000010 72 7d 8a 3a 83 5d 17 3d 3c 0c 93 3d e4 92 c0 3d
       0.001056595 0.036954414 0.07180068 0.09403017
000020 cd c1 1a 3e b8 83 06 3d a6 bf 3c 3d 4d 31 74 3e
       0.15112992 0.03284046 0.046081208 0.23846932
000030 cf 3f 87 3d 16 7c ae 3d 1f bb 33 3e 9a 26 26 3d
       0.066039674 0.08519761 0.1755185 0.040564157

conv2.bias f4 [16]
000000 fe 54 f5 35 a8 b5 e1 b6 a5 05 dc 36 40 c4 b4 36
       1.8278658e-06 -6.72667e-06 6.557168e-06 5.3872645e-06
000010 20 f0 6c 36 14 cc 0f 35 62 2a 8e 33 ca 04 03 b7
       3.5306512e-06 5.3568624e-07 6.6201e-08 -7.8093235e-06
000020 9e 9e c9 36 4b 36 57 37 90 8b 9e b6 16 43 13 36
       6.0087323e-06 1.282764e-05 -4.725014e-06 2.1943756e-06
000030 d7 1b c1 b6 7a 35 b1 b5 2a bf 54 b6 5c 49 5c 35
       -5.755089e-06 -1.3203091e-06 -3.1701734e-06 8.206314e-07

conv2.lin.weight f4 [16, 16]
000000 97 e5 b5 3e 6b 73 31 3e 17 1e 2c be 94 1b 98 bd
       0.35526726 0.17329185 -0.16808353 -0.07427135
000010 6a 1f ae 3e c5 7b fa 3d c1 f2 ac be 9e 5f 82 be
       0.34008342 0.122306384 -0.33778957 -0.25463575
000020 b9 f4 91 3e 39 a5 8b 3b 7c 90 5a 3e 74 2f a6 be
       0.2850702 0.0042616394 0.21344179 -0.3245808
000030 b0 9e 90 bc f6 29 6a 3e b1 7b 98 3e da b4 7f be
       -0.017653793 0.2286757 0.2978187 -0.24971333
000040 9b 4a a2 3e a5 82 a5 3e e9 f4 f2 bc 3e 64 c2 3c
       0.31697544 0.32326236 -0.029657798 0.02372944
000050 2a fd 98 bd 45 08 eb bb fa 97 43 3d 6b f8 15 bd
       -0.07470162 -0.0071726167 0.047752358 -0.036613863
000060 de 92 bb be 3d 2f ba be ac aa af be f9 f9 48 be
       -0.36635488 -0.36364165 -0.343099 -0.19626607
000070 39 5a af 3e a1 91 45 3e 4a 42 bb 3e 34 26 c2 3e
       0.34248522 0.19293834 0.36574012 0.37919772
000080 cb 17 67 bd 62 42 38 be 67 c6 0b be 59 21 b4 3e
       -0.056419175 -0.17994073 -0.13649903 0.35181692
000090 84 9f 80 be 4a c7 3d 3e dd 00 ae bd 1b 8a c5 3d
       -0.251217 0.18533054 -0.084962584 0.09645482
0000a0 c4 2e 93 be 4a 72 89 3b e9 95 e9 3d 99 04 74 3d
       -0.28746617 0.0041945325 0.11405546 0.059574697
0000b0 d5 d5 9e 3e d1 0a 99 3e 42 d2 7f be d4 74 a1 3c
       0.31022516 0.29891065 -0.2498255 0.019709028
0000c0 aa d1 c9 3e 1d fd fd bd 6a e8 cd be a4 05 ce be
       0.39417773 -0.12401793 -0.4021638 -0.40238678
0000d0 0f 71 c2 3e cf 63 f8 bd cd 93 4c be d6 59 31 3e
       0.37976882 -0.12128412 -0.19978257 0.17319426
0000e0 bf c0 df 3e 20 3b c3 be c0 a3 78 be 6c a7 68 3e
       0.4370174 -0.38131046 -0.24281216 0.22720116
0000f0 cd c9 9f 3e 24 f9 42 3d 1a dd 38 3e ad 7b a4 3e
       0.3120865 0.04760088 0.18053094 0.32125607
000100 b6 e9 8e 3e 6d 04 41 3e 53 2a 8e 3e 34 bf 39 be
       0.27912682 0.18849345 0.27766666 -0.18139344
000110 1b a2 9a 3e bc 42 c3 be e4 e8 06 be fa fc 4c 3e
       0.30201802 -0.38136852 -0.13174778 0.20018378
000120 61 be ae bd 14 83 ef bd 03 c5 7e be 08 9e 4f bd
       -0.08532406 -0.11694923 -0.24879842 -0.05068782
000130 48 66 d1 3d cf b2 9a bd 3c e9 00 3e 9d be 9d 3d
       0.10224587 -0.07553636 0.12588972 0.07702372
000140 74 89 83 3d e0 32 c8 bd f4 21 b2 be 8a 31 56 3e
       0.064227015 -0.09775329 -0.3479153 0.20917335
000150 3d f9 2a be 37 eb 46 3e 98 95 84 be fa 37 b7 be
       -0.1669664 0.19425665 -0.2589538 -0.35784894
000160 bb 46 ca 3e 05 89 82 3e 19 5e b7 be ba a4 77 be
       0.39507088 0.25495163 -0.35813978 -0.24183932
000170 44 b0 ce be b0 c1 c9 be 59 fd 79 be 6f b3 b5 3e
       -0.40368855 -0.39405584 -0.2441305 0.3548846
000180 13 01 50 3e 9c 6a 96 be c2 9b 67 3d ec 11 25 3e
       0.2031291 -0.29378211 0.056545027 0.16120118
000190 b9 d1 61 3e bc 38 82 bb 48 01 b5 3e 95 74 0f be
       0.22052659 -0.0039740484 0.3535254 -0.14009316
0001a0 79 5d 27 3d cd 61 68 be b5 33 a2 3d 1e d3 bc 3e
       0.040860627 -0.22693558 0.079200186 0.3687982
0001b0 7e 49 9f 3e d3 52 9b 3e 2c 32 ae be fe d9 97 be
       0.31110758 0.30336627 -0.34022653 -0.29658502
0001c0 9b e4 9c 3e 6b b2 55 be da 07 1d 3e cc ba c9 be
       0.30643162 -0.20868842 0.15335026 -0.39400327
0001d0 10 d2 53 bd 38 3a bc 3c af fb 5e 3e 02 5c 9b be
       -0.051714003 0.02297698 0.21775697 -0.30343634
0001e0 75 b1 dc 3e 1e b5 c1 3d 98 58 6f be b1 6d d2 be
       0.4310414 0.094583735 -0.2337364 -0.41099313
0001f0 42 00 dc be 80 f9 c2 3e ab 02 93 3d b2 23 91 be
       -0.42968947 0.38080978 0.07178243 -0.28347546
000200 ba 4b c1 3d 9b bf ad be 48 ed 4e 3e 7e 5c 9f be
       0.09438272 -0.33935246 0.20207703 -0.31125253
000210 5e 64 38 bb d3 dc 2b 3e f2 bf de bd 31 7c 2a 3e
       -0.0028135995 0.16783457 -0.108764544 0.16648938
000220 43 bb 41 3d cf 9a 52 be c3 f5 99 be 44 23 37 be
       0.047297727 -0.20566867 -0.30070314 -0.17884547
000230 12 70 80 3e b2 c2 b4 3e a7 6d 82 be 09 ec 5d be
       0.25085503 0.3530479 -0.25474283 -0.21672072
000240 ff e0 0a be bd cb 8c be a0 80 8e be 8c 4b 5e 3e
       -0.13562392 -0.2749919 -0.27832508 0.21708506
000250 35 63 31 3e 6e a7 54 be 28 f0 a1 3e bd 36 17 3d
       0.17323 -0.20766994 0.31628537 0.036917437
000260 56 57 b0 3e 53 eb fb 3d 21 eb de 3d 6a 46 0a be
       0.34441632 0.12300744 0.10884691 -0.13503423
000270 84 a8 c6 3c f6 1f 91 be 4a f5 d8 3e 9e f5 e2 3d
       0.024250276 -0.28344697 0.4237464 0.11082004
000280 fd c4 93 3e 45 01 cc be e6 c4 a8 be 48 a9 7d 3e
       0.28861228 -0.3984472 -0.32962722 0.24771607
000290 6c c0 ab be 5f 01 de 3e 4a 92 81 3e 14 59 7f 3c
       -0.33545244 0.4336042 0.25306922 0.015585203
0002a0 91 3e 16 3c 04 b1 b3 3e 6b 25 19 3d 04 df c9 3e
       0.00917019 0.3509599 0.0373892 0.3942796
0002b0 6a 72 69 3e d5 0e 4b be 64 c9 5d 3e fe d1 2e be
       0.22797552 -0.19829877 0.21658856 -0.17072293
0002c0 b0 61 3d 3e 5b 02 c2 be 59 71 0b 3d 37 a5 c6 bd
       0.18494296 -0.37892422 0.034043644 -0.09699481
0002d0 b5 86 b2 be 7c eb 10 bd f1 09 a2 3e ac c4 ac be
       -0.34868398 -0.035380825 0.3164821 -0.337438
0002e0 ee da a1 3e 62 0e 66 3e 27 89 48 be e9 b3 c1 3e
       0.31612343 0.22466424 -0.1958357 0.37832573
0002f0 0d 9b a7 be e1 be ed 3d e5 cc 29 be f8 fe 4d ba
       -0.32735482 0.11608673 -0.16582067 -0.00078581227
000300 22 a4 2c 3d d0 04 c0 be 1f 27 fc bd ba b9 ef 3d
       0.042148717 -0.37503672 -0.12312149 0.117053464
000310 8a 5c d2 3e c7 ab 97 3d 57 dd 2d be 47 ef b7 3e
       0.41086227 0.07405811 -0.16978966 0.35924742
000320 af 42 6f be f0 13 6c be 53 9f a8 3c 24 0a a4 3e
       -0.23365282 -0.2305448 0.020583784 0.32038987
000330 74 f2 42 be ae 7e 5c 3e 47 c4 82 bd 04 ac bc 3e
       -0.19037801 0.215327 -0.06385093 0.36849988
000340 a1 d9 72 3e ea 21 53 3e 01 18 7b be 31 57 cf 3e
       0.23715831 0.20618406 -0.24520876 0.4049621
000350 7c c0 18 bd 7a 99 ac be 65 61 10 be df c6 d4 3e
       -0.037292942 -0.33710843 -0.14099653 0.41557977
000360 ec 17 78 3e 2d 26 ca be 08 f4 2b be b8 47 a1 be
       0.24227875 -0.3948225 -0.1679231 -0.3150003
000370 c6 8b 5c 3d 8d c0 b5 3e b0 03 6b bd 20 c1 b2 3e
       0.053844236 0.35498467 -0.057376564 0.34912968
000380 14 47 4c 3d a7 53 93 be a5 1f 89 be 02 80 ae 3e
       0.049872473 -0.2877476 -0.26781955 0.34082037
000390 6d e4 8d bd 4c 6e 73 3e ab 7a a5 be 70 cb 7f 3e
       -0.069283344 0.23772544 -0.3232015 0.24979949
0003a0 67 b9 18 3e ef 5f 8f 3e 13 ed 72 be 24 d8 bc bd
       0.14914475 0.2800288 -0.23723249 -0.09220913
0003b0 b4 b0 ed bd f7 15 52 3e 80 f9 21 bd 86 dd b3 3e
       -0.11605969 0.20516191 -0.039544582 0.35129946
0003c0 57 fa 4b 3d f2 d1 17 3d eb ca 39 be fb 93 12 bd
       0.04979929 0.037065454 -0.18143813 -0.035785656
0003d0 8e ac 9e 3e 1e 18 43 be 2e 92 c4 be 5b ef dc be
       0.30991024 -0.19052169 -0.38392776 -0.43151364
0003e0 5e 8e 27 be a0 fc fd 3d 3b c7 c0 3e f1 84 b0 bc
       -0.16362903 0.124017 0.37652 -0.021547766
0003f0 95 ee d5 3e 3b 4c 51 be 7e 36 bb 3e 8a b7 ec 3d
       0.41783586 -0.20439236 0.36565012 0.11558445

bn2.module.weight f4 [16]
000000 d5 d0 7e 3f fa 45 7d 3f 96 a8 7d 3f 5c b3 80 3f
       0.995374 0.989349 0.99085367 1.0054736
000010 83 e6 80 3f 8b 28 83 3f b4 c1 7f 3f 9a 22 82 3f
       1.0070347 1.0246748 0.9990494 1.016681
000020 bb 01 79 3f f9 85 81 3f ca 7b 7f 3f 14 7c 82 3f
       0.97268265 1.011901 0.9979826 1.0194116
000030 aa ec 7f 3f 25 ee 7c 3f 96 04 7f 3f 9f 43 81 3f
       0.99970496 0.9880088 0.9961637 1.0098761

bn2.module.bias f4 [16]
000000 c3 18 0a 3d fb d0 f3 bc 61 59 c3 bc 7c d6 44 bc
       0.03371502 -0.029762736 -0.02384633 -0.012014028
000010 7b 35 17 3c 72 44 cb 3c 23 17 80 bc cf 33 c2 3c
       0.009229059 0.02481291 -0.015636032 0.023706345
000020 ee 31 d9 bc ff 14 24 bd 08 71 96 3c 04 32 2c 3c
       -0.026513066 -0.040059086 0.018364444 0.0105099715
000030 6f 4f 0b bc 57 5c 5e bc ba fd 58 bc dc db ce 3c
       -0.008502825 -0.01357182 -0.013244087 0.025251321

bn2.module.running_mean f4 [16]
000000 c6 41 cb 3d c2 08 eb 3d 15 22 55 3d 36 f6 05 3e
       0.09924655 0.1147628 0.052034456 0.13082203
000010 2f 30 66 3d 31 50 69 be c7 de 25 3e 6c 87 fc bd
       0.056198295 -0.22784497 0.16198264 -0.12330517
000020 22 0c c7 bd 65 9b b6 3d 49 88 50 3e 7a c2 3e bd
       -0.09719111 0.08916358 0.20364489 -0.046572186
000030 7f 02 01 3e dc 62 b7 3d dd 35 da 3d 16 24 4b 3d
       0.12598608 0.08954403 0.10654805 0.04959496

bn2.module.running_var f4 [16]
000000 5f 3d cf 3d 4d 4c f4 3d 1b 18 5d 3c 0c 7d ad 3e
       0.101191275 0.11928616 0.013494517 0.33884466
000010 b0 ee be 3c 53 75 a8 3e c0 04 80 3c 5f 16 d4 3c
       0.023307174 0.3290201 0.015627265 0.025889574
000020 cb 78 32 3d 9e 16 e4 3b 6e f4 2b 3e bf 92 0a 3d
       0.04357223 0.006960704 0.16792461 0.033831354
000030 17 73 87 3d 91 41 5d 3d c7 3d 6c 3e 7e 63 c4 3e
       0.066137485 0.054017607 0.23070441 0.38357157

conv3.bias f4 [8]
000000 a5 73 65 36 8f c1 cb b7 c2 d6 45 b8 60 d3 70 b8
       3.4190973e-06 -2.4289619e-05 -4.716847e-05 -5.7417317e-05
000010 a6 b0 07 36 bf f6 1e 33 f0 89 f6 b6 53 79 93 38
       2.021939e-06 3.7011656e-08 -7.3474293e-06 7.0321046e-05

conv3.lin.weight f4 [8, 16]
000000 c7 76 1d bd 29 d5 9a bd 79 34 62 be 5c 7f c2 be
       -0.038443353 -0.07560188 -0.22090329 -0.37987792
000010 6d b2 81 3e ee 23 34 3c 75 21 6e 3d 01 73 8f be
       0.2533144 0.010994894 0.058137376 -0.2801743
000020 d2 c0 59 3e 5e 4e 48 be 68 a7 48 3e 97 4d 21 be
       0.21264961 -0.19561145 0.1959511 -0.15752254
000030 e6 94 e6 bd 1b c7 da 3e be 2a db be 21 e8 0d 3e
       -0.11258869 0.4273003 -0.42806047 0.13858081
000040 c4 2c 96 bd 64 c9 da 3d 55 01 cf 3e 73 d8 9f 3d
       -0.07332757 0.106829435 0.40430704 0.07804956
000050 1e a3 ec 3e ef dc 50 be ee 4d 10 be 19 c9 be bd
       0.462182 -0.2039678 -0.14092228 -0.093157
000060 0d bb 96 3e 0d d3 dc be 91 6c 0e 3d ae 96 bb 3e
       0.29439583 -0.4312977 0.034771506 0.36638397
000070 38 7d d6 be 03 6c a4 3e ed 2d 8c be 8a 14 c4 3d
       -0.4189241 0.32113656 -0.2737879 0.0957423
000080 9c a1 ed bd 54 1a c4 be 69 9e dc be fa dd 98 be
       -0.1160309 -0.38301337 -0.43089607 -0.29856855
000090 1a 12 fc 3e 6f b6 eb 3e 2c 37 10 be 5f e7 a2 3e
       0.4923256 0.46037623 -0.14083546 0.31817147
0000a0 92 ec 8b be 63 f3 a3 be 38 99 8e 3e 9a fc d0 3e
       -0.27328926 -0.32021627 0.27851272 0.4081772
0000b0 9e 52 aa 3e e3 5b 4b be 12 1a 97 3e e0 f3 91 be
       0.33266157 -0.19859271 0.29512078 -0.28506374
0000c0 ca 61 b3 3c 7b 21 da 3e a4 e1 a6 3c 37 bf f8 be
       0.021897215 0.4260367 0.020371266 -0.48583385
0000d0 62 99 8a be db d5 07 bd a9 d5 c7 3e c0 8b 03 3f
       -0.27070147 -0.033162933 0.39030197 0.51385117
0000e0 3d 67 c5 3e e8 b1 86 3e f6 e0 38 bd e6 53 d9 be
       0.38555327 0.26307607 -0.045136414 -0.42446822
0000f0 d7 3d d2 3d e7 1b 7f 3e 70 7a ef 3e e5 cc c4 be
       0.10265701 0.24912988 0.467731 -0.38437572
000100 a1 99 9a 3d 90 fa b4 3e 1c 3c 2c be 71 44 44 3c
       0.07548834 0.35347414 -0.16819805 0.011979208
000110 6e f0 fa be cf 97 a5 3e d1 59 a7 3e 70 ec 2e 3b
       -0.49011558 0.32342383 0.32685712 0.002669122
000120 41 46 01 3e 5b 0e c5 be a9 01 0d be 37 92 b1 3e
       0.12624456 -0.38487515 -0.13770165 0.34681866
000130 7b ee f6 bd 24 fb 51 3d b3 b8 c5 be 40 4b 14 3d
       -0.12057205 0.051264897 -0.38617477 0.036204576
000140 31 f8 bc 3d de ea f9 3e db 79 7e be 73 d0 c8 3e
       0.09227026 0.48812002 -0.24851172 0.39221534
000150 09 51 a8 be 47 60 8e be be 96 c8 3e 14 87 c0 be
       -0.32874325 -0.2780783 0.39177507 -0.37603056
000160 0c a3 d4 3e fe 2b ba be ef fa b9 3e 6d 9d 75 3e
       0.41530645 -0.36361688 0.3632426 0.23985834
000170 9e 34 28 be 73 1e bf 3c 3b db f6 3e 15 e9 81 be
       -0.16426322 0.023329949 0.48214135 -0.2537314
000180 6b 7f 12 be 3c 3e b4 3e b5 33 ca 3e 28 c1 5e 3e
       -0.14306419 0.3520373 0.39492574 0.21753371
000190 30 dd 7e 3e ff 5a 0d be ef a9 81 be 0e 8a d3 3e
       0.24889064 -0.13804244 -0.25324962 0.41316265
0001a0 9c 61 b6 bc a2 c8 bd be a8 e6 1b 3e fd 2f 8a 3e
       -0.02226334 -0.37067133 0.15224707 0.26989737
0001b0 b7 27 19 bd 72 fb f0 be 1e 4f 40 be 10 e4 00 bf
       -0.03739139 -0.47066838 -0.18780181 -0.50347996
0001c0 15 68 b4 be 5b 43 a3 3e 1e 56 13 3e e9 ae 1c 3e
       -0.35235658 0.31887326 0.1438832 0.15301098
0001d0 f8 f9 6f be b5 4a 97 be 9a bd 45 bd f4 99 01 bf
       -0.234352 -0.29549184 -0.04827652 -0.5062554
0001e0 49 9f 89 3e 47 d5 d5 be 63 af df be 6b 95 97 be
       0.26879337 -0.4176428 -0.43688497 -0.29606184
0001f0 be 54 94 3e 9f 7d 66 be 9d dd 54 3d 72 f6 9d bd
       0.28970903 -0.22508858 0.05196916 -0.07713021

bn3.module.weight f4 [8]
000000 3f b0 79 3f b2 ba 77 3f af ff 76 3f f6 a1 7c 3f
       0.97534555 0.9676925 0.9648389 0.9868463
000010 b6 e9 7c 3f a4 66 7b 3f de e6 75 3f 9c a3 77 3f
       0.98794115 0.9820349 0.960554 0.96734023

bn3.module.bias f4 [8]
000000 56 c9 c6 bc a5 6b 03 bd a2 16 13 bd c9 fa 63 bc
       -0.024265926 -0.03208508 -0.035910256 -0.013914772
000010 e4 f4 5b bc 33 8c 9a bc b3 07 23 bd 5a 4d 06 bd
       -0.013425086 -0.01886568 -0.039802264 -0.032788612

bn3.module.running_mean f4 [8]
000000 a6 52 0f be 69 54 42 3e a9 19 fb 3d 43 53 56 3e
       -0.13996372 0.18977512 0.12260754 0.209302
000010 e6 96 cb 3c 8a e0 4f 3e 1d ab cf 3c 23 ce d3 be
       0.024852227 0.20300499 0.025350148 -0.41368207

bn3.module.running_var f4 [8]
000000 74 bf 3b 3e 7e 12 91 3d 2c 97 ea 3c 34 ad 1d 3d
       0.18334752 0.07083605 0.028636537 0.038495257
000010 04 4c 71 3e 7c c5 12 3f 46 90 2b 3e 52 d7 ae 3d
       0.23564154 0.5733259 0.16754255 0.08537163

fc1.weight f4 [128, 8]
000000 96 31 7a 3e 51 56 d3 3b 81 c6 66 be 78 df 2b 3e
       0.24432978 0.0064494987 -0.2253666 0.16784465
000010 4d 88 39 3e f8 0e 32 3e 1d d7 b2 be 06 8a a9 3e
       0.18118401 0.17388523 -0.34929743 0.33113116
000020 f8 21 a7 3e ec 39 52 3c 3f fb ea bb e5 02 93 bd
       0.32643104 0.012831192 -0.007171064 -0.071782865
000030 35 62 91 be b6 12 4d be 9c 03 20 be df 78 84 3e
       -0.2839524 -0.20026669 -0.15626377 0.25873467
000040 cc 3f 3d be cf 4b b7 bd 2d 08 66 be 0a 70 86 bd
       -0.18481368 -0.08950006 -0.22464056 -0.065643385
000050 97 c5 32 3c 75 2e 6f 3d c4 e9 34 3d 80 1a 01 be
       0.010911367 0.058393914 0.04416825 -0.12607765
000060 bb 45 55 3d b8 b8 31 3d 78 cb af be d5 3e 3c be
       0.052068453 0.043389052 -0.34334922 -0.18383344
000070 ca 3b 9c be ee b1 85 3e e9 f4 8c be e8 cd 47 3d
       -0.30514365 0.26112312 -0.27530602 0.048780352
000080 31 b3 22 bd f8 eb 36 3e 34 ac 8c 3e 56 a4 c4 bd
       -0.03972167 0.17863452 0.2747513 -0.09601657
000090 13 25 99 3d 66 73 e5 3d b4 6a ed bd 5f 01 65 be
       0.074777745 0.11203651 -0.11592618 -0.22363804
0000a0 8d 66 bb 3d 7a 90 7b 3e 61 11 9c 3b 4b b0 75 be
       0.091504194 0.24566832 0.004762814 -0.23993032
0000b0 20 1d 66 3e ea ad 89 3e 70 b9 80 3d 82 74 89 3e
       0.22472048 0.26890498 0.062853694 0.268467
0000c0 d1 45 ad be 58 25 83 bb 20 a5 a9 be c3 d9 42 bd
       -0.33842328 -0.0040022545 -0.33133793 -0.047570955
0000d0 e0 f7 8b bd b3 f7 2e be c2 a8 73 3e ae 7c 97 bc
       -0.06834388 -0.17086677 0.23794845 -0.01849207
0000e0 23 a4 40 3e 89 39 99 3d 94 31 6d 3e aa 30 37 be
       0.18812613 0.07481677 0.23163444 -0.17889658
0000f0 47 e4 75 bd f9 52 90 be 42 38 0c be 35 bc 26 bc
       -0.060032155 -0.28188303 -0.13693336 -0.010176708
000100 90 28 98 3e dc fa 79 be 5a b6 e5 bd d7 10 5d be
       0.29718447 -0.24412102 -0.112164214 -0.21588455
000110 19 27 80 3e c3 20 8a 3e 05 29 a2 bd fd ad 2c be
       0.2502983 0.2697812 -0.0791798 -0.16863246
000120 43 f1 7f bd 39 87 76 bc ab 74 8d 3d ce 31 98 be
       -0.062485944 -0.015046888 0.06907018 -0.29725498
000130 50 7b 76 3e 11 f9 03 3e cb 02 c7 bb e5 02 9e be
       0.24070477 0.1288798 -0.006073331 -0.30861583
000140 d0 e4 01 be e0 ab 52 be 51 2c 7d 3d 68 d8 29 3e
       -0.12684941 -0.20573378 0.06180984 0.16586459
000150 44 7b 69 3e 01 13 86 3c 8f eb 85 be 0a db a1 bc
       0.22800928 0.016366484 -0.2615628 -0.019757766
000160 f3 f9 75 be 0c fe 66 3e 90 ba af be 16 d7 05 3e
       -0.2402113 0.22557849 -0.34322023 0.1307033
000170 96 c0 51 3d ef 0f df bd 13 02 88 3d ee c5 a0 3e
       0.051209055 -0.10891711 0.066410206 0.31401008
000180 d3 6d 6a 3e 98 6a 88 3e da 72 02 3e fd af 90 be
       0.22893457 0.26643825 0.12739125 -0.28259268
000190 a0 ec 0d 3d 87 7d d1 bd 0e eb 44 3d 63 5d a6 3e
       0.03464949 -0.102290206 0.048075728 0.32493123
0001a0 ab 81 f5 bd 95 5d 5d bd 8e 30 52 be 05 e9 04 be
       -0.11987623 -0.054044325 -0.20526335 -0.12979515
0001b0 7a 8e 51 bd 0a cb 72 3e 4f 6f bc 3d 4a b9 06 bd
       -0.051161267 0.23710266 0.09200918 -0.03289155
0001c0 8a 6e b1 be fd bf 55 be c9 94 9a be fb b5 46 be
       -0.34654647 -0.20874019 -0.3019164 -0.19405358
0001d0 e8 37 18 3e d4 3f 9a 3e 1b ac e1 3d 72 40 4f bd
       0.14865077 0.30126822 0.11019155 -0.05059857
0001e0 c0 f6 01 3e 28 32 58 be d5 26 87 3d 88 3a 32 3c
       0.12691784 -0.21112883 0.065992035 0.010878213
0001f0 47 02 ba 3d a8 6f 0e 3e 8d 06 de 3c 1d bb 55 bc
       0.090824656 0.13909781 0.027102733 -0.0130451
000200 49 1c 6a 3d 7c a8 3a 3e 78 0a 98 3e 8b c6 06 be
       0.05715588 0.18228334 0.29695487 -0.13161676
000210 6a 7a 95 3e 80 30 55 bd 6f 71 55 3e 1f ef c5 3d
       0.29194957 -0.052048206 0.20844053 0.09664749
000220 38 69 c3 3d b8 6e a6 bd e3 06 b1 3e 72 fb 6e be
       0.09541553 -0.08126587 0.34575567 -0.23338106
000230 b3 35 85 be 6d 9e b9 bc 23 8e 43 be 69 4b 89 3e
       -0.26017532 -0.022658551 -0.1909719 0.26815346
000240 d8 5e fc bd 3c ae 17 be 24 cc 59 3d ca c9 5e bd
       -0.123227775 -0.14812559 0.0531732 -0.05439166
000250 8d 2e 54 be d7 22 b6 3d 18 92 b2 3d ca 1a f4 3d
       -0.20720883 0.08893364 0.087192714 0.11919172
000260 12 bc 1f 3e 88 60 06 3d b5 5e ac bd 6a e0 ec bd
       0.15599087 0.032806903 -0.084165014 -0.11566241
000270 b3 df bf 3d 66 e1 2f be 4d ba d7 bd c0 24 99 3e
       0.09368839 -0.17175826 -0.10533581 0.2991085
000280 55 fc a3 be 92 25 54 3e db 4d 39 be c0 84 65 be
       -0.32028452 0.20717457 -0.18096106 -0.22413921
000290 e6 c1 0f be ae d1 fb 3d 4e 83 13 be 17 48 4b 3d
       -0.1403881 0.122958526 -0.14405558 0.049629297
0002a0 33 75 42 be a1 d8 46 be 05 4e 9d be 34 2f 59 3e
       -0.1899002 -0.19418575 -0.30723587 0.21209413
0002b0 6a 82 b2 be 5d ef cf 3d b6 30 ae be a9 0a a8 be
       -0.34865123 0.10153077 -0.34021538 -0.32820633
0002c0 b1 0a 37 3e fe 60 94 be 92 93 9e 3e 33 d0 2d be
       0.17875172 -0.2898025 0.30971962 -0.16973953
0002d0 dd 33 97 3e d9 31 47 be 5b c1 87 3e ed c7 13 be
       0.29531756 -0.19452609 0.26514706 -0.14431734
0002e0 78 3b 43 be c7 e5 a3 be e3 50 b7 bd 19 1d 8c 3e
       -0.19065654 -0.32011244 -0.08950975 0.2736595
0002f0 6f 23 79 3e fa a3 8b bd d7 2d 25 3d 32 fb 02 3e
       0.24329923 -0.068183854 0.04032692 0.12791136
000300 cc 7b 87 be 99 71 07 be 05 bb 14 3e c9 1e 77 3e
       -0.26461637 -0.13226928 0.14524467 0.24132837
000310 76 85 bc 3d 49 d1 76 3c 51 e5 94 be 1e c2 5f be
       0.09205143 0.015064546 -0.29081205 -0.21851394
000320 18 3c 4a be 17 93 81 3e f4 83 3f bd 50 98 1e 3e
       -0.19749486 0.25307533 -0.0467567 0.1548779
000330 98 b7 86 be a9 ce 5e be d8 70 8a bb 7d 1a aa 3e
       -0.26311946 -0.21758522 -0.004224878 0.33223334
000340 29 78 60 be dd 80 79 be 12 01 6e be ea e8 a0 3e
       -0.21920837 -0.24365564 -0.23242596 0.314277
000350 6c d4 61 bd 04 0d 57 3e 3b 51 9b bd 10 34 58 3e
       -0.055134222 0.21001059 -0.07583853 0.2111361
000360 f6 62 90 3e 44 64 2b 3d 61 31 61 3e 20 da 7f 3e
       0.282005 0.041843668 0.21991493 0.24985552
000370 e9 ec 94 3e 3a f2 63 3e 21 e8 5f be e2 75 01 3e
       0.29086998 0.22260371 -0.21865894 0.12642625
000380 2d 97 2d 3e fe bc 8b 3d 52 b1 21 be 38 16 aa be
       0.169522 0.06823157 -0.15790299 -0.33220077
000390 3f 56 ad be 84 10 2b bd 39 e6 ea bd c6 23 2c be
       -0.33854863 -0.041763797 -0.11469693 -0.16810521
0003a0 7d a4 ab be 8e 4d ef bc e1 c2 b9 be e2 76 23 3e
       -0.33523932 -0.029211786 -0.36281493 0.15963319
0003b0 40 d1 8c 3d c9 fe 6f 3e 8c ee 42 3e 1e 6c 58 3d
       0.06875849 0.23437037 0.19036311 0.052837484
0003c0 64 e1 5c 3e 94 8f 2a bc ff d6 6a 3e f2 33 4c 3e
       0.21570355 -0.010410208 0.22933577 0.1994169
0003d0 47 a3 04 be d4 5d 10 be 3b d3 09 be bc 9f 4a be
       -0.1295291 -0.14098293 -0.13459484 -0.19787496
0003e0 a0 e2 5a be 02 49 62 be 6e 9d 9e 3e cc 3e 5a 3e
       -0.21375513 -0.22098163 0.30979484 0.21313018
0003f0 ca 3c dc 3d 0f 0e 03 3e 1f 72 7f be 98 a4 4e be
       0.10753782 0.12798332 -0.24945877 -0.20179975

fc1.bias f4 [128]
000000 08 48 c1 3b 3e 61 22 be 76 ff 89 3e 8c 56 de 3d
       0.0058984794 -0.15857407 0.26952714 0.10856351
000010 e5 4e 58 3e db 88 fe bc 59 d8 b9 bd 6a ef 70 be
       0.21123846 -0.031071117 -0.09074468 -0.23528829
000020 ee 34 b0 be 33 55 4c be 1f 4a 6f be 9d f0 7f 3e
       -0.34415382 -0.19954376 -0.23368119 0.2499413
000030 c8 6b 86 3c 96 24 b2 3e 28 d7 98 be 06 d9 7d bd
       0.016408816 0.34793538 -0.2985165 -0.061974548
000040 a2 04 e6 bc e9 45 03 3e d4 53 6c be 84 24 6c 3e
       -0.028078381 0.12819637 -0.23078853 0.23060805
000050 b9 11 fb bd 91 22 6d be 28 b5 23 3e cd ed 5d be
       -0.1225924 -0.23157717 0.15987074 -0.21672745
000060 b1 90 88 be a0 fc 6b bc bd b2 6a be b9 f3 7b 3e
       -0.2667289 -0.014403492 -0.22919746 0.24604692
000070 e8 99 8a 3d d5 4c 68 be 88 32 db 3d 26 12 9c 3c
       0.067676365 -0.22685559 0.107029974 0.019051623
000080 23 2e d2 3d bf 49 2e 3e cf 7b 95 be 2f 03 24 3e
       0.10262706 0.1702032 -0.2919602 0.1601684
000090 31 c9 9b 3e a1 44 36 3d db 50 a2 be 88 8a 82 3e
       0.30426934 0.044499043 -0.31702313 0.25496316
0000a0 3e 88 bd 3d 47 62 3b be ac fa 9a be d8 55 1e be
       0.09254502 -0.18299209 -0.30269372 -0.15462434
0000b0 d0 5d 0f 3e 9f 2d e9 3d a7 81 84 3e 7f 2a 8b be
       0.1400063 0.11385655 0.25880167 -0.2718086
0000c0 1a fd 0d 3e 7a e1 92 3e 72 56 cf 3d d0 01 db 3d
       0.13866082 0.2868765 0.1012391 0.10693705
0000d0 46 fb 46 3e bd 6f 30 be 82 bd 18 bc 8c bc 14 3e
       0.1943179 -0.17230125 -0.009322526 0.1452505
0000e0 01 43 3c 3e 44 e6 0d 3e 8f 12 ac be d4 c5 5b 3e
       0.18384935 0.1385737 -0.3360791 0.21462184
0000f0 88 f0 11 be ab 28 90 bd 12 97 39 be 22 7f 91 3d
       -0.14251912 -0.07039007 -0.18124035 0.07104327
000100 2d b7 30 be 2a cb 24 3e f6 75 a2 be 5c 7d 95 3d
       -0.17257376 0.16093126 -0.31730622 0.07299301
000110 00 7b 18 3e ef fe a1 3e 94 d8 9f 3e 99 e6 83 3e
       0.14890671 0.3163981 0.31219923 0.2576187
000120 c6 aa 2c be 36 96 86 be 18 11 67 3e ed 51 80 be
       -0.1686202 -0.26286477 0.22565114 -0.25062504
000130 81 14 71 bc 25 62 0e 3e 3a 6a 03 3e f9 21 04 3e
       -0.014714361 0.13904627 0.12833491 0.12903585
000140 f9 38 18 be 3c 7e f7 3d 7c 3d aa 3e 7e f4 13 be
       -0.14865483 0.12084624 0.33250034 -0.14448735
000150 79 67 8f 3d 10 40 b7 bd 6b 1d eb 3c 39 28 a6 be
       0.07002158 -0.08947766 0.028700551 -0.32452562
000160 3b 4f fa bd 29 57 af 3e 2b bc 91 3e 2b c6 a0 bd
       -0.12222143 0.34246185 0.28463873 -0.078502975
000170 a3 9d 96 3e 3e 9c a8 bb ff 97 80 3e 1a 85 8b 3d
       0.29417142 -0.0051455786 0.25115964 0.068124965
000180 9e 8b 53 3b 41 f1 f6 bd 4a 1e 4a be 91 88 5e 3e
       0.0032279263 -0.12057734 -0.19738117 0.21731783
000190 d4 90 84 be b4 bb 88 3d b9 07 6a 3d 4e d7 30 3d
       -0.25891745 0.066764265 0.05713627 0.04317408
0001a0 f8 fe 39 3e ad 6a 32 3e d9 dd 31 3e cd 03 00 3e
       0.18163669 0.17423506 0.17369784 0.1250145
0001b0 2a 9b 41 3e 5f d9 80 3e 80 f7 ba bd 12 ed 0d 3e
       0.18906847 0.2516584 -0.09129238 0.13859966
0001c0 06 a3 96 be 6a b1 21 3e 0f 4e 3b be f7 2c ae bd
       -0.29421252 0.15790334 -0.18291496 -0.0850467
0001d0 59 6e a8 be 51 82 92 3e c9 bf 90 bd a7 98 4e 3e
       -0.3289669 0.2861505 -0.0706783 0.2017542
0001e0 a0 0b 9d 3e 25 77 6d 3e 1b 71 47 3e c1 36 04 3d
       0.30672932 0.23189981 0.1947674 0.03227878
0001f0 90 c3 93 3d c8 a8 e7 ba 6c d0 a7 3e 6e 9a a3 bd
       0.07215035 -0.0017674202 0.327762 -0.079884395

fc2.weight f4 [64, 128]
000000 d7 d1 18 bd 5b 85 95 3d 99 9e ad 3d 96 83 8f 3d
       -0.037309494 0.07300826 0.08477516 0.0700752
000010 4e e9 2e bd 5e 20 57 bd 5b 5d 8f bc 2e 99 be 3d
       -0.042702965 -0.052521102 -0.01750057 0.093065605
000020 08 d1 74 bd f9 b3 09 3d ed ae b9 3c 7d 7a a2 bd
       -0.05976966 0.0336189 0.022666419 -0.07933519
000030 be 95 14 bd 05 07 33 bc 98 5a b6 3d 6e 73 3c 3d
       -0.036275618 -0.010926967 0.08903998 0.04600852
000040 1b 4a 78 3d b1 38 45 3d 45 50 ae 3d 5a ea 55 bd
       0.060617547 0.04814977 0.08511404 -0.05222545
000050 32 4b 2c 3c 9f ce 1d 3d 36 83 98 3d e5 66 5c bd
       0.010515975 0.038527127 0.074469015 -0.053809065
000060 05 0d 86 bb 28 c6 53 3d 42 41 b4 3b 78 4b 93 bc
       -0.0040909075 0.05170265 0.0055009434 -0.017980322
000070 aa cd 22 bd 34 ef 3a bc bc ee ab bd 10 b9 b6 3d
       -0.039746918 -0.0114095695 -0.08395144 0.089220166
000080 cf 6a 60 bc 2f 79 3f 3d 37 c8 14 bd 0c 23 81 3d
       -0.01369734 0.04674643 -0.036323752 0.06305513
000090 3d 12 a3 3d 1b a7 ac 3c 2e b3 51 bc 31 ff 06 3d
       0.07962463 0.021075776 -0.012799067 0.032958213
0000a0 ef 6d 4c 3d 77 c2 85 3d 89 2c 3d 3d 72 8b 20 3c
       0.04990953 0.06531232 0.04618505 0.009798871
0000b0 b9 c1 28 bd dd 86 42 bd 38 e9 20 bd 46 8f 14 bd
       -0.041200373 -0.047491897 -0.039284915 -0.03626945
0000c0 e9 86 e9 3c b4 c5 0d bd 6d b4 40 3c 01 31 32 3d
       0.028506713 -0.034612373 0.011761767 0.043503765
0000d0 24 14 9c bc c5 ec 1e 3d ae 4b f4 3b b0 9f 2b 3b
       -0.019052573 0.03880002 0.007455311 0.002618771
0000e0 47 ea 0b bd 87 50 a7 bd 0a a7 14 3d 01 73 7e 3d
       -0.03415897 -0.08169656 0.036292113 0.062121395
0000f0 1b 38 13 3d c4 b9 a3 3c 89 85 ac bb 5d 51 a1 3b
       0.03594218 0.01998604 -0.005264942 0.0049230293
000100 96 5b 61 bd 38 b8 43 3d 65 14 c1 3d 28 70 b5 bd
       -0.055018984 0.047783107 0.09427718 -0.08859283
000110 c1 8d 81 bd 69 05 12 3d ee 80 ab 3c b6 03 75 bd
       -0.063258655 0.03564969 0.020935502 -0.059817992
000120 40 1e 04 3d 22 1f ea 3c 6f e7 43 3d 8b a1 be 3b
       0.03225541 0.028579298 0.047828134 0.0058175973
000130 7a c3 1f bb 6b a7 19 bd 8e d1 8a bd e1 30 a5 bd
       -0.0024377988 -0.037513178 -0.06778251 -0.080659635
000140 91 c4 8e 3d d3 fe 2b bd 26 f6 5d 3d 2d 77 b2 3d
       0.06971086 -0.041991066 0.054189824 0.08714137
000150 f6 bc 89 3d 16 ba 96 3d 23 52 57 3d 2c a5 52 3d
       0.067254946 0.07359712 0.052568566 0.05142705
000160 0f fe 2b bd b4 13 37 3c db 71 8f bd 21 5e 68 bc
       -0.041990336 0.011174131 -0.07004138 -0.014182598
000170 7f a6 db bc 88 ed 48 3c 80 d5 7e bd e3 7d 0e 3c
       -0.02681279 0.012263663 -0.06221533 0.008697006
000180 3d e1 7a bd aa 8e d2 3c 56 aa 2b 3b ea 83 52 3a
       -0.06124996 0.025702793 0.0026194057 0.0008030521
000190 26 ac a9 3c 67 fd 2f ba 63 7b 99 bc 01 06 28 bd
       0.02071197 -0.000671348 -0.018735593 -0.04102135
0001a0 c8 0f 27 3a c4 0c fa 3c 41 a6 9d bc 35 09 7d 3d
       0.0006372896 0.030523665 -0.019244315 0.06177636
0001b0 99 53 4e 3c 45 a2 9f 3d b9 43 53 bd 8f 49 8d bd
       0.012593173 0.07794622 -0.051578257 -0.06898796
0001c0 78 cf cc 3c f7 b7 d8 3c 10 75 c1 3c c4 81 13 bd
       0.025001273 0.026454909 0.02361539 -0.036012426
0001d0 47 d3 0a 3d 34 55 8f bd 8f c5 f2 3c 4c 1e 0c bd
       0.033892896 -0.06998673 0.029635219 -0.03420858
0001e0 bb 0f 9c 3d 7a 11 f0 bc 03 6b 8a bd 7f 32 9b bc
       0.07620188 -0.029305208 -0.06758692 -0.018944977
0001f0 38 f8 81 3d 75 fa 8d 3d f1 00 d5 bb b1 50 8f bd
       0.06346172 0.069325365 -0.0065003564 -0.069978125
000200 02 4e 7c bd 0d a7 22 bd 2a 08 e6 3c ef 72 ff bc
       -0.06159783 -0.039710093 0.028080065 -0.031182734
000210 84 9a b9 bd 1e 02 8a bc ba 2c 9d 3d 63 c0 7e 3d
       -0.09062675 -0.016846713 0.076745465 0.062195193
000220 72 26 02 bb f6 f4 24 3c f0 88 d1 3c 69 2c 2f 3d
       -0.001985934 0.010068169 0.025577992 0.042766962
000230 19 07 5c bd ea 45 bb 3c 02 73 9a 3c 9c e5 89 3d
       -0.053717706 0.022860486 0.018853668 0.06733248
000240 b3 79 64 bd 6d 89 93 bd a7 d7 9e 3c 1f 97 83 3d
       -0.055780124 -0.07203946 0.01938994 0.064253084
000250 9b ad 38 bd 45 a8 58 3d 5c 78 8e 3c ca 15 b0 3d
       -0.045087438 0.05289485 0.017391376 0.08597906
000260 32 8b 8e bd c9 af 21 3c 2d 48 09 bd 3b 66 41 bd
       -0.06960143 0.009868571 -0.033516098 -0.047216635
000270 59 f3 33 bc df c8 18 3d 26 1e ae bd 83 57 6a bd
       -0.010983312 0.03730094 -0.08501844 -0.057212364
000280 55 47 dd bc f2 94 3d bd 50 fa 82 bc cd 3c 71 bd
       -0.027011553 -0.046284623 -0.015988499 -0.058895875
000290 17 8e 0a 3d bf cf 4a 3d 82 af 9e 3d d3 54 88 3d
       0.033826914 0.04951453 0.07748319 0.06656804
0002a0 b3 04 55 bd 84 64 bd 3c ea f9 6e bd 0a e0 03 bd
       -0.052006435 0.023119219 -0.058343805 -0.032196082
0002b0 a0 b5 5b 3b 7d 47 c9 3d b7 04 ac 3d 8f 2b a0 bc
       0.0033525005 0.098280884 0.08399337 -0.01955202
0002c0 0f 7d 41 bc 91 19 58 bc 27 7b 36 bd 65 e6 5b 3d
       -0.011809601 -0.013189689 -0.04455104 0.05368652
0002d0 c9 5d 4c 3d 4f fd 82 bc a1 5b 34 bc 27 0f 7d 3d
       0.049894128 -0.015989928 -0.011008174 0.06178203
0002e0 ac a7 14 bd 94 8c 5d bc 3d 08 b0 bd 37 90 8b bd
       -0.036292717 -0.013522286 -0.08595321 -0.06814616
0002f0 1a 6e 05 3d fc 76 c8 bc c0 1b 1e 3d 0a 8c 70 bb
       0.032575704 -0.024470799 0.038600683 -0.0036704564
000300 57 da fa bc 78 50 a8 bd 5a 0b c3 bc 04 5a b8 bd
       -0.03062169 -0.08218473 -0.023809124 -0.09001544
000310 c7 1c b4 3d 5c 02 16 bd bd 8f 29 3d 0f 1a 85 3d
       0.08794551 -0.036623344 0.041396845 0.06499111
000320 f8 1f 37 bd 4a 9d 3e 3d 24 98 b1 3c 48 4d 65 3d
       -0.044708222 0.04653672 0.021678992 0.055981904
000330 3a c0 8e 3d 68 67 39 bd ae 3c 6f 3d 98 d3 a4 3d
       0.06970258 -0.04526463 0.058407478 0.08048171
000340 1b 8a 28 3d 70 d0 bf bd 16 e6 e2 3c f3 b4 34 bd
       0.041147333 -0.09365928 0.027697604 -0.04411788
000350 14 f9 4b bd 72 b7 ad 3d ea 37 cb bb 8a 84 bd 3c
       -0.049798086 0.08482255 -0.006201734 0.023134489
000360 0f fa ab 3c a3 a0 e7 bc 6f 47 72 3d de 91 64 3c
       0.02099326 -0.02827484 0.059150156 0.013950793
000370 22 ff f8 3b ea d5 bb 3d 4d 0b 92 3d d2 e9 79 3d
       0.0075987736 0.0917166 0.07131062 0.061014004
000380 b5 a6 a7 bd 54 11 8c 3d f4 02 67 bd c1 d8 9d 3d
       -0.08186094 0.068392426 -0.0563993 0.07707358
000390 40 b5 f5 3c 98 e9 97 bd 38 53 af bd c2 57 92 bc
       0.029993653 -0.07417601 -0.085607946 -0.017864112
0003a0 07 0c d5 bc 90 b7 88 bd 1f 72 35 3d 91 a2 ac bd
       -0.026006712 -0.06675637 0.044298287 -0.084294446
0003b0 3d 86 cb bc fa d7 7d 3d 21 66 5a 3d aa d4 a5 3c
       -0.024844283 0.06197355 0.053320054 0.020243008
0003c0 53 5f 6b 3d 23 8f a0 bb 70 3c c7 3d ee 2d a4 3c
       0.057463955 -0.0048998757 0.097283244 0.020041432
0003d0 a2 9b 53 bd a8 08 5d 3d ad bb f1 3b 43 a6 2b 3d
       -0.051662095 0.053963333 0.007377109 0.041906606
0003e0 aa fe 74 3d d8 18 54 3d 48 84 c8 bc 36 7d ba 3d
       0.05981318 0.051781505 -0.02447714 0.09105913
0003f0 0c 53 37 3d 2c 64 29 3a e7 79 41 3d 6c 8b 24 bd
       0.044756934 0.0006461765 0.047235396 -0.040172026

fc2.bias f4 [64]
000000 d3 ca 9b 3c 23 d1 7e 3d 4d e5 a8 3d 7c 59 41 bd
       0.019017613 0.062211167 0.08246861 -0.04720448
000010 16 7c 39 bd 1d 29 3d 3d 07 2b 8f ba 91 ea 98 3b
       -0.045284353 0.046181787 -0.0010922857 0.0046666344
000020 4d 82 c1 bd a7 38 05 3b 1d e6 0a bd 7d 2a bf 3a
       -0.09448681 0.0020327957 -0.03391086 0.0014584806
000030 72 bf d9 3c 91 69 23 bd b5 48 bb 3c df 55 33 3d
       0.026580546 -0.039895598 0.022861818 0.043783065
000040 68 e6 4b 3d 21 24 be 3c f3 d0 94 bd fa 51 14 bd
       0.04978028 0.023210587 -0.072664164 -0.03621099
000050 f8 e3 2a 3b e1 83 26 3d 1f db 8f 3d 9f 9a 9d 3d
       0.0026075821 0.040653113 0.07024216 0.07695507
000060 2c f6 18 3d d8 8d 02 bc d0 95 89 3b 51 a9 5a 3d
       0.037344143 -0.0079683885 0.0041987672 0.05338413
000070 c4 15 49 3d 17 c1 b5 3c b1 07 3c bc 54 f3 53 bd
       0.049093023 0.022186799 -0.011476443 -0.051745728
000080 1c af 89 3d 03 ca 00 be 24 f0 b6 bd 71 71 49 3c
       0.067228526 -0.12577061 -0.08932522 0.012295113
000090 26 a2 6d bc bb 5c 39 3d 40 5c 8f 3d 3a f0 90 3d
       -0.014503991 0.04525445 0.07000017 0.070770696
0000a0 ba a4 d1 3d e2 fa 29 bd 59 2a d5 bc 98 00 0f bd
       0.10236497 -0.041499026 -0.02602117 -0.034912676
0000b0 4e cf 02 3d 9d 1e ca bc 3a dc c2 3b 1c ce 0a bd
       0.031935982 -0.0246728 0.005946663 -0.033887967
0000c0 a4 b2 e6 bc 05 ef 84 3d c4 ff aa 3c 5e 98 b9 3d
       -0.028161354 0.06490902 0.020873912 0.09062265
0000d0 c4 aa 90 3c 90 66 58 bc 57 22 f2 bd 53 41 85 bd
       0.017659552 -0.013208047 -0.11822956 -0.065066
0000e0 0c 4c aa bd 06 32 ea bd 85 14 09 3d 15 ce 15 3d
       -0.08315286 -0.114353225 0.033466835 0.03657349
0000f0 8d 37 b8 3c 50 77 a1 3d 4c ec 99 bd 54 20 79 3d
       0.022487426 0.07884085 -0.07515773 0.060821846

fc3.weight f4 [32, 64]
000000 82 fc 85 bd 29 29 1c 3d 1d a9 e7 3d f6 bb 24 bd
       -0.06542303 0.03812519 0.11311553 -0.040218316
000010 70 19 ad 3c d0 a8 07 3d 2d 8b fa 3d 65 a6 64 bd
       0.021130294 0.033119977 0.12233577 -0.05582275
000020 46 00 0f 3d ea 91 db 3d 24 ae 6f bc 60 b8 98 bd
       0.03491237 0.1072119 -0.014628921 -0.07457042
000030 85 cc d7 bb ea d4 4a bd 76 34 40 bd f5 54 2e bd
       -0.00658566 -0.049519457 -0.04692503 -0.04256149
000040 8e 22 ec 3b bb 3a ec bc 87 f8 df bd 84 39 4e 3c
       0.0072062677 -0.028836599 -0.10936075 0.012586955
000050 d1 aa dc bd 94 8c bd 3d ee 77 0b bd 42 a4 35 3d
       -0.10774768 0.09255329 -0.03404992 0.0443461
000060 d6 89 f3 bc 04 97 c2 bd 6d e3 cf 3d d9 7f b7 bd
       -0.029728811 -0.0950146 0.101508 -0.08959932
000070 41 10 02 bd 62 05 cf bc 9c 78 a1 bd 0d ea fd 3d
       -0.031753782 -0.025271121 -0.078843325 0.12398157
000080 02 95 0d 3d 66 5a c3 bd 88 5e dc 3b 52 b2 86 bd
       0.034565933 -0.095387265 0.006725136 -0.06576981
000090 9e 20 a4 bd 16 9f 39 3d 58 bc a4 bd 1c e8 9e 3b
       -0.08014034 0.04531773 -0.08043736 0.004849447
0000a0 13 80 c3 bc c5 77 c9 bd 78 e6 41 3d ca 5c 3c bd
       -0.023864781 -0.09837297 0.047338933 -0.045986928
0000b0 91 63 42 3d d7 b3 81 bd b2 5a 91 3c a2 87 b8 3d
       0.047458235 -0.0633313 0.017743442 0.09010245
0000c0 a1 35 d4 3d 62 5c a8 b9 e2 28 c2 bd d0 41 b6 bd
       0.103617914 -0.00032112288 -0.09480454 -0.088992715
0000d0 5b 49 af 3d fa b7 b9 bd b5 fa f8 bd 4b e1 95 bc
       0.08558913 -0.09068294 -0.121571936 -0.018295905
0000e0 01 a0 f1 3d f1 71 1d bd fa b8 a0 3d 3a 80 6d 3d
       0.117980964 -0.03843874 0.078477815 0.057983615
0000f0 b4 c9 82 bd fc 78 c4 3d c8 b6 f1 3d 5e ac 2f bd
       -0.06386128 0.095933884 0.11802441 -0.04288899
000100 41 41 69 bd bf e4 cb 3c 23 b1 53 bd 12 80 45 3d
       -0.056946997 0.024889348 -0.051682603 0.04821784
000110 94 9b ba 3d cc ad 6c 3d 40 32 95 bd be eb cd 3d
       0.091117054 0.057782933 -0.07284975 0.1005473
000120 48 7f 76 3d fa bb 5f 3d 05 d9 fc 3d 43 41 f5 3d
       0.06017998 0.054622628 0.12346081 0.11975338
000130 9a 93 6c bd e2 71 b2 bd 09 6d 17 bd eb 12 51 3d
       -0.05775795 -0.08713128 -0.03696922 0.051043432
000140 2a 94 38 3c f2 ef d1 bd aa 7f ca bd 34 f7 02 bd
       0.011265794 -0.10250844 -0.09887631 -0.031974033
000150 e8 d1 97 bd 79 8b 01 3d f3 15 90 bd 77 53 d4 3d
       -0.07413083 0.031627152 -0.070354365 0.10367482
000160 d0 c3 9f 3c a1 6c 00 3e 2d 21 a6 bc 5f 63 ee 3d
       0.01950255 0.12541439 -0.020279491 0.11640047
000170 34 d5 f7 3a 36 a7 80 3c 01 72 3b bd 6a a7 a0 bd
       0.0018908144 0.015704732 -0.04576302 -0.07844432
000180 f3 45 f1 bd 23 22 ae 3a 29 55 05 3c f0 6c bb bd
       -0.1178092 0.001328532 0.00813798 -0.091516376
000190 5e a6 b3 bd 5c 6d 32 bc dd 55 b4 3c 72 16 aa bd
       -0.087719664 -0.010890331 0.022013599 -0.08305062
0001a0 1f 67 ee 3c a2 eb df 3d 9e d3 b9 bd 9b 43 f5 bb
       0.029101906 0.10933615 -0.09073566 -0.007484866
0001b0 d9 a4 1b 3c bd c6 db 3d fa 1d 01 3a 1a a0 9f 3d
       0.009499752 0.10731266 0.00049254263 0.07794209
0001c0 a5 c4 aa 38 4f 7a cf 3b 27 8f 9c bb b7 7d a8 3d
       8.1428596e-05 0.006331719 -0.0047778073 0.08227103
0001d0 51 fc 14 3c 30 30 12 3d 92 1a ae 3d e7 9f cf bb
       0.00909336 0.035690486 0.08501162 -0.0063362005
0001e0 ca f6 f5 3d d1 8d 75 3c 02 5c e0 3c af 46 da bd
       0.12009962 0.014987425 0.027387623 -0.10658013
0001f0 99 d6 9c 3d 68 95 fc 3b 36 32 3f 3d bf 97 04 bd
       0.07658119 0.0077082403 0.046678744 -0.03237128
000200 e5 38 0d bc 0d 63 52 3b 31 7a fd bd 4e e0 81 bd
       -0.008619522 0.0032102496 -0.12376822 -0.06341611
000210 98 4f d3 bd 3b 85 e8 bd de 0c 61 bc b1 87 98 3d
       -0.10317916 -0.11353537 -0.013735978 0.07447756
000220 d5 94 38 3d c6 4e 69 3c 15 b4 fc bd 40 10 31 3d
       0.045063812 0.014239972 -0.123390354 0.043228388
000230 3c 66 92 bb c2 7d e6 bd 4c 9a be 3d 02 b1 9c bb
       -0.0044677537 -0.11254455 0.093067735 -0.004781843
000240 6e 4d f1 3d ca cc 7b bb a2 c9 8a 3d 12 cd fa bc
       0.11782347 -0.0038421624 0.0677674 -0.030615363
000250 55 97 81 3d a5 b6 60 3d 33 8d 0c be 54 b0 9a bd
       0.063276924 0.054861683 -0.13725738 -0.07553163
000260 99 14 13 3d fe 1c dd 3c b4 ac 70 3d 77 2e aa bc
       0.035908315 0.026991364 0.058758453 -0.02077411
000270 6b 65 db bb 0b 7e 4c bd ea e9 f5 bd ea a1 01 3e
       -0.0066954396 -0.04992489 -0.12007506 0.12659422
000280 0f 8c 54 3d fe 7c 3f 3c 9c 70 92 bb 09 b9 d3 3d
       0.051891383 0.011687515 -0.0044689905 0.10338027
000290 68 fc a4 bd ea 4c 1a 3b f3 1c e8 3c c0 2e 59 3c
       -0.08055955 0.002354438 0.028334117 0.013255775
0002a0 90 a9 e3 3d 7d 61 49 3d 24 e4 e2 3d f7 1c 34 ba
       0.11116326 0.049165238 0.110786706 -0.0006870771
0002b0 5e 21 e7 3d 05 59 46 3d 17 e0 8a 3d e7 a8 c5 3d
       0.11285661 0.04842474 0.06781023 0.09651356
0002c0 22 74 10 3d 43 9b 6f 3d 18 2f dc bc e8 4c a1 3d
       0.035267003 0.05849768 -0.026877925 0.07875997
0002d0 58 0b b9 bd da 07 1c bc 7e 05 79 bd c7 7c c3 bd
       -0.09035367 -0.009523356 -0.060796253 -0.09545284
0002e0 8c 07 d5 3d 4c a5 9c 3c 22 07 e5 bd fa 3e 0b bc
       0.1040183 0.019121788 -0.11183001 -0.0084989015
0002f0 1d ee ec bc b7 81 f4 bc fb 94 f8 bc d0 f0 ee bd
       -0.028922135 -0.02984701 -0.030344477 -0.11667025
000300 a6 dc ca 37 3c 8c 39 3d 5e 70 f2 3d 38 18 04 be
       2.4183024e-05 0.045299754 0.118378386 -0.12899864
000310 66 ff 2c bd 9f ea a3 3d 93 94 ef 3d c4 9c e6 bd
       -0.042235754 0.08003735 0.1169826 -0.112603694
000320 e2 92 67 bd 83 90 db 3d fc b5 bc 3d 91 d0 da bb
       -0.056536563 0.10720923 0.09214398 -0.006677695
000330 c8 c6 ec 3d e0 00 20 bc 0a 79 6f 3c 99 ac 0e 3d
       0.11561352 -0.009765834 0.01461626 0.03483257
000340 f8 99 40 3d 99 23 81 bd f0 cb 60 3d 7f 25 69 bc
       0.047021836 -0.06305618 0.05488199 -0.014230131
000350 85 d4 9c 3d 61 ac e4 bc ff 97 95 bd bf fe 33 bb
       0.076577224 -0.027914228 -0.073043816 -0.0027465073
000360 b3 f6 4c bd 81 88 55 bd 5b e6 45 3d 21 59 1b bd
       -0.05003996 -0.052132133 0.048315387 -0.037926797
000370 29 01 73 bd 3b 48 13 bd 21 99 c8 bd 15 b7 af bd
       -0.05932728 -0.035957556 -0.09794832 -0.08579842
000380 4f 7e e5 3c dc 75 23 3c 34 23 c9 bd 3d 9a 85 3d
       0.02801433 0.00997683 -0.098211676 0.06523559
000390 82 94 b4 bd 7a 63 8b bd ad a1 01 3e 04 8b ab bd
       -0.08817388 -0.06806083 0.1265933 -0.083761245
0003a0 90 f7 da 3c 5b 15 db 3d 45 97 e3 bb 97 fd d3 3d
       0.026729375 0.106974326 -0.006945523 0.10351103
0003b0 3d 5a 34 3c 72 4f a7 bd 23 0d 67 3d b8 91 dc 3d
       0.011007843 -0.0816945 0.056409013 0.10769981
0003c0 4a 66 d6 3c 37 42 cf bd 7f ab 90 bd 3a 35 09 3d
       0.026171822 -0.10120051 -0.0706396 0.033498026
0003d0 d9 38 bd 3d 33 29 de bd 2a 85 82 3c 7f 97 a6 bc
       0.092393585 -0.10847702 0.015932638 -0.02033591
0003e0 79 75 6a bc 77 ae ee 3d 9d 9b 4c bd 83 a0 30 3d
       -0.014310234 0.1165437 -0.049953092 0.043121826
0003f0 fc 9c aa 3c ea 34 96 bd c3 fa 47 bb 79 1b 9f 3d
       0.02082681 -0.07334311 -0.0030514456 0.07768912

fc3.bias f4 [32]
000000 87 d6 9b bc 3c f3 a6 bd 74 16 8a 3d 73 16 bb bd
       -0.019023193 -0.08151862 0.06742564 -0.09135141
000010 38 13 70 3d 08 47 55 bd 56 cb 8c 3d 7e 8d ec 3c
       0.05861208 -0.052069694 0.06874721 0.028876062
000020 85 8d d3 bd aa 28 c0 3d 6d a5 a9 bd 8f 2e 43 bd
       -0.10329727 0.09382756 -0.082835056 -0.047651824
000030 e7 22 3f 3d 5d 5f 46 bc 55 0a d6 bb 8c 32 40 bd
       0.046664145 -0.012107697 -0.0065319934 -0.046923205
000040 98 3a 7c 3d 0f 46 cb bd 82 f6 e1 3c 69 7d 46 3c
       0.061579317 -0.09925472 0.027583364 0.012114861
000050 b7 e2 df 3d b9 7b d3 3d c2 7a 9b bd 09 36 d2 3c
       0.10931914 0.103263326 -0.075917736 0.025660532
000060 f6 2c 8c bd d9 d9 5e bd 0e 06 66 3d ee 25 7e 3a
       -0.06844513 -0.054406974 0.056158118 0.0009694983
000070 d7 77 53 bd 26 bd 78 3d cf f3 c6 bc 29 d7 87 bd
       -0.05162796 0.06072726 -0.024286179 -0.066328354

fc4.weight f4 [1, 32]
000000 fc a7 91 3d 51 95 08 be ad 88 b0 3d eb 90 3e bd
       0.071121186 -0.1333821 0.08619819 -0.046524923
000010 1a e2 88 3d c7 48 8c bd 5e 17 1b be 4d 5c 20 3e
       0.066837505 -0.06849819 -0.15145633 0.1566021
000020 85 b1 53 3d 76 30 47 bd a6 d8 74 bd 07 9e 2d 3e
       0.051682968 -0.0486302 -0.059776925 0.16954814
000030 d7 3e 92 bd 7a f2 ff 3d 5b 4e b4 3d 4c 25 3f bd
       -0.07140892 0.124974206 0.088040076 -0.04666643
000040 51 f3 d0 bc ee 69 1a 3e f7 48 28 3c 02 2f 1d be
       -0.025506647 0.15079471 0.010271302 -0.15349963
000050 4f 1b 0b 3e a6 aa 96 3d ce 00 93 bc 95 93 16 3e
       0.13584636 0.07356767 -0.01794472 0.14704736
000060 c1 cb f9 bc ca de cb 3d 96 a9 01 be 33 f0 19 3d
       -0.030492665 0.09954603 -0.12662348 0.037582587
000070 73 6f e2 3c 64 28 e7 bd 15 51 c3 3d ff bb da bd
       0.027641034 -0.11287001 0.095369495 -0.10680389
