Task1/model/res_epoch3.pth (torch, 58150 bytes, 25 tensors)

conv1.bias f4 [16]
00000000: 73e2 93bd 9d23 8dbe 3dcd 0cbf 5cfb 14bf
00000010: 10a8 093f fa56 f1bd 77eb 893c 76b9 c53e
00000020: adee c53e 5068 ae3d 4fa6 dd3e e5a0 14be
00000030: a984 583d 4c27 573e 5b0c 04bf dd5a babe
-0.07220926 -0.27566233 -0.5500067 -0.58196044 0.5377207 -0.117841676 0.016835911 0.38618058
0.38658658 0.0851599 0.43290946 -0.14514501 0.05286089 0.21011084 -0.5158135 -0.36397448

conv1.lin.weight f4 [16, 1]
00000000: 2afc 123e 5e92 933e c108 e2be 3435 dcbd
00000010: 4381 903e 31e8 1abe 0fa0 30bc 1d93 9fbe
00000020: b969 89be 3bd4 8c3e 7a8b 8cbe f8db 383e
00000030: 5770 383d 1579 02be ad36 22bf 300d a93e
0.14354005 0.28822607 -0.44147304 -0.10752335 0.2822362 -0.15127636 -0.010780348 -0.31166926
-0.26838472 0.2750567 -0.27450162 0.18052661 0.04502901 -0.12741502 -0.6336468 0.33017874

bn1.module.weight f4 [16]
00000000: 028e 7c3f bd08 7f3f 84de 7a3f 2ba1 773f
00000010: bea0 883f 0f33 813f a733 7c3f 2be5 8d3f
00000020: d14a 823f 7adb 813f 940f 813f 81eb 6f3f
00000030: 099b 7d3f d80d 893f fbbc 793f 7f11 733f
0.98654187 0.9962271 0.9799578 0.967303 1.0674055 1.0093707 0.98516315 1.1085562
1.0179082 1.0145104 1.0082879 0.93718725 0.9906469 1.070735 0.97553986 0.9494857

bn1.module.bias f4 [16]
00000000: 8c5b 28bd a9ef 873a e0d1 86bc 66fc 9b3c
00000010: 713e 4bb9 16d5 363d c4b2 49bd d833 c8bc
00000020: 6852 b83d 90b9 7a3c cb09 773d a363 283a
00000030: b9d4 d8bd 7948 0e3b 6d10 62bd b08f ddbb
-0.04110293 0.0010371107 -0.016457498 0.019041251 -0.0001938285 0.04463681 -0.04924275 -0.024438784
0.09000093 0.015303031 0.060312074 0.00064235384 -0.105874486 0.0021710678 -0.055191446 -0.0067615137

bn1.module.running_mean f4 [16]
00000000: 3935 133e 20af 213e 1969 9bbf 8363 3ebf
00000010: da59 763f 27dc b0be 8a18 2c3a 195d a9bd
00000020: 9e8c 8cbc 1778 ff3e c16c a33c 7374 013e
00000030: 8e05 f73d cf05 973c 1e0a bcbf 0aeb 073e
0.14375772 0.15789461 -1.2141448 -0.7437059 0.9623085 -0.34542963 0.0006564936 -0.0826971
-0.017156895 0.4989631 0.019949319 0.12642078 0.12061606 0.018435387 -1.4690588 0.13273254

bn1.module.running_var f4 [16]
00000000: 8cd0 903c 71eb 913d 7d2e 2b3e 7077 223c
00000010: 0bef 8b3d 39cf a03c 734e d038 eaa1 aa3d
00000020: 9713 7d3d d9ea 843d 275f 843d 45fa e43c
00000030: 151d e43a 2e29 643c 3f53 b03e 947d bf3d
0.017677568 0.07124985 0.16716953 0.009916171 0.06832703 0.019630061 9.932825e-05 0.08331664
0.06178626 0.06490106 0.06463461 0.027951369 0.0017403687 0.013925834 0.34438512 0.09350124

conv2.bias f4 [16]
00000000: f47b ca3e 5872 303d 23aa d03b c3ad b5bc
00000010: dbbc 35bf 8feb 9b3e bce3 eb3d 0cf2 d1bd
00000020: 0da2 933d 0a6d 673e 37a5 34be 5a32 6e3e
00000030: d0fe 893e 7410 a2bd c511 07be bc8c bcbe
0.39547694 0.043077797 0.006367938 -0.022177583 -0.70991296 0.30453154 0.11518046 -0.10251245
0.07208643 0.22600189 -0.1764115 0.23261395 0.2695222 -0.079132944 -0.13190372 -0.36826122

conv2.lin.weight f4 [16, 16]
00000000: 8a6d 223c 2bb4 c23e 71b6 093e 0c7b 5e3e
00000010: 37cc 793d 0cbc 9bbe 8959 c1bc 171d 0ebe
00000020: f91a b4be 7ce5 e33e c8dc d53e 6ad9 82bd
00000030: 87b9 b8be c8e5 b53e ac22 a3be 9a66 8dbd
00000040: af7c c63e 6cda 4fbe dfbe e23e a471 65be
00000050: 6c84 bd3d cc8c 383e f5bc be3e 54a0 d5be
00000060: 7d67 4bbe 8bac 11bd a283 a8be eec1 1f3e
00000070: 51c6 5fbe f87c 83bb 2c41 b0be 7ae1 b5be
00000080: 9119 19bd 5b67 bbbe f390 3cbe ba0f bcbd
00000090: 65c6 513d c016 793e ddda e3be 0c03 9ebe
000000a0: 0ddb 8abe e4cc 8b3e 040a 603e cb21 8e3e
000000b0: eead 873e 2b0b b1be c50b 97bd e516 0e3e
000000c0: a042 c9be 1a2a a33e e6f4 c5be 3018 9fbe
000000d0: 6497 8bbe c3ad af3e 3d95 3cbe 7bc7 e03e
000000e0: a621 473e e6f6 bc3e 9a3d 9f3d 7331 97be
000000f0: 7b0f c5be ac9f 193d 359b 723e 5376 e5bd
00000100: cd72 8cbd 977e 8dbd b28b a3bd 5a32 733e
00000110: 7b3c f2bd 896a e1bd b437 48be 214d 183d
00000120: 58e3 d73d a36b 87be f1d7 e0bc 0a0d 9d3e
00000130: 5aca bbbe 0c56 03be 61d8 7e3e 24b8 f23d
00000140: dab4 773e 3c22 9a3d 3850 953e e78b 163e
00000150: a1e4 61be 7f9f 9bbe ad33 943e 6a6c cc3d
00000160: 42ea 6a3e 024b 813e cea9 273d 195e 30bd
00000170: b2c2 fcbd 7477 873e dbe1 40bd fe8c 513d
00000180: cb34 40bc e801 fbbd 6372 b83e c0f3 003e
00000190: f561 ddbe e6ec 56bc 91dd f2bc a54e 3fbd
000001a0: d2e1 76be 8617 cb3e 1ea5 c5be 8509 9cbd
000001b0: d12a 443d 37df a5bd 20d4 d73e 342a a43e
000001c0: b979 b03e e5f5 dd3e df00 4a3e 906d 913c
000001d0: 2370 333e 4fbd b03e fdcb 4e3e 5077 fcbd
000001e0: c605 76be 1bf1 703e 0192 08be f7ed a3bc
000001f0: 0117 fb3e 4a5f 30bd 11f1 a7be efbc b93e
00000200: 63a1 313d 9dae b93e d20f 56be 28f8 573e
00000210: a67f f53d 2dda 47be acd4 9c3e b063 b53e
00000220: 4eb1 fd3d ecc8 a73e e1b2 c8bd 1a62 0abd
00000230: 3e79 5e3d 6b62 633e 15f0 a1bd 86f4 9dbe
00000240: 33de a33d 3d45 d93e 13f1 2abe 8bba 073e
00000250: 6c2c 953e 2d89 6e3e ff47 89be ad61 ecbc
00000260: d754 c3be e749 b43e 4708 3ebe a60b 91bd
00000270: e017 40be 67ca b53e c73b a73e 5fe9 953e
00000280: e554 22be ad55 9fbe c0ea 9cbe bc28 833d
00000290: 7b6e 72be ee35 a63e 72ce 113d 0d50 a1bd
000002a0: a2ac cb3e 2161 ad3e d03d d53e 5287 24be
000002b0: 07a5 6c3e d8ac 3c3e b666 86bd 2d64 7d3e
000002c0: 40fd ae3e 47dc 06be 1065 fdbc 3ba4 b3be
000002d0: 0d47 a0be 6d0f be3e a9ed 753e 80ec b33d
000002e0: b0b7 d8be 2879 783e f9e2 b33e 4236 df3e
000002f0: af88 afbd af12 163d e80f 223e dcb7 3bbe
00000300: 3c13 24be f693 a33e 30ba 763e f800 ef3d
00000310: e0be eb3b decd 5e3e c36c 57be 7287 a93e
00000320: 2a66 9f3e 8d56 f0be 1398 b6be 54bd 943e
00000330: 8135 7c3e ecc6 eb3e 2bcc a4bd 5dfe b23e
00000340: d927 e6ba 8f89 3f3e 1305 bc3e 1783 283e
00000350: a692 d63b 8abb b0bd 22a5 cdbe c9bb a0be
00000360: e72d 8c3d 8421 6c3e 3c5f d13e 6f8b 9f3d
00000370: fc9b 70be 6351 a23e f770 c1be 6bbb b6be
00000380: 4905 03be b501 5d3d ea1d 573e e48d 9f3e
00000390: 80b4 b2be fe58 903e 4506 bc3e 6df0 583e
000003a0: 2371 af3d 9457 a83e d0cf 8c3c 3569 e13c
000003b0: 5d28 82be e23b 9e3e b10d 8ebe 5c51 dabe
000003c0: fa9a d83c 7fc0 bdbe 133a 0bbe 15f2 abbe
000003d0: b666 f43d b3e6 9dbb fe4a 823c b223 4b3e
000003e0: acde 96bd f3b7 b73e 8481 17be 8a50 d3bd
000003f0: f3e5 d33d 7c35 c33e ca6b 3bbc e35e 65be
0.009913811 0.38028082 0.13448502 0.21726626 0.06098577 -0.30416906 -0.023602264 -0.13878284
-0.35176829 0.4451102 0.41770005 -0.06389125 -0.36079046 0.35526872 -0.3186239 -0.06904335
0.38767 -0.20298165 0.44286248 -0.22406632 0.09253773 0.1802246 0.37253538 -0.41723883
-0.19863696 -0.03556494 -0.32912928 0.15601322 -0.21852995 -0.0040127 -0.34424722 -0.35523587
-0.037377898 -0.3660229 -0.18414669 -0.09182687 0.051214594 0.24325085 -0.44502917 -0.308617
-0.27120247 0.27304757 0.2187882 0.27760157 0.26499885 -0.34578833 -0.07375292 0.13875921
-0.39308643 0.31868058 -0.38663405 -0.3107314 -0.2726394 0.34312257 -0.18416305 0.43902192
0.1944643 0.3690712 0.077754214 -0.29529914 -0.38488373 0.03750579 0.2369202 -0.11204209
-0.06857834 -0.06908911 -0.07985629 0.23749676 -0.11827942 -0.11006648 -0.19552499 0.03718293
0.10541409 -0.26449308 -0.027446719 0.3067401 -0.3667782 -0.12825793 0.2488723 0.11851528
0.24190083 0.07526061 0.29162765 0.14701806 -0.22059871 -0.30395123 0.28945675 0.09981616
0.22940925 0.2525254 0.040933423 -0.04305849 -0.12341823 0.26458323 -0.047090393 0.05115985
-0.011731337 -0.12256223 0.3602477 0.12592983 -0.43238798 -0.013118004 -0.029646667 -0.04670586
-0.24109581 0.39666384 -0.38602537 -0.07619003 0.047892395 -0.080992155 0.42154026 0.32063448
0.34467867 0.43351665 0.19726895 0.017752439 0.17523246 0.3451943 0.20195003 -0.123274446
-0.2402564 0.23529474 -0.13336946 -0.020010931 0.49040988 -0.043059625 -0.32801107 0.36276957
0.0433668 0.36266032 -0.20904472 0.21090758 0.11987238 -0.19516821 0.30631006 0.35427618
0.12387334 0.3277048 -0.097997434 -0.033784963 0.054314844 0.22205512 -0.0790712 -0.3085062
0.080013655 0.42435637 -0.16693525 0.13254754 0.29135454 0.23294516 -0.2681274 -0.02885517
-0.38150665 0.35212633 -0.18557845 -0.070823 -0.18759108 0.35505983 0.32662794 0.2927961
-0.15852697 -0.31120053 -0.3064785 0.06404254 -0.23674957 0.3246302 0.035597272 -0.078765966
0.39780146 0.33863166 0.41648722 -0.16067246 0.23109828 0.1842531 -0.06562559 0.24745245
0.3417759 -0.13169967 -0.03093198 -0.35086235 -0.31304207 0.37121144 0.24016441 0.08785343
-0.42327642 0.24264967 0.35134104 0.43596083 -0.08570992 0.03663891 0.1582638 -0.18331856
-0.16022962 0.31948823 0.24094462 0.11670107 0.007194385 0.2175822 -0.21037583 0.3311115
0.31132632 -0.46941033 -0.35662898 0.29050696 0.24629785 0.46050203 -0.080467544 0.3495969
-0.0017559483 0.18704818 0.3672262 0.16456257 0.0065482436 -0.0862952 -0.4016505 -0.3139327
0.06844693 0.2305966 0.4089297 0.07790267 -0.23497003 0.31702718 -0.37781498 -0.35689864
-0.12794985 0.053956706 0.21007505 0.3116294 -0.34903336 0.28192896 0.36723533 0.21185465
0.08566501 0.32879317 0.017188936 0.027515987 -0.2542142 0.30905062 -0.2774482 -0.42640197
0.026441086 -0.37060925 -0.13596372 -0.3358313 0.11933653 -0.0048187613 0.0159049 0.19837835
-0.0736669 0.3588253 -0.147955 -0.10318096 0.10346594 0.38126743 -0.011439273 -0.22399478

bn2.module.weight f4 [16]
00000000: 9dcb 813f af25 783f d8c9 833f 771f 7e3f
00000010: 020f 7e3f d28a 803f a6d7 983f 2064 813f
00000020: dde8 7a3f 1836 7b3f 6141 823f e047 7f3f
00000030: dbe6 7b3f 06db 7f3f beec 7d3f b813 803f
1.0140263 0.969325 1.0295973 0.9926676 0.9924165 1.0042365 1.1940811 1.0108681
0.9801157 0.98129416 1.0176202 0.9971905 0.9839913 0.9994358 0.99189365 1.0006018

bn2.module.bias f4 [16]
00000000: 43b2 aabb 8dd5 683c 5b90 fabb 8497 8cbc
00000010: 1828 b63c 7ce0 893b d7fb 94bc ccd7 84bb
00000020: 1757 18bd 23d9 cab9 52f7 073d 080f c6bc
00000030: 0331 0cbd f61e a8bb c146 60bc 80a7 3ebd
-0.0052092387 0.014211071 -0.007646603 -0.017162092 0.022235915 0.004207669 -0.018186493 -0.0040540453
-0.03719243 -0.00038690222 0.033194847 -0.02417709 -0.03422643 -0.005130644 -0.013688744 -0.04654646

bn2.module.running_mean f4 [16]
00000000: c58b 023f 9fdd 19be 2ec2 3ebe 05d7 3e3c
00000010: 9415 46bf f858 183f ca0a dc3d d35e 6e3e
00000020: 41e8 b63e 3b21 f63e bb7f ae3d f3d2 c03e
00000030: 21e7 253f 37ef edb8 0993 f63d 67c7 cabe
0.5099452 -0.15025948 -0.18628761 0.011647944 -0.77376676 0.59510756 0.10744245 0.2327836
0.3572407 0.48072228 0.085204564 0.3766094 0.648058 -0.00011345598 0.120397635 -0.39605257

bn2.module.running_var f4 [16]
00000000: f707 c13c a6fe f83d 774b 4f3f 0bee 7a3e
00000010: a8ae f83c 4d89 ab3e 580b 5c3a 6615 da3e
00000020: bc10 d53d fb2b 103e c0a1 e23e 37a9 3f3d
00000030: c806 bd3e 15c4 8f3c 341a 9c3f 2b4c 293a
0.023563368 0.12157945 0.80974525 0.24504869 0.03035672 0.3350319 0.00083940243 0.4259445
0.104035825 0.14079277 0.4426403 0.046792235 0.36919236 0.017549554 1.2195497 0.0006458188

conv3.bias f4 [8]
00000000: 113d db3e 8641 3abe 9340 21be 9a33 393c
00000010: 4d36 05bc aa90 39bd 6e1b 973d fd8b d43c
0.42820027 -0.18189058 -0.1574729 0.011303807 -0.008130622 -0.045303978 0.07378279 0.025945658

conv3.lin.weight f4 [8, 16]
00000000: 41ac 8f3e f1bd 50be 7f4b 343e 9a07 8f3e
00000010: c2e3 39be bb1b f8be 55eb 1bbe ecb3 9cbe
00000020: c68e 39bb 2f25 743e 44f3 ab3e 0ad3 71bd
00000030: 0fd5 81be 63f0 a13e d62c 583e 5aad b13e
00000040: 393c 143e e97a b7be d977 6e3e efeb cebe
00000050: 66e1 b7be 3075 d33e edaf 303f 0fbc 36be
00000060: bfa4 c0bd 5358 b13e 19f0 97bd 150f a53d
00000070: 2cf9 d63e 74a0 2b3d adbd 183e 3aaa 123e
00000080: 5ffe 1cbe 472b 213e 5538 a63e 2ff7 953e
00000090: 2031 d8be e241 edbd 272d 2fbf 2b1f 8c3d
000000a0: 4c74 80bd 4d47 9e3d 5b17 b33e 5203 233c
000000b0: 1b7e 01bf 949e f83d 0e91 903e ff50 593e
000000c0: e565 06be bb8c 56be 1054 ccbd 2cbe 9e3e
000000d0: e65f b9be 363e 91be c5c2 193e c514 a63e
000000e0: 6320 b63e 7b0f debd c3a1 bdbe e637 a03e
000000f0: 2f7f 4dbe fbe1 1ebe a994 aa3d 3bf5 39be
00000100: b231 a3be 9653 4a3c e0cc bfbb bce2 813e
00000110: 3b7a d23e b19b 9bbe 35af b9be ef27 c03b
00000120: 47f5 893e 163e 0f3f 4388 d7bd 02e0 ab3e
00000130: ec06 a73d 6bbd b8be e17a 8ebe 1b73 36be
00000140: b5ea a93e 857a a23d 004e 38bd 819e 9ebe
00000150: c42f 8b3e c6a4 96bc 3013 03bf 4535 15bc
00000160: 7e51 843e 3a1d 65be b6dd f8bd aad9 e83e
00000170: e1d7 31be d9a9 093e 00fc 193e 96de 80be
00000180: 6140 4e3e 9160 dabb 7fd8 d0be 0f8c d9bc
00000190: 05f9 8fbd 111a 283d 6935 e4bd 4b25 743e
000001a0: 5af5 333e 6bfd 8d3e a89b 87be 2233 5cbd
000001b0: d023 9cbe a951 df3e e4e0 0abb 27ba 00be
000001c0: 9893 a6bd d202 57be 5a6b d53e 353c 41be
000001d0: 8b31 573e 5af3 d93e 12b5 2f3d 8fd3 e8be
000001e0: d657 a2be 7430 d33e 972e f23e 50ce 44be
000001f0: 8f81 84bd 2b40 38be 77bd 83be f55d 8bbe
0.28061107 -0.20384957 0.17606924 0.27935487 -0.18153289 -0.48458657 -0.15226491 -0.3060602
-0.002831386 0.2384231 0.33584034 -0.059039153 -0.25357863 0.31628713 0.21110854 0.3470257
0.14476098 -0.3583596 0.23287906 -0.40414378 -0.35914153 0.41300344 0.6901844 -0.17845176
-0.09406423 0.346377 -0.07418842 0.08059517 0.41986978 0.041901067 0.14916106 0.14322749
-0.1533141 0.15739165 0.32464853 0.2929015 -0.4222498 -0.11584832 -0.6842827 0.06841882
-0.06272182 0.07728443 0.34978756 0.009949522 -0.50583047 0.121396214 0.28235668 0.21222304
-0.13124807 -0.20952122 -0.09976971 0.31004465 -0.36205977 -0.28367776 0.15015705 0.3243772
0.35571584 -0.108427964 -0.37037477 0.31292647 -0.20068048 -0.15515892 0.08329136 -0.18159954
-0.31873852 0.01234903 -0.0058532804 0.25368297 0.4110888 -0.3039222 -0.36266485 0.0058641355
0.26944944 0.5595411 -0.10524037 0.33569342 0.08155617 -0.36082014 -0.27828124 -0.17817347
0.3318688 0.07933525 -0.04499626 -0.30980304 0.2718488 -0.018389117 -0.5120115 -0.009106939
0.25843424 -0.2237443 -0.12151663 0.45478565 -0.17367508 0.13443698 0.15037537 -0.2516982
0.20141746 -0.0066643436 -0.40790173 -0.026556043 -0.070299186 0.041040484 -0.11143 0.23842351
0.17574063 0.27732405 -0.26485944 -0.0537597 -0.30496073 0.4361699 -0.0021191174 -0.12571011
-0.0813362 -0.2099717 0.41683465 -0.18870623 0.21014993 0.42568475 0.04289729 -0.45473906
-0.31707639 0.41247904 0.4730117 -0.19219327 -0.06470024 -0.17993228 -0.25730488 -0.2722012

bn3.module.weight f4 [8]
00000000: db5e 9a3f 24b6 823f aa9c 813f 134d 7b3f
00000010: b881 8a3f 5aae 7a3f 659d 823f de79 8d3f
1.2060198 1.0211835 1.0125935 0.9816448 1.0820837 0.9792229 1.0204283 1.1052816

bn3.module.bias f4 [8]
00000000: 5ab1 083c d753 acbc fe3d d1bc 57dd 29bd
00000010: 922b c23d fb9d adbc 7265 8ebd 9932 c7bc
0.008343065 -0.021036072 -0.025542255 -0.04147085 0.09480967 -0.021193495 -0.06952943 -0.024316119

bn3.module.running_mean f4 [8]
00000000: 39e1 103f 6066 e33d c0a9 34be d620 2dbe
00000010: ec18 60bd a7ff 9dbd 5f45 ee3c 0f6d d938
0.5659366 0.11103511 -0.1764288 -0.16907057 -0.054711267 -0.077147774 0.029085813 0.0001036768

bn3.module.running_var f4 [8]
00000000: e0ae 4c3b caf2 ce3e 4e22 ae3d 244a 0f3d
00000010: 73e9 c13c 6dc0 5c3e 8e93 de3c 8555 0a3c
0.0031232163 0.40419608 0.08502637 0.034982815 0.023670888 0.2155778 0.027169969 0.008443241

fc1.weight f4 [128, 8]
00000000: 320f 2b3e fd6f d0bd 7e32 da3d 4a6d 5a3e
00000010: 41d5 1b3e d919 14be b9f4 623e 73c3 d4be
00000020: 6a3a 47be 47b0 6c3e 8f86 49be 5e09 f0bd
00000030: db6d f13d 7165 08be 8ea6 2cbe 94fc 3e3e
00000040: 3f14 30be 1706 77be ed8c 74be c01a 0fbe
00000050: ee08 333e 4af7 88be 9cbe 053e 84bc 81be
00000060: 1531 c1bd 469b 4f3e 4686 4fbe fc1e 563e
00000070: facd d6bd 1fa6 04bd 26e5 55bd f31c 2d3e
00000080: f50f 99be a69b 863c a884 b2be 64b1 86be
00000090: db06 213e 6085 7ebc 3e13 b2be b3a1 033e
000000a0: 7f35 8c3e 5b0f 0c3e 0fc2 1a3e 5817 9a3e
000000b0: ea3e 8fbd f8c8 09bd 4296 95be ad70 8cbe
000000c0: cc58 8a3e 74dc 463e 9878 98be 76aa 1eba
000000d0: b02b 06be 42f0 6b3e b2ab 54be 53f5 47be
000000e0: 6752 3a3e a0ed 55be 9ea4 85be be1e 24be
000000f0: 9871 cb3d 44ba c33e e4c0 f73d 4b6a 90be
00000100: 6f68 1cbd 5f78 babe 21a6 403e 18b3 733e
00000110: db6d 34be b39e 963e e5cb 233b c3d2 463c
00000120: 956e 06be a7e5 62be f861 dfbd c2db 46be
00000130: a589 33be 8577 b43e 27d1 8e3e 1215 4d3e
00000140: 7754 99be 304c 65be a0b1 873e 4a21 b53d
00000150: af01 463e 87f2 193e 33e1 88bd ca3e 8d3e
00000160: f389 1b3e 7d4a 73be 1947 81bc cfcd a23e
00000170: d593 b03e 9f99 42bd 85c8 afbe 6671 a0bd
00000180: 1c4d 7b3e 8318 6ebe 348c 81bd ef4d c5bd
00000190: cc19 083e 444b ee3d abf9 6dbe 8f1c 9d3d
000001a0: 6efc c13b a05f aa3b b7c8 af3e 8090 0e3d
000001b0: ef68 3bbe 523a 9a3d c8af 403e edb6 8bbe
000001c0: ea0b b3be 9db3 1a3d be41 1ebe b547 25bd
000001d0: 8249 b23d a911 23bd 329f 4f3e da95 993e
000001e0: d0f7 3a3e 4729 2bbe 6559 cebd 603b 95be
000001f0: 24b8 2e3e 43f4 c43e 87fd 88be 47a0 18be
00000200: 22c5 87be 0646 52be b3f1 a83d 9d22 a4bd
00000210: efc5 623e 2d10 353e d294 95be bb7f 853e
00000220: b54f 97be b9dd 223c b5a4 71be cc41 e43c
00000230: 26eb 2e3e 237d 5bbd 3231 433e 0e7b b53e
00000240: c6ef 8bbe f662 2fbe 9726 883e e168 7d3b
00000250: ea75 ae3e e097 11be 25fa 37bd ed1f 2bbc
00000260: 9817 f9bd 80b5 97be 65cd e6bc 7d10 f93d
00000270: 95cd 033d 71d7 aebe a66e 963e 35b6 7d3e
00000280: 0ca1 243e 39f7 11bc 22f6 13be 9cd2 bf3d
00000290: 4ac9 89bd a833 853e 763b 743e 3618 d3bc
000002a0: 007c ddbd 8726 ae3d 0cde 45be 712e bfbe
000002b0: ce97 8bbd 578d 0abe 8453 c2bb 3686 f8bd
000002c0: 63a2 b9be a5b3 1cbe a399 98be c252 5dbe
000002d0: 1a9c 94be d127 363e 20e9 00bd 42a2 503e
000002e0: 9d56 92be cdcd 3e3e da97 d6bb 2c52 4e3e
000002f0: c22d 3f3e 5dfa 873e b73d dcbd 3008 293d
00000300: 1360 f33d dc0a 883e e3f1 1a3e ed90 df3d
00000310: cb4e 9dbe 3155 8dbe c106 143e 3784 30be
00000320: 5145 b9be a228 47be 2d17 0cbe 641d 96be
00000330: 7108 98bd 2bb6 413e 742b 663e 283f e03d
00000340: 376b 36be 2029 7f3e 80b5 3c3e 95dc 0cbe
00000350: 39ba 963e 022e cfbd 7029 c03d 694a 93be
00000360: 757c 5dbe 5113 84be d203 333d 9190 a33e
00000370: 19cb 993d e8b3 4b3d 48de 34be 14bd a63e
00000380: 0907 67be 29eb a0be cd77 7b3e fad3 4c3e
00000390: d3fb a43d 16a6 7f3d 8f75 47be 7294 353e
000003a0: 8d0d 80bd aeaa 973e af29 8abd 4eed 8abe
000003b0: f111 aa3e 67d2 b93d 9a20 453d ae41 7abe
000003c0: 8f3e 24be 60d1 a03e ebae 87be 9cdf 203e
000003d0: 30ad 0bbe 2375 32be f954 283d 75ea 193d
000003e0: e233 fe3d 57a7 ad3e 6d19 0c3e 4bde 98be
000003f0: c972 233c cd8c 69bd e1e8 01be b558 52be
0.16705015 -0.1017761 0.10654162 0.21330753 0.15218069 -0.14462985 0.22163667 -0.41555366
-0.19455877 0.2311412 -0.19680236 -0.11720537 0.117885314 -0.13319947 -0.1686041 0.18651038
-0.17195223 -0.24123417 -0.23881884 -0.13975048 0.17483875 -0.26751167 0.13060993 -0.25339139
-0.0943319 0.20274076 -0.20266065 0.20910257 -0.10488506 -0.032384988 -0.052220486 0.16905575
-0.29894987 0.01643164 -0.34866834 -0.26307213 0.15725271 -0.015534729 -0.34780306 0.12854652
0.27384564 0.13677733 0.1511309 0.30095935 -0.06994422 -0.033638924 -0.292162 -0.27429715
0.27020872 0.19420034 -0.29779506 -0.00060526223 -0.13102603 0.2304087 -0.20768622 -0.19527178
0.18195496 -0.20891428 -0.26102155 -0.16027352 0.09933776 0.38228047 0.12097338 -0.28206095
-0.038185533 -0.3641996 0.18813373 0.23798788 -0.17620032 0.29417953 0.0024993357 0.01213521
-0.13128121 -0.22157918 -0.10907358 -0.19419768 -0.17532976 0.35247436 0.27893946 0.20027569
-0.29947254 -0.22392344 0.26502705 0.0884424 0.1933658 0.15033923 -0.06683578 0.27586967
0.15189342 -0.23758884 -0.015780972 0.31797644 0.34487787 -0.047509786 -0.34332672 -0.07834129
0.24541134 -0.23251538 -0.0632557 -0.09634005 0.1329109 0.116354495 -0.23239772 0.07671463
0.0059199845 0.0051993877 0.3433282 0.034805775 -0.18301748 0.07530655 0.18817055 -0.27288
-0.34970027 0.03776895 -0.15454766 -0.04035159 0.08705427 -0.039811764 0.20275572 0.2999714
0.18258595 -0.16714965 -0.100756444 -0.29146862 0.17062432 0.38467607 -0.26755926 -0.14904891
-0.26517588 -0.20534524 0.082492255 -0.080144145 0.22145818 0.17681952 -0.29215103 0.26074013
-0.29553 0.009940558 -0.23597987 0.027863406 0.1708189 -0.053586137 0.19061735 0.35445446
-0.2733137 -0.17127594 0.26591942 0.003866725 0.34074336 -0.14218092 -0.04491629 -0.010444623
-0.12162703 -0.2963066 -0.028174112 0.12161348 0.03217848 -0.34148744 0.29381293 0.24776538
0.1607706 -0.00890904 -0.14449361 0.093663424 -0.06727846 0.26015973 0.23850808 -0.02576838
-0.10814667 0.08503442 -0.19322985 -0.3734012 -0.06816064 -0.1353048 -0.005930366 -0.12134974
-0.36256704 -0.15302904 -0.29804716 -0.21613601 -0.29025346 0.17788626 -0.031472325 0.20374396
-0.28581706 0.18633194 -0.006548864 0.20148534 0.18669799 0.265582 -0.10753959 0.041267574
0.11883559 0.26570785 0.15131335 0.10916314 -0.30724177 -0.27604058 0.14455701 -0.17237936
-0.36185697 -0.19449094 -0.13680716 -0.29319298 -0.07423485 0.18917148 0.22477514 0.10949546
-0.17814337 0.24918032 0.18428612 -0.1375602 0.29438952 -0.10116197 0.093829036 -0.28767708
-0.21629508 -0.25795987 0.043704815 0.31946233 0.07509441 0.04973212 -0.17662919 0.3256613
-0.22561277 -0.31429413 0.24557419 0.20002738 0.08055844 0.06241425 -0.19478439 0.17732409
-0.062525846 0.29622406 -0.06746232 -0.27134174 0.33216813 0.09073334 0.048126794 -0.24439117
-0.16039489 0.3140974 -0.2650064 0.157103 -0.13640285 -0.17427497 0.04109666 0.03757711
0.124122396 0.33916733 0.13681574 -0.29857096 0.009976097 -0.057019044 -0.12686493 -0.20541652

fc1.bias f4 [128]
00000000: 6980 003e 7eed 793e a278 20be b660 03be
00000010: e7bd abbd 7730 a6be a821 5c3e 62ee 5f3e
00000020: 891a 6cbe 70c9 493d bbbb 423e 7e70 62be
00000030: 5e6f 2a3d 9a6f 88be 8b15 95bd 80d8 b63e
00000040: af11 0c3e 5dee 9bbe 3365 1a3d 3472 1b3e
00000050: 468a c6be b9a1 9abe faac 093e ee64 3c3e
00000060: b943 20bc f3e8 5dbe 1443 4cbe f742 95be
00000070: 76b1 6cbd 1af4 6ebe f4c4 a13e e50b 013e
00000080: 102c 81be 844b aabd 1292 b13d 7eb3 a03e
00000090: 5d76 9d3e cc9b 873e 7bc2 e0bc e760 113e
000000a0: 9b0b b33d 3f01 6b3e 1a2a 97be 2305 aebd
000000b0: a91b f2bd 77bd 41be 9658 643e 7a13 493e
000000c0: f065 1f3e 8a33 cd3c 4b60 453e 9b8b df3d
000000d0: 94bb 303e 82ea 983e bf95 8cbd ebcf 333d
000000e0: 1ac2 8abe 2a8f 34be 3356 16be db93 9cbc
000000f0: 4a84 a5be 94b7 96be bfea afbd faa8 2bbb
00000100: d5a4 cbbe d6d4 59be a654 b53d e2ef c3bd
00000110: e74f 82be 96c8 40be 50a0 92bc 504a 3b3e
00000120: 6543 95be a868 b1bd af6b cf3d 2079 7c3e
00000130: b05e afbe 0c3a a4be 448f d63d 3cc2 c6bd
00000140: d4dc 8b3e 11b7 713d 793e 2fbe 73c2 053e
00000150: 0c10 a63d 3c50 77be 1087 36bd 17ad 8dbe
00000160: b808 733e d960 163d 4bc9 823e 945b 3a3e
00000170: 1630 84be 128c 103e 4341 89be 3985 853e
00000180: 058c 483e 6ea9 bf3d a9ce 4c3e 3ab6 bfbd
00000190: 98fc 833e acd9 a83d 85dd 06be 1b51 433e
000001a0: af13 67bd a60b 8bbd 959c c0be 0205 44be
000001b0: 585f 8ebe be2e ccbe a077 a1bd d643 19bb
000001c0: 9ee9 303e 2179 b2bd 4a4f 253e d84c 62be
000001d0: 5b1a da3d 8f30 b2be c67a 9dbd 8586 9b3d
000001e0: fa0b aabe 47d2 8ebe bded 683e 3e67 143e
000001f0: 1f1c a13e 6fbc 033d abe6 4a3e eeea 8f3d
0.12548985 0.24407002 -0.15671018 -0.12829861 -0.083858304 -0.3245885 0.21497214 0.2186828
-0.23056997 0.04926437 0.19016926 -0.22113225 0.041610114 -0.26647645 -0.072794996 0.3571205
0.13678621 -0.30455294 0.037694167 0.15180284 -0.3877737 -0.3020151 0.13444892 0.18397877
-0.009781771 -0.21670894 -0.19947463 -0.29152653 -0.057786427 -0.23335305 0.31595576 0.12602194
-0.2522893 -0.08315185 0.08670439 0.31386942 0.30754367 0.2648605 -0.027436486 0.14197122
0.08742448 0.22949694 -0.29524308 -0.084970735 -0.11821682 -0.18919931 0.22299418 0.19636336
0.1556623 0.02504899 0.19275014 0.109152995 0.17259055 0.29866415 -0.06864499 0.043899458
-0.27101213 -0.17632738 -0.1468132 -0.019113472 -0.3232749 -0.29436934 -0.08589696 -0.0026193247
-0.39774194 -0.21272597 0.08854036 -0.095672384 -0.25451586 -0.18826517 -0.017898709 0.18290067
-0.2915298 -0.0866254 0.10127961 0.2465558 -0.34251928 -0.32075536 0.104765445 -0.09705016
0.27316916 0.059012476 -0.17113675 0.13062458 0.081085294 -0.241517 -0.0445624 -0.2767112
0.23733795 0.036713455 0.255442 0.18198997 -0.25817937 0.14115933 -0.26807603 0.26078203
0.19584663 0.09358488 0.2000071 -0.09360929 0.2577865 0.082446426 -0.1317044 0.19073908
-0.056415256 -0.06789331 -0.37619463 -0.19142535 -0.27807117 -0.3987941 -0.07884145 -0.002338638
0.17276618 -0.0871451 0.16143528 -0.22099626 0.10649558 -0.34802672 -0.07689433 0.07594017
-0.33212262 -0.27894804 0.2274694 0.14492509 0.31466767 0.032162126 0.19814555 0.07027231

fc2.weight f4 [64, 128]
00000000: 89ff 9c3d 630f 9fbd 17d5 31bd 807f 833d
00000010: 2367 3cbb 21cc 853d 2ef6 6a3e 6ef0 ab3d
00000020: fa7d f4bd 36cc 73be 6b92 373d 80ee a1bd
00000030: b1fb 90bc e7c5 b63d 136e 84be 582c f1bb
00000040: 0b51 8dbe bae6 68be 0ac6 1dbe 3bfe 8c3d
00000050: 3148 3fba 73de 283d f25f 69bd 524b 673c
00000060: 0acc ba3e d8c5 c4bc e46d cdbd 5c9a 4bbe
00000070: a24b a6be 93d0 933b 32af ffbc ce52 bb3e
00000080: be87 11bd 4a1c 17bb 1866 5b3d b7d9 ea3d
00000090: 81c2 d6bd 5433 223e 8a0c aabe 81e6 913d
000000a0: 278a 16be 2029 b63c 3413 453d e1ed 403c
000000b0: 4012 5c3d 954a 17bd 2024 0a3c 1e24 963d
000000c0: d785 02bd 4c15 c0bd 3ed0 b43c 98e3 46bb
000000d0: f11a 54bd 77f4 79bd 53fb 00bf fd07 c03c
000000e0: 6d46 f73c a88e 9fbd 57ff 1b3e 6167 873c
000000f0: d6f7 103d e02e 36bd 8f52 2bbd b41e 86be
00000100: 75e2 013b 89bd 1cbc 10b9 a4bc af7f 8fbd
00000110: 8722 f8bd fa3d 9fbd 69d7 acbd 611d 38bc
00000120: 48c8 a63c 2b4d de3c fb6b 6ebd c423 cb3b
00000130: b7bc 80bc ea48 f53b 08aa 98bd b60a 81bd
00000140: da27 463d 72a0 f93c a7c1 3f3c 2423 2bbe
00000150: 51cc 4a3c d396 803d 63d6 0ebc 6cac 7d3c
00000160: ccb7 9b3d 0f85 1ebb 57f3 803a 4eed 253f
00000170: bbd1 6ebd 5226 30bd 3e82 3dbd d219 bdbd
00000180: 895a d63c d310 86bd 055e 4ebd 3ee7 71bd
00000190: a59f 0cbc 5b89 a1bc f2f0 6bbe 48d1 1fbd
000001a0: 6e88 11bd f91d 79bd 3198 02be bbd9 c9bd
000001b0: 039f 3b3b df9e bd3b 7f89 18bd f7c0 86be
000001c0: 51e9 893d 7d89 a6bd 4427 063d 75d3 8d3d
000001d0: e7bf 54bd 5f3b b7bc 3e8d 4cbe 5de3 343d
000001e0: 32b4 a73d 1337 953c a0f3 2ebd fe3e 4e3e
000001f0: f6ab 66bb 42b4 5c3d 2b10 4e3d 73ca 703d
00000200: 5e4e a9bd 22f4 06bd 1b9d 7ebd c8c5 b0bc
00000210: 8ff2 e63c f8f3 d03c b38e 993d 6e00 12bd
00000220: 6331 cbbc 61d7 1abe aa5f 983d 1b9d 7bbd
00000230: b49c 89bd 8bff 7a3d ecd9 b7bd 6253 c83b
00000240: 4f5f aebd cb32 fdbc 78f7 79be 6665 a93d
00000250: 781d bcbc dbe1 36bd da85 8a3d 0532 8b3d
00000260: 98fa 853e 33fc cf3c 9dad adbd 2105 b9bc
00000270: ca88 36be b723 8ebc 220d 0a3b 4295 223e
00000280: d963 81bd 588b 90bd 461e 5b3c b23d c53d
00000290: 5c09 a5bc 41fe cb3d 35f6 72be d977 ff3c
000002a0: 160b 87bd 1f1d b93d 8efc 9a3b 94a8 9b3b
000002b0: 78f6 9e3d 95da aa3d 7857 75bd 003b 9a3d
000002c0: 02dd 95bd 53e2 a63c d6ad 97bd 8961 ad3d
000002d0: 5e95 68bd 06d0 56bc da9b bebe 34f6 59bd
000002e0: 71df 08bc b627 b63d 487e aa3d f750 a7bd
000002f0: 1491 0dbd 26f9 acbd a99f 27bd 0725 9ebe
00000300: 5f40 15bd 843f d03b 842f 49bd f970 85bc
00000310: 3c20 15bd e3d2 20bc 75e8 6cbd f136 483c
00000320: d098 c83d 2917 62bb b728 953d 33ef 2ebd
00000330: 5e99 1ebd 273e f6bc e137 a9bd e857 763d
00000340: 9695 833d 6317 973d f6c8 56bc 7473 dabc
00000350: 3f86 e2bc 1e97 10bd 95be eaba 443f 8a3d
00000360: d1d1 a63b 4492 19bd 7fa7 af3d fcfa ee3e
00000370: 9910 2fbd e2e9 4dbd 0d10 07bc 16a8 a4bb
00000380: 597c 93bd 3dae e2bd e10c ae3d fc0d 98bb
00000390: 70b4 d0bd 3c69 cebc e37e 7bbe 0230 8b3d
000003a0: eb56 89bd ca7b 993d b562 ed3b d073 b5bc
000003b0: 1170 243d f6e1 4ebd 0f2c 123d 1c89 b3be
000003c0: 0b6f ea3d 64b4 2abd aa9c 4cbd 062e 1fbd
000003d0: 8957 ad3d 2462 213d 756a 8cbe 9bd8 c93b
000003e0: a917 10bd 48f5 a5bd 8dc3 263d d663 123e
000003f0: d4e5 efbd da28 62b9 60fc 0b3e 808b b2bd
0.07665927 -0.07766607 -0.04341611 0.06420803 -0.0028747998 0.06533075 0.22945473 0.08395468
-0.119380906 -0.23808369 0.04481737 -0.079068184 -0.01769814 0.089244656 -0.2586523 -0.0073600225
-0.27600893 -0.22744265 -0.15407577 0.06884428 -0.0007296829 0.04122777 -0.056976266 0.014117079
0.36483794 -0.02402012 -0.100307256 -0.19883102 -0.32479578 0.004510948 -0.03121147 0.36586612
-0.035529844 -0.0023057633 0.05356416 0.11467307 -0.104863174 0.15839893 -0.33212692 0.07124043
-0.14701138 0.022236407 0.048114017 0.011775465 0.053728342 -0.03693636 0.008431464 0.073311076
-0.03186592 -0.09379062 0.022071954 -0.0030348059 -0.051783506 -0.061024155 -0.5038349 0.02344131
0.030184949 -0.077908814 0.15234123 0.016528787 0.035392605 -0.044478297 -0.04182678 -0.261953
0.0019818817 -0.009566673 -0.020107776 -0.070067756 -0.121159606 -0.07775493 -0.08439524 -0.011237473
0.020359173 0.027136406 -0.058208447 0.006199332 -0.015714986 0.0074854987 -0.07454306 -0.06300871
0.04837785 0.030472014 0.011703885 -0.16712624 0.012377814 0.062787674 -0.008718106 0.015483003
0.07603416 -0.0024188196 0.0009838146 0.64815223 -0.058305483 -0.043005295 -0.046266787 -0.092334405
0.026166217 -0.06546178 -0.050382633 -0.05905842 -0.008582984 -0.019718817 -0.23041132 -0.039017946
-0.0355305 -0.0608196 -0.12753369 -0.09855982 0.0028628714 0.005786761 -0.0372405 -0.26319095
0.06733955 -0.081316926 0.03275229 0.06925098 -0.051940825 -0.022367178 -0.19975755 0.044162143
0.081886664 0.018214738 -0.042712808 0.20141217 -0.0035197712 0.053882845 0.050308388 0.05878682
-0.082669005 -0.032947667 -0.062161546 -0.021578684 0.028191833 0.025506958 0.07497921 -0.03564494
-0.024803823 -0.15121223 0.074401215 -0.061429124 -0.06719342 0.06127886 -0.08977112 0.0061134556
-0.085142724 -0.030908009 -0.24410808 0.08271293 -0.02296327 -0.044648986 0.067638114 0.0679665
0.2616775 0.025388813 -0.0848038 -0.022585453 -0.17825618 -0.017351015 0.0021064957 0.1587725
-0.063178726 -0.07057828 0.013373917 0.09630908 -0.020146064 0.099606045 -0.23726733 0.031185078
-0.06593911 0.090387575 0.004729814 0.0047503207 0.07761854 0.083424725 -0.05989787 0.075307846
-0.073175445 0.020371592 -0.074062034 0.08465869 -0.056783073 -0.01311112 -0.3722828 -0.053213313
-0.008354054 0.08894293 0.083248675 -0.0816974 -0.034562185 -0.08445959 -0.04092375 -0.30887625
-0.036438342 0.006355228 -0.04911758 -0.016289221 -0.036407694 -0.009815904 -0.057838876 0.01222013
0.09794772 -0.0034498668 0.07283156 -0.042708587 -0.03872048 -0.030058933 -0.08262611 0.060142428
0.06425016 0.073775075 -0.013109436 -0.02666638 -0.027651904 -0.035300367 -0.0017909581 0.06750348
0.00509093 -0.037493005 0.08576869 0.4667586 -0.042740438 -0.050271876 -0.008243573 -0.00502492
-0.07201452 -0.110683896 0.0849855 -0.004640339 -0.10190666 -0.025196664 -0.24560122 0.06796266
-0.067060314 0.07494314 0.007244433 -0.02214995 0.040145937 -0.050508462 0.03568655 -0.35065544
0.11446961 -0.04167594 -0.049954094 -0.03886225 0.08463962 0.039400235 -0.2742497 0.0061598546
-0.035178814 -0.08103424 0.040713836 0.14295897 -0.11713758 -0.00021568258 0.13670492 -0.08718014

fc2.bias f4 [64]
00000000: be19 c5bc 7244 e5ba ca2e a1bd 73c2 7d3b
00000010: 8f19 9dbd fb27 c53d b1a9 433d 70a6 80bc
00000020: 8467 edbb cbcb b4bc be51 803d f964 78bd
00000030: 78b2 293d c799 573d cc40 04b9 b8a6 a33d
00000040: ec20 6ebc d2f0 843a 9b5a d23b 5815 c03d
00000050: 1102 e9bc 4a36 603c 5057 75bd b12a 4dbd
00000060: c4c7 72bc 77c5 3b3d 5970 8e3d 359f 083b
00000070: e67e 603d 1b0a 90bd 5e1a a23d 12ab 84bd
00000080: 9ed0 32bd 14cb 97ba bc6b 593d 35f2 a33d
00000090: f022 8e3d 1be6 113b ea47 89bd 8b58 a23d
000000a0: 4775 c83c 668e 4ebd 9197 b33d bf77 2a3d
000000b0: d0a3 4fbd 607d 793d 7aac 9d3d 00d7 20bc
000000c0: 2278 683d 2301 bb3d 2a88 00bd 94f3 8c39
000000d0: b277 36bd 4ad6 53bd 365b 6a3d 48f2 433d
000000e0: d331 33bd bd1c 3a3d 0c1c b63c 91e6 76bd
000000f0: 90db 4ebd d770 a4bd a5e1 3abd 5b43 613b
-0.024060126 -0.0017491712 -0.078702524 0.0038720637 -0.076708905 0.09626766 0.047769252 -0.015704364
-0.007245006 -0.022069832 0.06265591 -0.06064317 0.041429967 0.052636888 -0.0001261264 0.079907835
-0.014534216 0.0010142571 0.0064194924 0.09379071 -0.028443368 0.0136848185 -0.05989772 -0.05008954
-0.014818136 0.045842614 0.06955022 0.0020846848 0.05480852 -0.070331775 0.079151854 -0.064779416
-0.043655984 -0.0011580908 0.05308126 0.08005182 0.069402575 0.0022262398 -0.0670317 0.079270445
0.024469985 -0.05042877 0.087691434 0.041618105 -0.050693333 0.060910583 0.07698913 -0.009816885
0.056755193 0.09131076 -0.031379856 0.0002688436 -0.044547744 -0.051718034 0.05721589 0.04783848
-0.043748688 0.045437563 0.02223017 -0.06027848 -0.05050236 -0.08029335 -0.045625348 0.0034372422

fc3.weight f4 [32, 64]
00000000: b9f7 49bd d1c1 1a3d 7155 2ebd 28e9 29be
00000010: f75d a0bd 5ad8 33bc 391b 1d3d 1ba4 e73d
00000020: 20de 6ebd db9c 08be aaa9 773d c87f e93d
00000030: 05c1 95bd 2510 1ebd 2a0f 94bd b678 e33d
00000040: 9c43 273d 835c 76bd 79fc 013e da77 743d
00000050: c6ab ce3d 8f1f cf3c 5f91 ef3c 5b57 82bc
00000060: c82e df3c c069 02be 826a 083e aab2 95bd
00000070: 6462 b63d c779 813d 0760 1f3c 5f24 cdbd
00000080: 4bc8 333d 113d 9f3d 7668 dbbd 0255 42bd
00000090: bd48 4e3d 6011 043d 0997 743c 138a bdbd
000000a0: 38fe 8d3d 416e 893d d51c 683d 9686 9e3c
000000b0: 1a9a 8c3d 30e9 d03d 4574 ae3d d68f 6a3c
000000c0: 54e9 983d 6a75 a13d 2ad3 b6bc 84bb 07bd
000000d0: f3f1 b63d ce54 dc3d 2705 2fbd 023d e83d
000000e0: 3fa3 aabd c01f 053d 748c 42bd d282 1d3d
000000f0: 8171 44bd e41b b3bc 8055 fb3d 1113 a9bd
00000100: 543f a9bd bfa1 51bd 7e4e e2bd 99b7 cdbd
00000110: 840e ebbd 974b d73d 12d3 80bd c987 10bc
00000120: 7351 f13d 6504 ac3c ffdf 1a3e b4df ecbc
00000130: 0b36 adbc 96d8 25bd f707 1a3e 1efb 023e
00000140: 0bc1 763d e3cb 8d3d ca01 593c 3d26 283e
00000150: f0a5 f53c 7ca5 adbd 71d4 8bbd 97ea 30bd
00000160: 4d69 983d 4098 b2bc 3aee 0c3d 7661 723d
00000170: 6381 873d fc55 5abd c0f2 fa3d 866c 5d3d
00000180: a234 93bc f016 a43d 0ed3 8abd 2b71 813d
00000190: 1e1a a23a e722 023e 9190 c13d 1773 113c
000001a0: 6ed0 fe3d a96e 1d3e d0c1 a83d 6b9b f3bc
000001b0: 8d74 8f3d f43e 113e f73f ff3d c0b5 d2bd
000001c0: bb5b cebb 833f f53d ddbe d8bd f757 4e3d
000001d0: 3aee e4bd d92e da3d eaca a43c 9f57 213d
000001e0: 70f8 cabc 9136 24bd 625b ebbd 99c2 e23c
000001f0: 0ac6 c3bd 19b4 03be 5b29 5ebd a7fc d9bd
00000200: 98bf 0c3e 9f49 4b3c 6b0c 28bd 96e3 1e3e
00000210: 80c2 5e3d 6181 14be a7cc 24bd ef47 88bd
00000220: 0e4d 1fbd a189 323d 2e82 5cbd 9968 3cbd
00000230: 77ce 323d 46fd f13d 7057 b2bd afb5 923c
00000240: cfcf 10be 40c3 f53b 2cbf fcbd 50b0 a1bd
00000250: 7ac2 f23d e32d 85bd abdb 043e 0fcb 24bd
00000260: a7ad b63d 449c 4f3d 0c74 31bd 6ad5 72bc
00000270: f154 5abd 1d22 babd 23aa 1fbe 6f13 1ebe
00000280: 145e 7cbd 24cd c63c 9852 f83d a14b 2b3d
00000290: 60be 77bd 61fb e93c 0efa 47bd 166d 383d
000002a0: 34b9 05bc 99b1 3dbb 4cad c9bd e087 23be
000002b0: ce01 223d dd30 5e3d 3565 73bd bb1a 9b3c
000002c0: 9f8c 81bd ed75 a7bc a9a1 d83d 0fe5 eb3d
000002d0: a907 843d 360c dabd e3ea efba 5e02 133d
000002e0: d785 2c3d 2c21 433e 69fd 8fbc 19ec 113e
000002f0: 98df f93d 2932 85bd a5c5 06be 3824 3a3d
00000300: 3fb8 c23d 3c25 b0bd 0458 f7bd 39e0 bbbd
00000310: 9add c6bd e916 a1bd 725c 7d3d f7ed 95bd
00000320: ab57 90bd db0e 00be 2118 173c 080c da3d
00000330: 12a3 77bd a9f1 0fbe 9736 1fbd 78fc 163e
00000340: db28 e83c 6420 c2ba f84a b53d fda0 8cbb
00000350: 61ef d0bc 274f 163e 251b 763d 004a 133e
00000360: 234d 06be 15b9 023c eb64 ecbc dbce fcbd
00000370: ddf1 bc3d 035b d2bd 5251 d23d d9c2 d73d
00000380: cea1 da3c badc a4bd 53de 8cbd 54bb 0b3e
00000390: a9aa 0b3e ba65 d53d e2c6 8bbd 8bae 5b3c
000003a0: d349 963d def7 bb3d b8d0 fe3d 46de 72bd
000003b0: 101f bb3d 4433 9d3d 5c6a ac3c 478a 07be
000003c0: 0d24 8dbd f453 98bc 88a6 e3bc e037 00be
000003d0: e77d 5a3d 3242 90bd db36 e73d 58d2 d13c
000003e0: a5d3 5c3d 6af7 d1bd b5e6 41bb 6cfc 483d
000003f0: c944 e1bd 5a40 0fbe 0408 bdbd c81b f1bd
-0.049308512 0.037782494 -0.042561952 -0.16592848 -0.07830422 -0.010976875 0.03835604 0.113105975
-0.058317304 -0.13341086 0.06046454 0.114013255 -0.07312206 -0.038589615 -0.07229455 0.11107008
0.04083596 -0.06014682 0.12693967 0.05968461 0.10091357 0.025283603 0.029244123 -0.015910795
0.027243987 -0.12735653 0.1332188 -0.07309468 0.08905485 0.06322055 0.009727485 -0.10016703
0.043892186 0.07775319 -0.10713284 -0.04744435 0.050362337 0.032243133 0.014928588 -0.09254851
0.06933254 0.067104824 0.05666812 0.019351285 0.0686533 0.10200727 0.085182704 0.01431652
0.07466379 0.07883723 -0.022317488 -0.033137813 0.08932867 0.10758363 -0.042729523 0.11339761
-0.08331918 0.032500982 -0.047497228 0.038454838 -0.04795981 -0.021863885 0.12272167 -0.0825559
-0.08264032 -0.051179644 -0.110501274 -0.10044784 -0.11477378 0.105124645 -0.062902585 -0.008821436
0.11783113 0.02099819 0.1512451 -0.028915264 -0.021143934 -0.040489756 0.15042101 0.12791106
0.060242694 0.06923654 0.013245055 0.16420837 0.029986352 -0.08478829 -0.06827629 -0.043192472
0.074419595 -0.021801114 0.034406878 0.059174977 0.066164754 -0.053304657 0.12253332 0.054058574
-0.017969433 0.080121875 -0.06778537 0.06320413 0.0012367403 0.12708627 0.09451402 0.008877537
0.124420986 0.15374245 0.08240092 -0.029737195 0.07004652 0.14184171 0.12463372 -0.10288572
-0.006297556 0.119750045 -0.10583279 0.05037686 -0.111782506 0.10653467 0.020116288 0.039390203
-0.024776667 -0.0400911 -0.11492039 0.027680682 -0.09559257 -0.1286167 -0.05423866 -0.10643893
0.13744962 0.012407689 -0.041027468 0.15516505 0.05438471 -0.14502479 -0.040234234 -0.06654345
-0.038891844 0.043588284 -0.053835087 -0.04599819 0.04365393 0.11815886 -0.08708084 0.0179089
-0.14141773 0.0075000823 -0.12341151 -0.07894957 0.118535 -0.06502893 0.12974422 -0.040232714
0.0891984 0.050686136 -0.04332356 -0.01482139 -0.053303663 -0.09088538 -0.15592246 -0.15437101
-0.061613157 0.02426774 0.121251285 0.041820172 -0.06048429 0.02856225 -0.048822455 0.045025907
-0.008161832 -0.0028944968 -0.09847507 -0.15969801 0.039552502 0.05424582 -0.05942269 0.018933645
-0.063256495 -0.020441974 0.10577709 0.11518299 0.064467736 -0.1064686 -0.0018304255 0.03589093
0.042119827 0.19055623 -0.01757689 0.1425022 0.1220085 -0.06503708 -0.13161333 0.045444697
0.095077984 -0.08600852 -0.120773345 -0.091736265 -0.09710236 -0.07865698 0.06185574 -0.07320779
-0.07047971 -0.12505667 0.009222061 0.10646826 -0.06045825 -0.1405703 -0.03887042 0.14744747
0.028339794 -0.0014810679 0.0885219 -0.0042916522 -0.02550477 0.14678632 0.06008448 0.14383698
-0.13115363 0.007978697 -0.028856715 -0.12344142 0.09225819 -0.10271265 0.10269417 0.10535211
0.026688483 -0.08049913 -0.068783425 0.13645679 0.1363932 0.104197934 -0.06825043 0.0134083135
0.073382996 0.09178136 0.12442154 -0.059294008 0.09136784 0.07675794 0.02104681 -0.13236342
-0.06891642 -0.01859472 -0.02778937 -0.12521315 0.053342726 -0.07043876 0.1128976 0.025612995
0.053912777 -0.102522686 -0.0029586975 0.049068853 -0.10999448 -0.13989392 -0.092300445 -0.11772877

fc3.bias f4 [32]
00000000: 1e6e 9b3d f04f 7bbd f23d 9f3d 100d 93bd
00000010: 7052 bdbd 477c 52bb 6fae 3939 d457 bb3d
00000020: 7bbb 413c 0d8d 83bd 8551 d0ba 8a2e ae3d
00000030: 8f71 ef3d 7650 e03d aa47 00be 0dfa 72bd
00000040: c9f6 a63d 2c3f babb d586 90bc 4ff5 d13c
00000050: 4ed7 7a3d 381d e4bd 1768 fdbd f167 133d
00000060: 8310 953d 2de5 933d d182 cfbc ffda b83d
00000070: 923b 8bbd 1605 efbd 39c9 3d3c bc4c b33d
0.075893626 -0.06135553 0.07775487 -0.07180226 -0.09244239 -0.0032117532 0.00017707956 0.09147611
0.011824484 -0.06423388 -0.0015893435 0.0850497 0.116915815 0.10952847 -0.12527338 -0.0593205
0.08152539 -0.0056838 -0.017642418 0.025629668 0.061240487 -0.111383855 -0.12373369 0.035987798
0.0727854 0.07221446 -0.025330933 0.09026145 -0.067984715 -0.11670892 0.01158362 0.0875487

fc4.weight f4 [1, 32]
00000000: 8de0 eebd a8cd fbbd 61fa 8d3e 7293 74be
00000010: 91e0 563e 4d20 0a3e 66d8 8c3e 7647 35be
00000020: 0a14 0a3e 0372 583e 77c3 cfbd 4405 033e
00000030: 5001 db3d 988b 443e 4751 033e 1a13 08be
00000040: 8857 2c3e e113 703e 7470 37be 7061 89bd
00000050: 9ae0 3a3e 9d0d 133e 4524 123e 3998 3abe
00000060: 71ef 853e 2fd2 5bbe 530b d3bd b669 ddbc
00000070: 0f97 0fbe 4321 a13d 42de e4bc 1493 353e
-0.116639234 -0.12295085 0.27730086 -0.23884371 0.20984103 0.13488884 0.2750885 -0.17703041
0.13484207 0.21137242 -0.10144704 0.12794977 0.1069361 0.19193876 0.12823974 -0.13288537
0.16830266 0.23445083 -0.17913991 -0.06708038 0.18249741 0.14360662 0.14271648 -0.18222131
0.26159242 -0.21466897 -0.10304894 -0.027027946 -0.14022468 0.07867672 -0.027938012 0.17731887
